model/final_cleaned1_trained_after_data_argument28_model6357.pth (torch, 80967 bytes, 24 tensors)

linears.0.0.weight f4 [64, 22]
-0.24983218 0.046119496 -0.05485058 -0.25882015 0.09472519 0.028560866 0.24828252 0.13506655
-0.03460843 0.10459442 -0.1760275 0.5170371 0.017235667 -0.14606015 -0.3788813 -0.11752793
0.08483348 0.11562461 -0.074050695 -0.14666285 -0.11251489 -0.007381978 -0.0045179385 0.63803786
-0.12371781 0.48073152 0.12918225 0.07535376 0.22225639 0.15336965 0.14516649 0.06472654
-0.16825148 -0.18002316 -0.008857468 0.32531607 0.18810143 0.16431446 -0.021949477 -0.09198225
0.0689379 -0.29503372 0.049315304 -0.14293769 0.13361847 0.071228325 0.0154968 0.11940008
-0.07807254 0.052645605 -0.16098152 0.12752742 -0.1731197 -0.0032496508 -0.12191409 -0.054139275
0.07607558 -0.26886448 0.20559548 0.09658745 -0.10743498 0.029545743 -0.02398887 0.061816987
0.049081057 0.26300904 0.03927682 -0.2650533 -0.24546355 -0.17809041 0.023147782 0.18043935
0.19584984 -0.017942457 -0.13960735 0.112143636 0.034460172 0.039426714 0.10975392 -0.095167466
0.11500974 -0.013034833 0.121751025 -0.2546887 0.12037495 -0.21117781 0.19020674 0.06522239
-0.13298398 0.15964678 -0.1640254 -0.17458664 -0.04323569 0.17672199 -0.07072149 0.10248437
0.12613204 0.044970516 0.16070475 0.21000737 -0.2775615 -0.01798266 -0.024259992 -0.2205453
-0.100013375 0.048765313 0.025610816 -0.03657311 -0.0728241 -0.035861947 -0.020293934 0.052217618
-0.13652071 0.009141666 -0.101910114 0.57380426 0.05867076 0.18842368 -0.13328703 -0.14768185
0.08012407 -0.2875767 0.12893039 0.17378484 0.010712332 -0.10872506 0.1346728 0.087455064
0.16177598 0.036772527 0.17434677 -0.14495882 0.062423613 0.5195311 -0.49455887 -0.13518426
0.10472248 -0.23065451 -0.13189848 -0.20310089 2.787027e-05 0.052929178 -0.10858762 0.06592553
0.26893905 0.027220255 0.22613987 0.17834964 -0.06275999 -0.23964915 0.27109984 -0.03218489
0.021592855 -0.11813416 0.34773052 -0.090235606 0.5056311 0.39092812 -0.020525232 0.12655513
0.09415651 -0.13740538 0.07191939 0.059115626 -0.011527925 -0.028680127 -0.015668849 -0.10671772
0.05792648 0.11723318 -0.04483304 0.006105578 0.029402612 0.0052375253 0.13161811 -0.01637681
-0.16572672 -0.41351324 -0.1132209 -0.06844888 -0.16347532 0.05824934 -0.00080080994 -0.08656245
-0.14347386 0.10946438 -0.0049510743 -0.38825095 -0.08797979 0.16179802 0.19580026 -0.12504834
0.088671036 -0.05387991 0.064373374 0.07625262 -0.16015023 -0.058244828 0.036543693 0.04741401
0.5531136 0.48620164 -0.02157697 0.21286695 -0.15283851 0.15868618 0.18164222 -0.11040523
0.06943475 -0.26559693 0.32257122 0.15043966 0.26561046 -0.09934106 -0.2000991 0.17200084
-0.20343909 0.16832766 0.055699192 -0.1492638 -0.17259838 0.17389491 -0.4492223 0.3707716
0.16820423 -0.023634043 -0.1529389 -0.09923246 0.03336222 0.19136639 0.20104003 -0.015688356
-0.011874586 -0.109830715 -0.0034561742 0.26094607 -0.14254668 -0.10162618 0.0790945 0.10721917
-0.2627432 0.24640857 0.028404191 -0.007307153 0.050708976 0.46550587 0.08560729 -0.79467976
-0.062757656 0.19746067 0.08387521 -0.055609334 -0.10794827 0.007250138 0.09081134 0.32674804
00000000: 02d4 7fbe cce7 3c3d 00ab 60bd 1384 84be
00000010: 48ff c13d 7af8 e93c c63d 7e3e e34e 0a3e
00000020: 92c1 0dbd 9935 d63d 8e40 34be 8b5c 043f
00000030: d031 8d3c cb90 15be bbfc c1be 7cb2 f0bd
00000040: 2dbd ad3d 98cc ec3d e4a7 97bd c92e 16be
00000050: 356e e6bd 85e4 f1bb 370b 94bb 7356 233f
00000060: c35f fdbd 7122 f63e 5a48 043e 1253 9a3d
00000070: 2e97 633e ef0c 1d3e 86a6 143e 598f 843d
00000080: 1e4a 2cbe fe57 38be ea1e 11bc d48f a63e
00000090: a99d 403e 0d42 283e 64cf b3bc 3161 bcbd
000000a0: 502f 8d3d a90e 97be d8fe 493d 425e 12be
000000b0: 48d3 083e 28e0 913d 4ae6 7d3c 0788 f43d
000000c0: 7fe4 9fbd eba2 573d 57d8 24be 8c96 023e
000000d0: 4a46 31be 18f8 54bb 18ae f9bd 25c1 5dbd
000000e0: 84cd 9b3d 9ba8 89be 9f87 523e a4cf c53d
000000f0: df06 dcbd ea09 f23c 4f84 c4bc cf33 7d3d
00000100: 3809 493d 1fa9 863e bbe0 203d 11b5 87be
00000110: cc5a 7bbe 555d 36be 6ba0 bd3c 18c5 383e
00000120: dc8c 483e 0ffc 92bc 3bf5 0ebe 90ab e53d
00000130: 1c26 0d3d e87d 213d aac6 e03d 29e7 c2bd
00000140: 3a8a eb3d 0d90 55bc 9a58 f93d 8f66 82be
00000150: 2487 f63d ff3e 58be 8ec5 423e 5193 853d
00000160: f42c 08be 727a 233e 46f6 27be d7c6 32be
00000170: e817 31bd 9cf6 343e 6ed6 90bd 53e3 d13d
00000180: c228 013e 0133 383d c98f 243e 2c0c 573e
00000190: 8a1c 8ebe 5f50 93bc e4bc c6bc a1d6 61be
000001a0: d0d3 ccbd 23be 473d c6cd d13c afcd 15bd
000001b0: cd24 95bd fae3 12bd 773f a6bc 24e2 553d
000001c0: 16cc 0bbe edc6 153c 40b6 d0bd d6e4 123f
000001d0: c050 703d 23f2 403e 657c 08be e939 17be
000001e0: 1718 a43d 413d 93be 5406 043e a7f4 313e
000001f0: c782 2f3c 3fab debd abe7 093e a41b b33d
00000200: 9aa8 253e ca9e 163d f687 323e 1670 14be
00000210: e7af 7f3d fdff 043f d236 fdbe be6d 0abe
00000220: bd78 d63d b230 6cbe 6510 07be aef9 4fbe
00000230: f3ca e937 44cc 583d 3063 debd f703 873d
00000240: 61b2 893e 03fd de3c 3691 673e 4aa1 363e
00000250: 4f88 80bd 9666 75be 99cd 8a3e 4ed4 03bd
00000260: 80e3 b03c 53f0 f1bd bc09 b23e 72cd b8bd
00000270: 0a71 013f bb27 c83e 8824 a8bc ab97 013e
00000280: 21d5 c03d ffb3 0cbe 794a 933d 3a23 723d
00000290: 9fdf 3cbc 96f2 eabc f55b 80bc d28e dabd
000002a0: 5144 6d3d f317 f03d daa2 37bd 4d11 c83b
000002b0: bfdd f03c 8c9f ab3b e6c6 063e a928 86bc
000002c0: 44b4 29be 02b8 d3be 5ce0 e7bd ed2e 8cbd
000002d0: 1366 27be dc96 6e3d 72ed 51ba a747 b1bd
000002e0: d0ea 12be dc2e e03d 9f3c a2bb d4c8 c6be
000002f0: c02e b4bd 61ae 253e dd7f 483e ac0c 00be
00000300: 2999 b53d 2eb1 5cbd 30d6 833d 552a 9c3d
00000310: 6cfe 23be 2192 6ebd d7ae 153d 3135 423d
00000320: da98 0d3f 6cef f83e 30c2 b0bc cbf9 593e
00000330: b381 1cbe a17e 223e 6b00 3a3e 231c e2bd
00000340: ce33 8e3d 52fc 87be 0e28 a53e db0c 1a3e
00000350: 18fe 873e 5373 cbbd c7e6 4cbe fd20 303e
00000360: 5652 50be 165e 2c3e d624 643d 9cd8 18be
00000370: a1bd 30be 8211 323e 7700 e6be c6d5 bd3e
00000380: bb3d 2c3e 2e9c c1bc 049c 1cbe 633a cbbd
00000390: d3a6 083d 8df5 433e 70dd 4d3e de84 80bc
000003a0: a08d 42bc edee e0bd fb80 62bb b99a 853e
000003b0: c2f7 11be 6321 d0bd 4cfc a13d b995 db3d
000003c0: 4786 86be 8752 7c3e e8af e83c d870 efbb
000003d0: 37b4 4f3d c956 ee3e e052 af3d 2270 4bbf
000003e0: 1687 80bd 2133 4a3e c4c6 ab3d 9dc6 63bd
000003f0: fc13 ddbd 9192 ed3b 4cfb b93d 854b a73e

linears.0.0.bias f4 [64]
-0.23893866 0.12971388 -0.2792605 -0.060607005 0.18743801 -0.30219173 0.25448948 -0.23010828
0.18758492 -0.26477048 -0.27102888 0.20275486 0.1728087 -0.25884706 -0.12565582 0.33653122
-2.3692718 0.18745531 0.087454155 -0.04557324 0.1437574 0.069487795 -0.06422167 0.039635297
-0.047151312 0.08078953 -0.34111282 -0.26950738 0.07159067 -0.23133624 0.14328337 -0.25926083
-0.021094523 -0.24043863 -0.087410584 -0.29762843 -0.27991822 0.08757476 0.076825894 -0.08275338
0.103568934 -0.27056015 -0.113645464 0.21526542 -0.1886919 -0.41933227 -0.02721506 -0.37641886
-0.3298464 -0.041378245 0.20318806 0.42797408 -0.13786677 -0.14773716 0.054813493 0.1398984
-0.029597543 0.0075521474 0.04848696 -0.2721676 -0.1862399 -0.1878805 -0.1627137 0.2290806
00000000: 56ac 74be b7d3 043e 3bfb 8ebe 0d3f 78bd
00000010: c0ef 3f3e e0b8 9abe 724c 823e 81a1 6bbe
00000020: 4316 403e ff8f 87be 4cc4 8abe f89e 4f3e
00000030: c4f4 303e 9a87 84be ebab 00be d24d ac3e
00000040: 26a2 17c0 49f4 3f3e 2a1b b33d 01ab 3abd
00000050: 2435 133e 9e4f 8e3d a786 83bd 9f58 223d
00000060: bc21 41bd fb74 a53d 57a6 aebe dffc 89be
00000070: 219e 923d 68e3 6cbe e0b8 123e d6bd 84be
00000080: 6cce acbc 8b35 76be 5204 b3bd c162 98be
00000090: 7151 8fbe 655a b33d e556 9d3d 9b7a a9bd
000000a0: f31b d43d dc86 8abe f4be e8bd 8a6e 5c3e
000000b0: 7338 41be b8b2 d6be 1ef2 debc f9b9 c0be
000000c0: a1e1 a8be 3c7c 29bd 8810 503e 6b1f db3e
000000d0: f22c 0dbe 6948 17be 1d84 603d 8741 0f3e
000000e0: 8c76 f2bc 0178 f73b 439a 463d 8d59 8bbe
000000f0: acb5 3ebe bf63 40be 6c9e 26be 1b94 6a3e

linears.0.3.weight f4 [16, 64]
-0.33351877 -0.12456143 0.07039324 -0.14051595 0.029432114 -0.20524675 -0.28495687 0.06343885
-0.20814611 -0.37079966 0.37323192 -0.17288752 -0.104637384 -0.14547606 0.15491006 -0.44117358
0.94314295 -0.13047491 0.07909749 -0.20496415 0.14124459 0.17925793 -0.1282431 -0.122359574
-0.138634 0.07921354 0.3688302 -0.3651932 -0.019014934 -0.21767691 -0.38179147 0.062238175
-0.1517231 0.05579424 0.19753893 -0.44335517 -0.097083665 0.028596666 0.10391784 0.20937577
-0.14326155 -0.14445494 -0.06252566 0.21727343 0.10297219 -0.33151206 -0.10994227 0.40703645
0.2713407 -0.33958992 -0.19462508 0.45329142 -0.28161362 -0.25488174 -0.20529945 0.15178011
-0.009972854 -0.09894586 0.0612194 -0.29032505 0.105076015 0.20666526 0.26631448 -0.07983654
0.06164791 0.028348748 -0.021205595 -0.19412506 0.21593016 -0.026961295 -0.17681523 -0.025169604
-0.07758917 0.0073487614 0.07429182 -0.27986422 -0.19868259 -0.17575356 -0.040850338 -0.16928878
0.540059 -0.14193231 -0.07122686 -0.07755272 -0.07902681 -0.08774296 -0.12641896 0.15791658
-0.03594644 0.07199075 0.050693262 0.14568332 0.08269309 -0.15616035 -0.091653116 -0.070313506
-0.2775047 0.12405757 -0.048068468 -0.2680809 0.17582653 -0.14640458 0.013885494 0.00059634424
0.06843609 -0.03707972 -0.090767615 -0.1265007 -0.07514955 -0.12282713 0.026163584 0.035338733
0.040103566 0.19535193 -0.07541819 0.20792454 0.05129589 -0.0048037353 -0.20845701 -0.09477744
-0.06959027 -0.10305254 -0.080111064 -0.08462501 -0.1101179 0.1146199 0.09415364 -0.12288866
0.14284146 -0.10026233 -0.08281798 0.10416594 -0.09310883 0.16044456 0.3182549 -0.015519983
0.36767462 0.16209315 -0.30241993 0.16496396 0.20213689 0.11977276 -0.12665397 0.2725812
-0.6780021 -0.05498873 0.010857767 0.09338844 0.114269964 0.052871328 0.13555388 -0.06564722
0.0025939897 -0.016845752 -0.27417022 0.23738597 -0.031698786 0.13077877 -0.068074875 0.059490874
0.039963756 0.06913163 0.005470826 0.3277329 -0.06875954 0.25255942 -0.046092793 -0.16878282
0.061368547 0.044267166 0.038810577 -0.019536143 -0.051966697 0.16404808 0.08986603 -0.2087022
0.017508809 -0.05313293 0.2281779 -0.14608642 0.12547739 0.2742724 0.18738914 0.18099135
0.08903203 0.14003645 0.13047002 0.25453272 0.03604097 -0.09135723 -0.018891785 0.14499404
-0.031560283 0.014909093 -0.013241294 -0.011847576 -0.16800657 -0.119516484 -0.16355696 -0.026217371
0.08394843 0.007265129 -0.03945961 0.30530545 0.0023130667 0.05340534 -0.037061844 -0.107272804
-0.12152724 -0.020969551 -0.004619003 0.09382793 0.04695064 0.08113686 -0.12732661 0.023409491
0.1387671 0.05784952 0.2518308 -0.11449548 -0.11838793 0.07036814 0.031843595 0.0011670147
-0.029587878 -0.12568024 -0.085975595 0.1859442 -0.013568284 -0.05472114 0.04624332 -0.0015277088
-0.042497925 -0.05150147 0.11205624 0.022192573 0.046846103 0.15524536 0.017986363 -0.052791536
-0.13205878 0.056924995 0.008953348 0.14212063 -0.12992634 -0.19671199 -0.044230632 -0.03933009
-0.067087024 0.057842348 0.14409408 -0.109699965 0.012304343 -0.058690947 -0.09975705 -0.12490118
00000000: f9c2 aabe 101a ffbd 552a 903d 6ae3 0fbe
00000010: 9e1b f13c 342c 52be dee5 91be 3aec 813d
00000020: 4124 55be 74d9 bdbe 4118 bf3e 6d09 31be
00000030: 204c d6bd adf7 14be bea0 1e3e 81e1 e1be
00000040: d171 713f 379b 05be ddfd a13d 1fe2 51be
00000050: 6ca2 103e 648f 373e 2952 03be a897 fabd
00000060: 12f6 0dbe b53a a23d 50d7 bc3e 9afa babe
00000070: 35c5 9bbc b2e6 5ebe 2c7a c3be 75ed 7e3d
00000080: 4d5d 1bbe 8088 643d a547 4a3e 73ff e2be
00000090: cdd3 c6bd 8e43 ea3c e0d2 d43d 9a66 563e
000000a0: 28b3 12be ffeb 13be 740d 80bd ed7c 5e3e
000000b0: 15e3 d23d f3bb a9be 6a29 e1bd 1567 d03e
000000c0: 2bed 8a3e bbde adbe cc4b 47be d015 e83e
000000d0: a92f 90be dc7f 82be 053a 52be 3f6c 1b3e
000000e0: 2e65 23bc 21a4 cabd 32c1 7a3d 7ca5 94be
000000f0: 1832 d73d 0fa0 533e 5f5a 883e 5781 a3bd
00000100: 8582 7c3d a23b e83c 5bb7 adbc b8c8 46be
00000110: cc1c 5d3e efdd dcbc 0d0f 35be 7c30 cebc
00000120: 12e7 9ebd e1cd f03b 4f26 983d 5d4a 8fbe
00000130: 7373 4bbe bef8 33be af52 27bd 0a5a 2dbe
00000140: 4e41 0a3f b456 11be 63df 91bd f6d3 9ebd
00000150: cfd8 a1bd 95b2 b3bd f973 01be e2b4 213e
00000160: 933c 13bd e36f 933d bda3 4f3d 022e 153e
00000170: ff5a a93d 80e8 1fbe a1b4 bbbd 8700 90bd
00000180: 1915 8ebe e511 fe3d 71e3 44bd e641 89be
00000190: df0b 343e 15eb 15be fc7f 633c fc53 1c3a
000001a0: 3928 8c3d e8e0 17bd 5fe4 b9bd 6689 01be
000001b0: 02e8 99bd ca8c fbbd 0355 d63c 59bf 103d
000001c0: a343 243d 560a 483e da74 9abd 2cea 543e
000001d0: a41b 523d a768 9dbb c175 55be ad1a c2bd
000001e0: 5885 8ebd 360d d3bd 4511 a4bd e14f adbd
000001f0: 7e85 e1bd d7bd ea3d a0d3 c03d 0dad fbbd
00000200: 0845 123e 5656 cdbd 799c a9bd f454 d53d
00000210: d8af bebd 944b 243e 4ef2 a23e 8747 7ebc
00000220: d93f bc3e bffb 253e c9d6 9abe 50ec 283e
00000230: f9fc 4e3e 6c4b f53d 94b1 01be c38f 8b3e
00000240: 8c91 2dbf dd3b 61bd c7e4 313c 7042 bf3d
00000250: 5f06 ea3d 9b8f 583d a3ce 0a3e 0d72 86bd
00000260: edff 293b 1a00 8abc 0a60 8cbe 4f15 733e
00000270: 96d6 01bd dfea 053e d76a 8bbd b4ac 733d
00000280: 09b1 233d e294 8d3d 9d44 b33b 9bcc a73e
00000290: cdd1 8cbd 784f 813e cccb 3cbd 67d5 2cbe
000002a0: 965d 7b3d 7d51 353d d7f7 1e3d 430a a0bc
000002b0: 08db 54bd 38fc 273e ae0b b83d 08b6 55be
000002c0: a26e 8f3c eaa1 59bd 78a7 693e ae97 15be
000002d0: 257d 003e 6f6d 8c3e f0e2 3f3e cc55 393e
000002e0: 6d56 b63d b765 0f3e ef99 053e 1d52 823e
000002f0: b29f 133d 8019 bbbd f2c2 9abc 5179 143e
00000300: 5b45 01bd 4545 743c 03f2 58bc 561c 42bc
00000310: ea09 2cbe 0fc5 f4bd 7a7b 27be d0c5 d6bc
00000320: 28ed ab3d 5210 ee3b 66a0 21bd ff50 9c3e
00000330: d296 173b 8fbf 5a3d 29ce 17bd d8b1 dbbd
00000340: 46e3 f8bd 56c8 abbc 015b 97bb dc28 c03d
00000350: 504f 403d 152b a63d e861 02be 43c5 bf3c
00000360: f618 0e3e 9ef3 6c3d f7ef 803e 9b7c eabd
00000370: 5f75 f2bd 2c1d 903d 6e6e 023d 84f6 983a
00000380: 4762 f2bc 52b2 00be f913 b0bd 2868 3e3e
00000390: 824d 5ebc 4623 60bd a369 3d3d 673d c8ba
000003a0: 4e12 2ebd 35f3 52bd be7d e53d 33cd b53c
000003b0: b3e1 3f3d a4f8 1e3e 2358 933c f03b 58bd
000003c0: 6b3a 07be 2f2a 693d 10b1 123c 1288 113e
000003d0: 690b 05be de6e 49be 2e2b 35bd 9718 21bd
000003e0: ec64 89bd 19ec 6c3d 668d 133e 60aa e0bd
000003f0: 2898 493c eb65 70bd 6d4d ccbd 31cc ffbd

linears.0.3.bias f4 [16]
-0.3053483 -0.16323186 0.19412667 0.01801396 -0.1014963 -0.09340934 -0.33297026 -0.48851207
-0.36284506 -0.27641907 0.15750049 0.08739661 -0.18386863 0.16252643 0.23942138 -0.053557497
00000000: 9d56 9cbe 4126 27be 24c9 463e 0392 933c
00000010: 4bdd cfbd 654d bfbd 147b aabe 411e fabe
00000020: d4c6 b9be cd86 8dbe cf47 213e fefc b23d
00000030: 0f48 3cbe 546d 263e e12a 753e 1b5f 5bbd

linears.1.0.weight f4 [64, 22]
0.4383519 0.18456075 0.1561857 -0.20564944 -0.11607728 0.02054135 0.056972858 0.10794009
-0.16381136 -0.08755258 -0.110614404 -0.14564165 0.0305244 -0.100725435 -0.5818082 0.0034725473
-0.15671274 -0.05638383 0.18154304 -0.038059182 0.01525747 -0.11529973 -0.14195988 -0.048728414
-0.036641985 0.10811021 -0.09660235 1.0885022 -0.09289737 0.030482512 0.11266795 -0.23148535
0.14620279 0.002850531 -0.12475435 0.055634875 0.072317265 -0.03935466 0.096316285 -0.128397
-0.05370146 -0.13425037 0.0968897 -0.14966808 0.10219974 -0.17808586 0.117482595 -0.23111987
0.19005509 -0.118556574 -0.0727013 -0.086504444 0.1689749 -0.20422715 -0.19461362 -0.002917608
-0.005172953 0.043753903 0.10233014 0.11402645 -0.005790976 -0.20155321 -0.046607103 -0.03262349
-0.042457946 -0.10383898 0.1237588 0.016321754 0.27216107 -0.081649154 -0.1982292 -0.018522901
0.10397696 0.17372468 -0.21613136 0.051971618 0.045379736 0.12037945 -0.064807594 0.09500564
0.041772895 0.16367416 0.14544955 0.07060644 0.040008713 0.21731953 -0.14755845 -0.039509874
-0.10601201 -0.07352569 0.37223104 0.29700038 -0.1026727 0.015241583 -0.22845736 0.0015084398
-0.067011714 0.023770938 0.11039222 0.3251731 -0.2804162 0.12997922 0.32186636 -0.009446821
-0.112869106 0.02362645 -0.059672 -0.060966372 -0.023187632 -0.20110628 -0.40236622 -0.2533893
-0.08677412 -0.4364977 -0.1694631 -0.0054045334 -0.082768984 -0.1338661 0.21193865 -0.11965772
-0.18302286 -0.08522898 -0.041497573 -0.22708009 -0.33898798 -0.29633424 0.049755875 -0.022376142
0.041388553 -0.16062865 -0.00071819563 -0.12569383 0.29561913 -0.97605103 0.04932634 -0.18981126
-0.12198577 -0.04261469 0.06107186 0.094476774 0.14793572 -0.09603204 -0.19519824 -0.16643894
0.1261112 -0.10128853 0.2397727 0.12230175 -0.14590181 0.35137188 0.38668633 -0.032890808
-0.08465427 -0.17144689 0.06790096 0.20255844 0.27349958 0.15379474 -0.06450153 -0.056795903
-0.2099903 0.18399806 -0.05354308 -0.21990162 -0.20281498 0.24092057 -0.046545062 0.049560886
0.16800879 -0.19232556 -0.15108006 -0.1879101 0.15732302 -0.118811294 0.031369355 -0.13427854
0.007897869 0.037752673 -0.09602897 0.11934251 -0.16853261 -0.08781856 -0.10229461 -0.124173455
0.16581468 -0.2099247 -0.108385704 0.11201645 -0.049320582 0.006554584 0.16281426 -0.0015930176
0.18115799 0.049393747 -0.17627154 0.23070697 0.16797976 -0.10835898 -0.048937675 0.09260457
-0.05386548 0.37989637 0.045068625 -0.0078179035 0.10386907 0.037124056 0.2029868 -0.08335021
0.14288951 0.03855957 -0.0902002 -0.1206414 0.045119498 -0.001140157 -0.20570607 -0.02720158
0.04378871 -0.03337775 0.10457177 -0.19558871 -0.034438547 0.1809768 0.1813394 -0.11534127
-0.17571348 0.07180721 0.029924555 -0.03276688 -0.14671473 0.18796569 0.09174655 0.23831876
-0.40934432 -0.036426626 0.19595388 -0.055533618 0.17738135 0.046514068 0.18608953 0.12202708
0.11370533 -0.18468377 -0.002487374 0.08068545 0.3288249 0.075624324 -0.06824736 0.018097077
-0.042773854 -0.042428304 0.10113693 -0.18041655 -0.15224706 0.49579346 -0.3418473 -0.026729885
00000000: a96f e03e 7efd 3c3e 25ef 1f3e c495 52be
00000010: edb9 edbd 5546 a83c 5f5c 693d b20f dd3d
00000020: 2abe 27be c44e b3bd ce89 e2bd 1623 15be
00000030: 4e0e fa3c 2349 cebd 62f1 14bf ad93 633b
00000040: 4e79 20be bbf2 66bd 6be6 393e f2e3 1bbd
00000050: 78fa 793c 4422 ecbd ee5d 11be 7297 47bd
00000060: e815 16bd e368 dd3d 74d7 c5bd 0a54 8b3f
00000070: fa40 bebd 76b6 f93c 74be e63d 7f0a 6dbe
00000080: 2fb6 153e f9cf 3a3b 357f ffbd 65e1 633d
00000090: 131b 943d 5a32 21bd 7941 c53d 817a 03be
000000a0: 10f6 5bbd ee78 09be 1b6e c63d 9742 19be
000000b0: 194e d13d 245c 36be b79a f03d b0aa 6cbe
000000c0: cd9d 423e cacd f2bd 6be4 94bd 3e29 b1bd
000000d0: c207 2d3e ec20 51be cb48 47be 5735 3fbb
000000e0: e081 a9bb 4b37 333d 7792 d13d b386 e93d
000000f0: 3ac2 bdbb f763 4ebe 17e7 3ebd 35a0 05bd
00000100: 62e8 2dbd 88a9 d4bd 4175 fd3d 33b5 853c
00000110: b258 8b3e ac37 a7bd 98fc 4abe 57bd 97bc
00000120: dff1 d43d e2e4 313e 8a51 5dbe 31e0 543d
00000130: 1ae0 393d 8089 f63d d8b9 84bd 5192 c23d
00000140: 0e1a 2b3d 339a 273e baf0 143e 1c9a 903d
00000150: 2de0 233d 0389 5e3e 9019 17be 1bd5 21bd
00000160: d31c d9bd a394 96bd 1195 be3e 6f10 983e
00000170: 1146 d2bd d5b7 793c baf0 69be d7b6 c53a
00000180: 703d 89bd 45bb c23c 5115 e23d 177d a63e
00000190: b692 8fbe 4619 053e abcb a43e d7c6 1abc
000001a0: eb27 e7bd 428c c13c a16a 74bd e0b7 79bd
000001b0: fdf3 bdbc ceee 4dbe f202 cebe 3ebc 81be
000001c0: a1b6 b1bd a07c dfbe bc87 2dbe 8318 b1bb
000001d0: c982 a9bd 3214 09be 7206 593e 1b0f f5bd
000001e0: 586a 3bbe 888c aebd 5cf9 29bd af87 68be
000001f0: d58f adbe 1fb9 97be d1cc 4b3d 2c4e b7bc
00000200: 0b87 293d d67b 24be 4b45 3cba e2b5 00be
00000210: 645b 973e 7bde 79bf 6b0a 4a3d e25d 42be
00000220: add3 f9bd be8c 2ebd 7d26 7a3d 0a7d c13d
00000230: 767c 173e 72ac c4bd 0ce2 47be f86e 2abe
00000240: 4b23 013e 5c70 cfbd fa86 753e 5779 fa3d
00000250: 4967 15be 04e7 b33e c0fb c53e 83b8 06bd
00000260: 385f adbd c68f 2fbe a90f 8b3d 7b6b 4f3e
00000270: 2308 8c3e 5e7c 1d3e 6119 84bd d2a2 68bd
00000280: b207 57be fd69 3c3e fd4f 5bbd e42d 61be
00000290: bbae 4fbe e2b3 763e 09a6 3ebd 5b00 4b3d
000002a0: 7f0a 2c3e fef0 44be bbb4 1abe 816b 40be
000002b0: 4919 213e 5653 f3bd 277d 003d 5080 09be
000002c0: 1066 013c 8ca2 1a3d d6aa c4bd d969 f43d
000002d0: d093 2cbe 38da b3bd d67f d1bd a74e febd
000002e0: 53cb 293e 80f6 56be 53f9 ddbd e168 e53d
000002f0: 6104 4abd d6c7 d63b c8b8 263e cdcc d0ba
00000300: 7b81 393e 1951 4a3d 8780 34be 733e 6c3e
00000310: e302 2c3e 50eb ddbd df72 48bd 77a7 bd3d
00000320: 0da2 5cbd c781 c23e e199 383d aa16 00bc
00000330: 4fb9 d43d 650f 183d c6db 4f3e 84b3 aabd
00000340: a151 123e a4f0 1d3d e2ba b8bd d712 f7bd
00000350: 39cf 383d 5271 95ba 9da4 52be d9d5 debc
00000360: ca5b 333d 1cb7 08bd b929 d63d 6848 48be
00000370: 6f0f 0dbd fb51 393e 09b1 393e 0b38 ecbd
00000380: 3cee 33be a90f 933d 5724 f53c 9036 06bd
00000390: 633c 16be 147a 403e 9de5 bb3d d509 743e
000003a0: 9495 d1be 1634 15bd 22a8 483e 3877 63bd
000003b0: 75a3 353e 8985 3e3d 418e 3e3e 55e9 f93d
000003c0: 57de e83d be1d 3dbe 3603 23bb 6a3e a53d
000003d0: bd5b a83e ede0 9a3d 46c5 8bbd 5240 943c
000003e0: a333 2fbd 4dc9 2dbd e120 cf3d 1ebf 38be
000003f0: a7e6 1bbe a4d8 fd3e 9c06 afbe a2f8 dabc

linears.1.0.bias f4 [64]
-0.027420674 -0.17607394 0.0142940115 0.16364037 0.089402206 -0.14105083 -0.19260429 0.13198236
0.11890823 -0.14314671 0.14543633 -0.15128882 0.05518323 0.13829768 0.13097623 -0.1624168
-0.07224153 -0.032222867 0.2230059 0.114954874 0.0059861783 -0.066194445 -0.14481941 -0.17050233
0.2755832 -0.23759128 0.15996327 -0.13720173 -0.20789994 -0.17006285 -0.21918337 0.016258977
-0.12831412 -0.15991388 -0.072775885 0.017077742 -0.16224734 0.04819851 -0.15518288 0.15367857
-0.1857512 -0.1450617 0.62718505 0.22199921 -0.07625923 0.12586913 -0.16432415 -0.019556005
-0.18484311 0.14242783 -0.15347819 -0.1340523 0.16198218 0.102202035 0.16403101 -0.25723717
-0.3042785 -0.13382621 0.26714274 0.17055173 -0.10477324 -0.07341141 -0.06474358 -0.089481056
00000000: 52a1 e0bc ba4c 34be 6e31 6a3c 5791 273e
00000010: 8118 b73d a16f 10be 0f3a 45be 6226 073e
00000020: 2886 f33d 0d95 12be 43ed 143e 75eb 1abe
00000030: d007 623d e89d 0d3e a21e 063e 9750 26be
00000040: 5ef3 93bd 20fc 03bd a95b 643e 766d eb3d
00000050: b427 c43b f490 87bd 8a4b 14be 2a98 2ebe
00000060: 3e19 8d3e 214b 73be 69cd 233e 9c7e 0cbe
00000070: b9e3 54be f524 2ebe 9b71 60be 8c31 853c
00000080: c764 03be 77c0 23be 860b 95bd 9fe6 8b3c
00000090: 2b24 26be cd6b 453d 43e8 1ebe ea5d 1d3e
000000a0: 9035 3ebe 0e8b 14be 338f 203f c353 633e
000000b0: cd2d 9cbd d6e3 003e 9744 28be ea33 a0bc
000000c0: 8347 3dbe 9ad8 113e 6329 1dbe 0245 09be
000000d0: a8de 253e 4d4f d13d bff7 273e 97b4 83be
000000e0: 64ca 9bbe bd09 09be efc6 883e 1da5 2e3e
000000f0: 5a93 d6bd b958 96bd 4898 84bd d841 b7bd

linears.1.3.weight f4 [16, 64]
-0.13866358 -0.37140226 -0.06732599 0.13073029 -0.29980904 -0.3194684 0.11829556 0.06992042
-0.115080334 -0.050423898 -0.0072013224 -0.4566266 -0.2800585 -0.07383287 0.059266463 -0.07660636
-0.19061132 -0.53203094 -0.16326547 -0.175386 -0.14497986 0.010208882 0.009269835 -0.22230898
-0.29956797 0.2228561 -0.23319426 -0.42856136 -0.07494291 -0.16743927 0.22782965 0.06074974
-0.22315033 -0.39813232 -0.2412484 -0.013479726 -0.18847093 -0.02695993 -0.17068695 0.042600904
-0.30577666 0.11196514 0.25073698 0.008788057 -0.12227937 0.17258425 -0.30012006 -0.33450463
-0.18028681 0.01866955 0.16952336 -0.051774494 0.033411343 0.15276976 0.034743227 -0.21154785
-0.20894164 0.08840081 -0.14132875 0.31345022 -0.16617441 -0.23210187 -0.11486947 -0.03340412
-0.30636236 -0.26466992 0.039946653 0.18147072 0.30812258 0.11476429 -0.18131113 0.19050564
0.12066564 0.08883517 0.33106112 0.18822668 0.20242573 -0.1615784 0.0016951548 -0.05606823
-0.14821853 -0.0548791 0.119731486 -0.08799419 -0.00026787704 0.16230121 -0.14829062 -0.21501805
0.09814718 0.16556574 -0.3551949 -0.2592555 -0.060238592 -0.16984439 -0.028208695 0.08346096
-0.11733137 0.07552567 -0.25735253 0.12865545 -0.058932632 0.19305547 0.24020219 -0.019932736
-0.15956743 0.08455289 0.14880763 -0.1347493 -0.032459486 0.032002304 0.09135226 -0.04613368
0.1544984 0.17536321 -0.0074050445 0.05151087 0.1505858 -0.22928151 0.122217946 -0.13820244
0.123677425 -0.18709047 0.021400489 0.12407667 0.07548132 -0.026293369 -0.10689417 0.13307242
0.29409233 0.4547682 -0.007652974 -0.241227 -0.06763485 0.15624651 -0.07115499 0.027073558
-0.045069188 -0.056355722 -0.023036709 -0.079228245 -0.2255944 0.24142581 0.046015855 0.05736312
0.21798815 0.2830576 -0.11248145 -0.028419398 -0.09802895 0.049586367 -0.0071585863 0.25538546
0.11091946 -0.14772652 0.4403523 0.21048039 0.007290404 0.07307319 -0.11821196 0.034721773
0.15475777 0.12148147 0.27213606 -0.1346936 0.21261911 -0.06010714 -0.2047214 -0.031156447
0.2145031 -0.057769563 -0.120807685 0.21739358 -0.015716037 0.072853744 0.15107235 0.24128078
-0.0019370886 -0.06873943 -0.057639264 -0.23521009 -0.19434167 0.017448708 0.0935842 0.15891056
0.09051885 0.14896625 0.004255028 0.0076072365 0.08706754 0.03800851 0.2966098 -0.15458827
0.025088713 0.017227847 -0.15587772 -0.22777939 0.041945346 0.124460556 -0.009702784 -0.02290521
0.033092923 -0.043002803 -0.043996334 -0.15873215 -0.108421475 0.08846821 0.03830258 0.023936007
-0.02814115 0.19811031 -0.006203156 -0.16830434 -0.09873568 -0.1153608 0.1074427 0.094250806
-0.17607246 -0.062547065 -0.07299898 0.05437424 0.021973591 -0.07444174 -0.1568098 -0.025965475
-0.05144133 0.061512798 0.11371081 -0.23883612 -0.19596195 -0.2137823 0.14390598 0.16792823
0.14466684 -0.082154736 0.14069687 0.122073226 0.10138507 -0.03269748 -0.00800423 0.108337015
0.028106138 -0.1472608 -0.15886636 -0.038996518 0.09624755 -0.026459781 -0.06674813 -0.087065935
-0.36884063 -0.07355824 -0.08614123 -0.1767607 0.009719606 -0.04780586 -0.097735696 -0.20077124
00000000: d3fd 0dbe 7028 bebe 35e2 89bd 29de 053e
00000010: 9280 99be 5d91 a3be f144 f23d 7032 8f3d
00000020: 3daf ebbd 4a89 4ebd 12f9 ebbb f6ca e9be
00000030: d463 8fbe b035 97bd 64c1 723d cce3 9cbd
00000040: 9d2f 43be 2e33 08bf 102f 27be 6398 33be
00000050: 9a75 14be 2843 273c 82e0 173c f7a4 63be
00000060: f960 99be 6434 643e 7aca 6ebe 656c dbbe
00000070: ab7b 99bd 3375 2bbe 2d4c 693e b8d4 783d
00000080: 8581 64be 00d8 cbbe d209 77be 12da 5cbc
00000090: 86fe 40be 12db dcbc 8fc8 2ebe 497e 2e3d
000000a0: c28e 9cbe fb4d e53d 9960 803e c8fb 0f3c
000000b0: 9b6d fabd edb9 303e 56a9 99be 3144 abbe
000000c0: 1b9d 38be e2f0 983c 8897 2d3e 7e11 54bd
000000d0: 55da 083d ad6f 1c3e ea4e 0e3d 00a0 58be
000000e0: ccf4 55be 7c0b b53d 7cb8 10be 8c7c a03e
000000f0: a029 2abe 1dac 6dbe af40 ebbd c2d2 08bd
00000100: 87db 9cbe d182 87be 1a9f 233d 76d3 393e
00000110: 3ec2 9d3e 8a09 eb3d a0a9 39be e913 433e
00000120: 8c1f f73d 37ef b53d d880 a93e 7fbe 403e
00000130: b148 4f3e cf74 25be f52f de3a cda7 65bd
00000140: 99c6 17be e8c8 60bd c835 f53d 4c36 b4bd
00000150: d971 8cb9 4a32 263e 7fd9 17be b12d 5cbe
00000160: 6401 c93d 118a 293e 1bdc b5be 23bd 84be
00000170: bebc 76bd b0eb 2dbe ec15 e7bc 94ed aa3d
00000180: 6e4b f0bd 34ad 9a3d b6c3 83be 41be 033e
00000190: 5863 71bd 55b0 453e 90f7 753e fa49 a3bc
000001a0: a565 23be 112a ad3d 0761 183e b8fb 09be
000001b0: 3df4 04bd d914 033d e516 bb3d abf6 3cbd
000001c0: d434 1e3e 6a92 333e 04a6 f2bb 10fd 523d
000001d0: 2a33 1a3e c6c8 6abe 674d fa3d f184 0dbe
000001e0: 974a fd3d a594 3fbe 1450 af3c e91b fe3d
000001f0: f395 9a3d 3165 d7bc 55eb dabd 2344 083e
00000200: 4593 963e 61d7 e83e cdc5 fabb 3604 77be
00000210: 2484 8abd 16ff 1f3e b5b9 91bd 5ec9 dd3c
00000220: 789a 38bd 42d5 66bd 7bb7 bcbc 6b42 a2bd
00000230: 3802 67be 5438 773e 1f7b 3c3d 97f5 6a3d
00000240: 4938 5f3e edec 903e ad5c e6bd cccf e8bc
00000250: 67c3 c8bd 131b 4b3d 9392 eabb e2c1 823e
00000260: be29 e33d 9f45 17be db75 e13e 2c88 573e
00000270: 57e4 ee3b 66a7 953d 1d19 f2bd 6b38 0e3d
00000280: d278 1e3e 47cb f83d 6b55 8b3e 1eed 09be
00000290: d3b8 593e e832 76bd 7da2 51be ce3b ffbc
000002a0: b3a6 5b3e c79f 6cbd 056a f7bd 6c9c 5e3e
000002b0: ebbe 80bc 5834 953d b6b2 1a3e 4f12 773e
000002c0: e8e5 fdba 42c7 8cbd 2617 6cbd eada 70be
000002d0: 8101 47be 98f0 8e3c 13a9 bf3d 73b9 223e
000002e0: f261 b93d 9c8a 183e c36d 8b3b 2046 f93b
000002f0: 7750 b23d d0ae 1b3d 3ddd 973e 634c 1ebe
00000300: d886 cd3c 6a21 8d3c 699e 1fbe 003f 69be
00000310: e2ce 2b3d 2de5 fe3d 6df8 1ebc b5a3 bbbc
00000320: 728c 073d b523 30bd 8035 34bd ae8a 22be
00000330: 140c debd d22e b53d 2be3 1c3d 7215 c43c
00000340: 4588 e6bc 6edd 4a3e d843 cbbb f957 2cbe
00000350: ef35 cabd 4842 ecbd eb0a dc3d 9106 c13d
00000360: 574c 34be ad18 80bd 7d80 95bd 86b7 5e3d
00000370: f601 b43c e974 98bd c092 20be 8cb5 d4bc
00000380: 25b4 52bd d8f4 7b3d 37e1 e83d 7591 74be
00000390: 40aa 48be bfe9 5abe 175c 133e 61f5 2b3e
000003a0: 8b23 143e be40 a8bd d712 103e 8701 fa3d
000003b0: faa2 cf3d cbed 05bd 2d24 03bc ccdf dd3d
000003c0: d83e e63c 89cb 16be ddad 22be d0ba 1fbd
000003d0: 6f1d c53d 2fc2 d8bc 3eb3 88bd a04f b2bd
000003e0: aed8 bcbe b4a5 96bd d06a b0bd c200 35be
000003f0: fb3e 1f3c 14d0 43bd a729 c8bd fa96 4dbe

linears.1.3.bias f4 [16]
-0.09551151 0.051019285 0.11276421 -0.011776977 0.14705485 -0.052200567 -0.076022804 -0.28191584
-0.1842553 -0.081304476 0.17964973 -0.12644869 -0.21304558 0.22659026 0.10415591 0.036388416
00000000: 8a9b c3bd 99f9 503d ecf0 e63d 39f4 40bc
00000010: 8c95 163e 43d0 55bd d8b1 9bbd 4657 90be
00000020: 6cad 3cbe f682 a6bd 19f6 373e c47b 01be
00000030: 9f28 5abe 4707 683e b24f d53d 050c 153d

linears.2.0.weight f4 [64, 22]
-0.11585997 -0.5867897 -0.07057783 0.3478119 0.021676186 -0.0039745844 0.16450058 0.15949547
0.21965933 -0.16313471 -0.055091072 0.00983332 -0.3457387 0.113755904 0.22164483 -0.033923764
-0.08430127 0.030404948 -0.03351243 -0.18737713 0.06942955 0.00019373104 0.08318707 -0.06858438
-0.30462092 -0.104512006 0.24525285 0.28108853 -0.0039513814 0.0032413907 -0.12288088 -0.20409136
0.044449985 -0.20565245 -0.011522721 -0.023347896 0.17751095 0.16483955 0.05102304 -0.19107541
-0.0316287 -0.047568705 -0.17148988 -0.111011416 0.15914732 -0.15449329 -0.21301857 -0.10370383
-0.042985283 0.12602112 -0.03589345 0.06900883 -0.055917297 -0.084189795 -0.1628374 -0.18156023
-0.24586348 0.1707166 0.051765427 -0.30459636 -0.13884823 0.08040654 -0.06004018 -0.13180688
0.10622585 0.10351786 0.15926537 0.3728868 0.16359302 -0.47616655 0.16191234 -0.002846576
-0.14299595 -0.11773248 0.12882115 0.01700907 0.110320576 -0.64483136 -0.39186025 0.1044526
-0.009379004 -0.32528985 -0.14488104 0.08400658 0.089473896 0.14890528 0.165118 0.30120587
-0.24939111 0.31155565 0.063843645 0.18293546 -0.18652327 0.07342409 0.19771262 -0.16849227
0.1596357 0.14378843 -0.21943758 -0.11132994 0.12619703 -0.09790411 0.11561474 -0.2210905
0.0030377319 0.016399512 0.15373166 0.083743945 -0.23912595 -0.15112121 0.09117252 0.41484958
-0.3412654 0.0121621685 -0.12739651 0.036192454 -0.17862253 0.12175428 -0.019286152 0.05294877
0.17905945 -0.1292948 -0.14228214 -0.14147839 -0.029830147 0.2263488 -0.21075736 0.06015747
-0.058941387 -0.16765243 0.07684047 0.13465205 -0.23437257 -0.109223425 -0.01764417 1.2907321
0.032220215 0.0037295416 -0.059561364 0.15835819 0.23687924 -0.07065845 0.16747598 0.6443149
-0.22034831 -0.110412546 0.6905153 0.012063898 0.08556968 0.089091726 -0.44595414 -0.05937496
-0.09706595 -0.030260067 -0.21885227 -0.1625839 -0.87642485 0.050342076 -0.15185788 0.05253769
0.05859399 -0.18589485 -0.09991843 -0.13585405 -0.18303752 -0.1413951 -0.07516239 -0.013452061
0.14138693 0.24175242 0.13233986 -0.25892395 0.14435095 -0.01784679 0.14941561 -0.0020051792
0.08674869 -0.17341709 0.029725991 -0.047397785 0.12692903 -0.21622401 0.13961709 0.05530483
-0.065681525 0.020659972 0.026219785 0.14449742 -0.024163242 0.05731659 -0.14002377 0.17017806
-0.18439765 0.06311802 0.1580126 0.022804555 -0.05041119 -0.12067381 0.100117624 -0.17521408
-0.01512942 -0.0010997526 0.17395143 -0.0028766212 0.1176989 -0.026531642 -0.20646542 -0.17971157
-0.0592105 0.12539168 0.026074566 0.060248062 0.16263285 -0.10556288 -0.028228479 -0.18435211
-0.19223793 0.010005339 -0.21511582 0.217323 0.047482852 -0.14103211 -0.06293056 0.32249925
0.18747213 -0.010016913 -0.036967102 -0.04930342 0.049833454 -0.17593704 -0.07939344 0.15531714
0.010858408 0.08462651 0.036483023 0.17905317 0.1675769 0.100431144 -0.088042974 0.0047011445
0.21619424 -0.09530343 0.07528222 0.02075453 -0.021721475 0.13755582 -0.10618983 -1.1034199
-0.013716923 0.035912823 0.11853451 -0.15123482 -0.11953781 0.0032620735 0.04030043 -0.061640512
00000000: fe47 edbd da37 16bf 1c8b 90bd 6714 b23e
00000010: 4292 b13c 3b3d 82bb d772 283e c852 233e
00000020: 60ee 603e c90c 27be 2da7 61bd ef1b 213c
00000030: aa04 b1be dbf8 e83d ddf6 623e a5f3 0abd
00000040: 25a6 acbd cc13 f93c 5444 09bd cadf 3fbe
00000050: 1431 8e3d 4824 4b39 fc5d aa3d f875 8cbd
00000060: 46f7 9bbe 640a d6bd 9023 7b3e d6ea 8f3e
00000070: 977a 81bb 836d 543b f9a8 fbbd 53fd 50be
00000080: 3011 363d 8e96 52be cbc9 3cbc 1644 bfbc
00000090: 6ec5 353e b3cb 283e 89fd 503d 46a9 43be
000000a0: 198d 01bd 67d7 42bd 0b9b 2fbe f459 e3bd
000000b0: 84f7 223e 7d33 1ebe 8a21 5abe ac62 d4bd
000000c0: 5611 30bd ae0b 013e 0305 13bd 8054 8d3d
000000d0: 8909 65bd b36b acbd d9be 26be edea 39be
000000e0: a3c3 7bbe 55d0 2e3e fc07 543d 0ef4 9bbe
000000f0: 3b2e 0ebe 2fac a43d b1ec 75bd 62f8 06be
00000100: f08c d93d 2c01 d43d 7616 233e 05eb be3e
00000110: ee84 273e 1acc f3be 59cc 253e 9f8d 3abb
00000120: 886d 12be ba1d f1bd b1e9 033e 9b56 8b3c
00000130: c1ef e13d ab13 25bf e8a1 c8be 3feb d53d
00000140: 65aa 19bc 648c a6be b25b 14be a40b ac3d
00000150: 173e b73d a07a 183e b114 293e a837 9a3e
00000160: 6260 7fbe 3984 9f3e 75c0 823d 6f53 3b3e
00000170: f5ff 3ebe 5f5f 963d 2d75 4a3e 3d89 2cbe
00000180: 8a77 233e 463d 133e 3fb4 60be f400 e4bd
00000190: cb39 013e f381 c8bd 6cc7 ec3d 8c65 62be
000001a0: af14 473b 4558 863c d56b 1d3e f281 ab3d
000001b0: 6fdd 74be 85bf 1abe a8b8 ba3d 2a67 d43e
000001c0: 57ba aebe d543 473c 3b74 02be 8a3e 143d
000001d0: d3e8 36be 4f5a f93d fefd 9dbc cfe0 583d
000001e0: 5c5b 373e db65 04be 69b2 11be b6df 10be
000001f0: 5a5e f4bc fbc7 673e c7d0 57be ae67 763d
00000200: 866c 71bd 14ad 2bbe 895e 9d3d 3ae2 093e
00000210: 5dff 6fbe 88b0 dfbd 828a 90bc b636 a53f
00000220: 58f9 033d 536b 743b 9ef6 73bd a628 223e
00000230: 7990 723e 61b5 90bd d37e 2b3e d2f1 243f
00000240: fda2 61be f91f e2bd 9cc5 303f a8a7 453c
00000250: 283f af3d b975 b63d 1a54 e4be 2833 73bd
00000260: 83ca c6bd f6e3 f7bc cf1a 60be 657c 26be
00000270: 615d 60bf 7e33 4e3d a280 1bbe c331 573d
00000280: 4000 703d 385b 3ebe 09a2 ccbd 531d 0bbe
00000290: 306e 3bbe e1c9 10be bdee 99bd 0966 5cbc
000002a0: bcc7 103e f28d 773e 1a84 073e ae91 84be
000002b0: bcd0 133e 6e33 92bc 6800 193e 5369 03bb
000002c0: 4ca9 b13d 4094 31be ec83 f33c 2e24 42bd
000002d0: aff9 013e d469 5dbe c8f7 0e3e 5187 623d
000002e0: 0984 86bd 1a3f a93c e0ca d63c 22f7 133e
000002f0: fef1 c5bc cdc4 6a3d 6462 0fbe 2843 2e3e
00000300: bdd2 3cbe 0544 813d 0ece 213e 9ed0 ba3c
00000310: f77b 4ebd d523 f7bd 780a cd3d 526b 33be
00000320: 63e1 77bc 9325 90ba 5320 323e b285 3cbb
00000330: 1f0c f13d e358 d9bc ac6b 53be 4f06 38be
00000340: b686 72bd ad66 003e 549a d53c acc6 763d
00000350: 3a89 263e 5a31 d8bd 693f e7bc cdc6 3cbe
00000360: 05da 44be 6fed 233c 5247 5cbe ec89 5e3e
00000370: 617d 423d b96a 10be bde1 80bd 9f1e a53e
00000380: b2f8 3f3e fa1d 24bc d16a 17bd 62f2 49bd
00000390: 2a1e 4c3d d728 34be 0799 a2bd 750b 1f3e
000003a0: 77e7 313c aa50 ad3d 396f 153d b759 373e
000003b0: 4799 2b3e d8ae cd3d e04f b4bd 0f0c 9a3b
000003c0: 0662 5d3e 722e c3bd 912d 9a3d 6705 aa3c
000003d0: 3cf1 b1bc 6fdb 0c3e 0e7a d9bd dd3c 8dbf
000003e0: f2bc 60bc 5319 133d 39c2 f23d 4ddd 1abe
000003f0: 3dd0 f4bd 83c8 553b 1012 253d c37a 7cbd

linears.2.0.bias f4 [64]
-0.34514713 -0.024739902 -0.20868838 0.2602537 -0.22282113 -0.15677111 0.09949897 0.066727616
-0.18355696 -0.28306413 0.21551697 -0.9008456 -0.07558704 0.23697108 -0.15267016 -0.12193152
0.17634276 -0.44946983 0.017998893 -0.06800804 0.08533834 -0.22475493 -0.12221416 -0.20641279
-0.07156869 0.019805837 0.11540958 -0.20376791 0.21655926 -0.36066377 0.117467545 -0.25295532
-1.4076227 -0.27063447 0.02161451 0.04079757 -0.046872795 -0.09992887 -0.05381097 0.19671646
0.20218301 -0.39583957 -0.122453526 -0.0795579 -0.095264375 -0.13901219 0.010338867 0.13359517
0.35588205 -0.056136083 -0.10002195 0.07130583 0.0026256277 0.17457715 0.25501662 0.058021843
-0.2305648 0.029092873 -0.06636435 0.09806313 -0.15683262 -0.36487934 -0.10425192 0.057050142
00000000: 20b7 b0be 56ab cabc 68b2 55be f93f 853e
00000010: 392b 64be 9b88 20be 1ec6 cb3d 7da8 883d
00000020: 5bf6 3bbe c8ed 90be 7bb0 5c3e d19d 66bf
00000030: 61cd 9abd 8ca8 723e 9155 1cbe 3cb7 f9bd
00000040: 3293 343e e920 e6be 6a72 933c cd47 8bbd
00000050: dec5 ae3d 2826 66be 6b4b fabd e05d 53be
00000060: 9b92 92bd da3f a23c dc5b ec3d 89a8 50be
00000070: b6c1 5d3e eca8 b8be d392 f03d 5c83 81be
00000080: fb2c b4bf 9a90 8abe ea10 b13c 5a1b 273d
00000090: b0fd 3fbd 82a7 ccbd e468 5cbd 0a70 493e
000000a0: 1009 4f3e 7cab cabe eac8 fabd 41ef a2bd
000000b0: f819 c3bd 3659 0ebe 5a64 293c 2ccd 083e
000000c0: 2c36 b63e f3ee 65bd 4fd8 ccbd ca08 923d
000000d0: b912 2c3b 5ac4 323e 8a91 823e 50a8 6d3d
000000e0: 2e19 6cbe 2d54 ee3c 08ea 87bd 53d5 c83d
000000f0: bb98 20be 77d1 babe 0882 d5bd 69ad 693d

linears.2.3.weight f4 [16, 64]
0.3378507 -0.057975188 -0.05964097 0.33013564 0.06723949 0.1692016 0.49734747 -0.08190193
0.055420373 -0.11936101 -0.031253044 0.52747583 -0.07503302 0.20333062 0.31405416 0.011689462
-0.22714914 0.060784932 0.030507945 -0.06207818 -0.19022396 -0.13529259 -0.30195153 -0.26487303
-0.09381882 -0.008958962 -0.025149195 0.14004603 0.0009073804 0.30585876 0.0810398 -0.26268268
0.76974386 -0.30309105 0.2201326 0.18786038 0.044612773 0.018839413 0.0615613 0.079458475
0.030016558 0.27809024 -0.19633858 0.22194014 -0.09005103 -0.18222708 -0.004329852 -0.12859516
0.06935322 0.08375524 0.19143206 0.16580905 0.33559182 -0.2110697 0.13225868 -0.058075845
-0.39946514 0.11293127 -0.2824137 0.22019449 -0.10339362 -0.14569509 -0.2725668 0.27845055
-0.07777766 0.10450976 -0.07416142 0.102493696 -0.06445223 0.159865 0.08481413 0.18905802
-0.062586814 -0.09748934 -0.0649197 0.1740732 0.056747224 0.1568659 0.029921237 0.07415353
-0.005968782 0.24072297 -0.12798594 0.019258274 0.118966274 -0.015040843 -0.10520494 -0.16944674
-0.047188584 -0.05276256 0.15037926 -0.060669832 0.08460154 0.07855404 0.04504277 0.012138218
0.29849702 0.026641581 -0.080676086 0.13150395 -0.035697594 -0.07193409 -0.026432632 0.07476116
-0.06265495 0.109324045 -0.03409025 0.10811427 0.03738275 0.049432762 0.11528342 0.012556725
0.10953085 -0.036616255 0.09593429 0.00036938844 0.19066164 0.1520235 0.11825366 -0.17505407
-0.14149445 -0.09325749 0.028819652 0.19541451 -0.12547667 -0.08519946 0.041653287 -0.08047461
-0.028917983 0.1424589 -0.121519096 -0.24596764 0.05653826 -0.075643465 -0.27947924 -0.029534062
0.060508102 -0.08011695 -0.055482287 -0.114791825 0.1402052 -0.089907035 -0.1450401 -0.12380096
0.12402867 -0.3651011 0.06976563 -0.10418069 -0.055442557 0.23602328 -0.018977914 0.14379896
-0.06384553 0.044721972 -0.020940559 -0.03916003 0.03515838 -0.05975188 -0.13608257 0.17672528
-0.31847236 0.1562221 -0.1481514 -0.27225325 -0.24745034 -0.091126874 -0.13685825 -0.119269684
0.1175448 -0.0054444647 0.19851156 -0.2853561 -0.07112141 0.023237314 -0.1643417 -0.10949347
-0.08629503 -0.23023954 -0.06487136 0.18103059 -0.3459452 -0.2040806 -0.14830787 0.15145901
0.1923058 -0.063631356 0.21343659 -0.036469236 0.1515144 0.28836715 0.00516087 -0.034830745
0.028823381 -0.23530261 -0.084923714 0.005897937 -0.100952 -0.00942031 0.3500686 -0.27041322
-0.07605273 0.056425493 -0.013234955 0.027094532 -0.18361396 0.00048832456 0.12363013 0.05133744
-0.1944841 -0.15931495 0.018806698 -0.10123225 -0.22925752 0.16361655 -0.0080131525 0.09437544
-0.08773892 0.11234772 0.02368362 0.110929474 -0.12595513 -0.06711858 0.033699833 -0.11080617
0.022729099 -0.0930624 -0.028548783 0.007426617 -0.16032861 0.19605915 -0.22982769 -0.12891549
0.08908961 -0.1016244 -0.10289675 -0.09323782 0.14901364 -0.056457195 -0.0083111655 0.1343926
-0.08076022 0.046540704 -0.17072947 -0.03891204 0.034089 -0.061849285 -0.14393128 0.09529002
0.16152819 -0.106533095 -0.12193044 0.013310467 -0.098192744 -0.19565982 -0.18977335 0.05847657
00000000: c4fa ac3e 6477 6dbd 174a 74bd 8a07 a93e
00000010: dcb4 893d 2f43 2d3e 54a4 fe3e 33bc a7bd
00000020: 7900 633d 8c73 f4bd 3103 00bd a808 073f
00000030: e9aa 99bd e735 503e b5cb a03e 2885 3f3c
00000040: c999 68be 9ff9 783d cceb f93c b145 7ebd
00000050: 12ca 42be 248a 0abe 6499 9abe 709d 87be
00000060: 1524 c0bd 9cc8 12bc af05 cebc 3a68 0f3e
00000070: 45dd 6d3a 8599 9c3e 32f8 a53d 587e 86be
00000080: ef0d 453f c02e 9bbe 716a 613e 795e 403e
00000090: e2bb 363d 1d55 9a3c b427 7c3d 20bb a23d
000000a0: 49e5 f53c d861 8e3e fb0c 49be 4744 633e
000000b0: ad6c b8bd bc99 3abe 6ee1 8dbb 73ae 03be
000000c0: 1009 8e3d de87 ab3d c406 443e d9c9 293e
000000d0: b1d2 ab3e a822 58be d26e 073e f0e0 6dbd
000000e0: b286 ccbe 8248 e73d 8798 90be aa7a 613e
000000f0: 09c0 d3bd 1831 15be e08d 8bbe 1291 8e3e
00000100: e549 9fbd 3709 d63d f1e1 97bd 37e8 d13d
00000110: 88ff 83bd a7b3 233e 08b3 ad3d 6d98 413e
00000120: 842d 80bd 7ea8 c7bd 9ff4 84bd 3f40 323e
00000130: c76f 683d 74a1 203e 621d f53c cedd 973d
00000140: c695 c3bb 1580 763e bf0e 03be 87c3 9d3c
00000150: 97a4 f33d de6d 76bc b075 d7bd 7283 2dbe
00000160: d148 41bd 8e1d 58bd 05fd 193e ee80 78bd
00000170: 9243 ad3d f1e0 a03d c57e 383d 60df 463c
00000180: 9ad4 983e 723f da3c 8139 a5bd f9a8 063e
00000190: a437 12bd 2e52 93bd 3f89 d8bc 611c 993d
000001a0: 3d51 80bd 49e5 df3d 38a2 0bbd 046b dd3d
000001b0: a81e 193d 027a 4a3d b719 ec3d b9ba 4d3c
000001c0: b651 e03d edfa 15bd 3279 c43d 7aaa c139
000001d0: ce3c 433e 0cac 1b3e fa2e f23d 6041 33be
000001e0: ece3 10be c8fd bebd 3117 ec3c be1a 483e
000001f0: f57c 00be 0e7d aebd a39c 2a3d dfcf a4bd
00000200: 68e5 ecbc bfe0 113e 01df f8bd f1de 7bbe
00000210: aa94 673d f6ea 9abd e717 8fbe 6bf1 f1bc
00000220: 58d7 773d 5b14 a4bd 6541 63bd fa17 ebbd
00000230: f491 0f3e 2e21 b8bd 6485 14be 5c8b fdbd
00000240: be02 fe3d 88ee babe 48e1 8e3d b05c d5bd
00000250: bc17 63bd 16b0 713e 9277 9bbc 0940 133e
00000260: 72c1 82bd 632e 373d 898b abbc 4566 20bd
00000270: 3c02 103d 63be 74bd 3b59 0bbe 79f7 343e
00000280: cf0e a3be b0f8 1f3e 00b5 17be c764 8bbe
00000290: 9f63 7dbe baa0 babd 9224 0cbe aa43 f4bd
000002a0: 54bb f03d 7b67 b2bb 9d46 4b3e 321a 92be
000002b0: 1aa8 91bd 2e5c be3c 3149 28be 1d3e e0bd
000002c0: 73bb b0bd eac3 6bbe 47db 84bd 1560 393e
000002d0: bb1f b1be 81fa 50be 05de 17be 1218 1b3e
000002e0: d0eb 443e 2851 82bd 1f8f 5a3e c460 15bd
000002f0: 9726 1b3e dca4 933e 841c a93b afaa 0ebd
00000300: 031f ec3c 2bf3 70be 7cec adbd 7b43 c13b
00000310: ecbf cebd a557 1abc 313c b33e 9a73 8abe
00000320: 89c1 9bbd 6b1e 673d 6dd7 58bc 5af5 dd3c
00000330: 4c05 3cbe e802 003a cb31 fd3d 3547 523d
00000340: d726 47be 7523 23be 8110 9a3c db52 cfbd
00000350: 7cc2 6abe 198b 273e 9949 03bc e947 c13d
00000360: 76b0 b3bd 9016 e63d 2704 c23c fe2e e33d
00000370: 62fa 00be 7775 89bd d608 0a3d 58ee e2bd
00000380: 6032 ba3c 8097 bebd 23df e9bc fb5a f33b
00000390: 2f2d 24be bbc3 483e f357 6bbe 6c02 04be
000003a0: 9d74 b63d 7420 d0bd 88bb d2bd 78f3 bebd
000003b0: 0897 183e a93f 67bd 8e2b 08bc 379e 093e
000003c0: 9d65 a5bd 77a1 3e3d b5d3 2ebe 3b62 1fbd
000003d0: e8a0 0b3d ad55 7dbd b962 13be 6a27 c33d
000003e0: a567 253e 062e dabd abb6 f9bd 2514 5a3c
000003f0: 4719 c9bd 0c5b 48be f253 42be 2185 6f3d

linears.2.3.bias f4 [16]
0.43736842 0.02171172 -0.20309253 0.17923133 -0.16546015 -0.3026203 -0.57418936 -0.31364813
-0.15605648 -0.099252924 -0.012616904 -0.19872814 -0.16764003 0.5112571 -0.2586086 0.059841
00000000: c1ee df3e c7dc b13c 7df7 4fbe 6b88 373e
00000010: 636e 29be 0cf1 9abe 13fe 12bf 7d96 a0be
00000020: 45cd 1fbe 1e45 cbbd 22b7 4ebc 647f 4bbe
00000030: d4a9 2bbe bfe1 023f 5968 84be d61b 753d

linears.3.0.weight f4 [64, 22]
0.13055265 -1.7679172 -0.0046913987 0.30661342 -0.04421081 -0.010697462 0.015080155 -0.17303742
0.07945701 0.20185445 -0.12982647 -4.422678e-05 0.08866634 -0.24879651 -0.27262712 -0.2462993
0.022899628 0.32966337 0.23841935 -0.028010016 0.06362817 -0.014705451 -0.005132883 0.087276466
0.046728596 -0.14900877 -0.09077904 -0.25055912 -0.034839585 0.13522004 -0.0710695 -0.1349207
-0.1337105 -0.08495469 -0.19096525 -0.17675114 0.19782344 -0.02181611 0.20175962 -0.17010628
-0.049253073 0.1251768 0.035296984 -0.03776614 0.03185427 0.01895648 0.028725054 0.11486776
0.103466704 0.009450248 0.19449592 -0.0013067364 -0.08831083 0.107789285 0.07996114 0.30054212
0.08180239 0.09844005 0.12889297 -0.067460194 0.060381588 0.050947852 0.0093170535 0.07111851
0.15804566 0.22913843 0.3344107 -0.031880107 0.31702104 0.031735353 -0.15352115 -0.033457898
0.10995972 0.16693941 -0.16553845 -0.035642557 0.18919754 0.17154162 -0.10282014 -0.21144016
0.2999626 0.121964015 0.18598166 0.115949914 0.0074675283 -0.12605274 -0.011735573 0.15110914
-0.08670532 0.019388175 -0.027619107 -0.14963807 0.23232195 1.0775497 0.03049309 0.04446848
-0.11834015 -0.17708163 0.02567003 0.0069748866 -0.005155582 0.04677854 -0.21348016 -0.009800779
-0.10523452 -0.0023349486 -0.09844245 0.08878503 0.029136775 -0.15322311 -0.035530306 -0.12290622
0.06507727 -0.08067432 0.114402615 -0.08385985 0.11617855 -0.04643897 -0.11928064 0.07648619
0.15790847 0.07855206 0.044344228 -0.08696086 -0.16742697 -0.017393347 0.074210994 -0.014803265
-0.13556701 0.001641038 0.004225019 -0.10538142 0.10529068 -0.1407656 0.0786936 0.36533934
-0.011722183 -0.32228854 -0.10895611 0.040756762 -0.20232867 0.23432806 0.10952831 0.1184041
0.109470166 0.07280533 0.23495963 -0.02399053 -0.045361247 -0.039567716 -0.07481486 -0.2483723
0.10950412 -0.044485364 0.27726838 -0.31672016 0.5320887 0.20860799 -0.018485399 -0.047349107
-0.058377437 -0.17761981 0.06262275 0.04496898 0.16357031 0.17633945 -0.08145977 -0.086450465
-0.07756784 -0.15659112 0.14901917 -0.042107586 0.20583916 0.12958503 0.2161217 -0.081059866
0.177619 -0.14294808 0.3201321 0.23626159 -0.12529129 -0.0023814777 0.14773794 -0.08563659
-0.20350343 0.066561416 -0.064310275 0.17479028 0.23707126 -0.15775777 -0.2653893 -0.003184991
-0.11069101 0.017669296 0.18920626 -0.15344287 0.06965864 0.30943418 -0.1148017 -0.00020813297
0.26611346 -0.07606172 -0.043987755 0.012983792 0.2099712 -0.154002 -0.10832072 -0.16708477
0.11816678 -0.05987121 -0.0031119417 -0.107864946 0.00043647192 -0.23538093 -0.19104151 -0.13585643
0.16518864 -0.030996833 0.0541201 0.14858447 -0.16194205 -0.15087415 0.023426563 0.30006212
-0.17918935 0.5055623 -0.09195608 0.07314844 0.13162333 0.13389651 -0.029005928 0.042535488
0.0040136543 -0.056994874 0.07925597 -0.17304742 0.19257855 0.09105554 -0.1512358 -0.033467777
0.06908312 -0.18568732 -0.1415349 0.37760553 -0.63496006 -0.21160227 -0.06521279 -0.04932239
0.12781933 0.06147924 -0.09058884 -0.02533705 -0.18308851 -0.30514 0.17863204 0.037095442
00000000: 98af 053e 1c4b e2bf 4eba 99bb 6ffc 9c3e
00000010: 6516 35bd 6844 2fbc c112 773c b930 31be
00000020: 5bba a23d efb2 4e3e 3bf1 04be 2580 39b8
00000030: b396 b53d 83c4 7ebe c895 8bbe e235 7cbe
00000040: 0098 bb3c a3c9 a83e 3424 743e 4375 e5bc
00000050: 7c4f 823d 22ef 70bc be31 a8bb 01be b23d
00000060: 7c66 3f3d c195 18be 5cea b9bd 4949 80be
00000070: f4b3 0ebd 1f77 0a3e e38c 91bd a728 0abe
00000080: 68eb 08be b9fc adbd 658c 43be 40fe 34be
00000090: 3a92 4a3e b3b7 b2bc 139a 4e3e 5730 2ebe
000000a0: 97bd 49bd 592e 003e 9293 103d abb0 1abd
000000b0: 9f79 023d 9f4a 9b3c ce50 eb3c ca3f eb3d
000000c0: 5ae6 d33d 37d5 1a3c f029 473e cc46 abba
000000d0: 4fdc b4bd a1c0 dc3d abc2 a33d a8e0 993e
000000e0: 0388 a73d f09a c93d 85fc 033e 9228 8abd
000000f0: af52 773d b2ae 503d 8ea6 183c 95a6 913d
00000100: b9d6 213e 44a3 6a3e e137 ab3e b794 02bd
00000110: 9550 a23e eefc 013d a634 1dbe 260b 09bd
00000120: 9032 e13d 2af2 2a3e e982 29be eefd 11bd
00000130: 00bd 413e 9ba8 2f3e 5e93 d2bd c583 58be
00000140: b394 993e 45c8 f93d fa71 3e3e 2677 ed3d
00000150: 2bb2 f43b f813 01be 9046 40bc 5bbc 1a3e
00000160: 8f92 b1bd f3d3 9e3c 7741 e2bc b93a 19be
00000170: cee5 6d3e 26ed 893f a5cc f93c 9524 363d
00000180: 525c f2bd e354 35be f449 d23c 978d e43b
00000190: 28f0 a8bb db9a 3f3d 8b9a 5abe 7293 20bc
000001a0: 3285 d7bd f005 19bb 329c c9bd edd4 b53d
000001b0: 3fb0 ee3c 85e6 1cbe 3a88 11bd 42b6 fbbd
000001c0: 3b47 853d 9438 a5bd eb4b ea3d b7be abbd
000001d0: 05ef ed3d ca36 3ebd 6849 f4bd cba4 9c3d
000001e0: c2b2 213e e7df a03d 4ba2 353d 8918 b2bd
000001f0: fa71 2bbe 7e7c 8ebc effb 973d 6589 72bc
00000200: 14d2 0abe 1918 d73a 0772 8a3b 37d2 d7bd
00000210: a4a2 d73d dc24 10be 1c2a a13d c20d bb3e
00000220: 660e 40bc 0103 a5be 6224 dfbd 90f0 263d
00000230: 3f2f 4fbe b2f3 6f3e 6150 e03d d97d f23d
00000240: e531 e03d f61a 953d 4299 703e ca87 c4bc
00000250: b7cc 39bd c211 22bd 8938 99bd 4f55 7ebe
00000260: b243 e03d 4936 36bd 1ff6 8d3e 2529 a2be
00000270: f736 083f 559d 553e b16e 97bc 23f1 41bd
00000280: 2e1d 6fbd f8e1 35be 5b40 803d 6531 383d
00000290: fa7e 273e 5492 343e 61d4 a6bd f10c b1bd
000002a0: e3db 9ebd 6c59 20be 7b98 183e 0179 2cbd
000002b0: 80c7 523e f0b1 043e 024f 5d3e b702 a6bd
000002c0: c1e1 353e fb60 12be 5be8 a33e 8fee 713e
000002d0: 5c4c 00be 9112 1cbb 9d48 173e 3d62 afbd
000002e0: 3463 50be 5a51 883d 1bb5 83bd 39fc 323e
000002f0: cfc2 723e 418b 21be 1be1 87be 48bb 50bb
00000300: f8b1 e2bd 33bf 903c 49bf 413e 2120 1dbe
00000310: 30a9 8e3d 286e 9e3e 271d ebbd 453e 5ab9
00000320: 0640 883e 3fc6 9bbd 812c 34bd f9b9 543c
00000330: b102 573e b3b2 1dbe 41d7 ddbd 4518 2bbe
00000340: 6d01 f23d 843b 75bd b8f1 4bbb 4ce8 dcbd
00000350: 45d6 e439 b307 71be 63a0 43be f31d 0bbe
00000360: 3627 293e 12ed fdbc 0aad 5d3d 8726 183e
00000370: 23d4 25be c17e 1abe 10e9 bf3c bea1 993e
00000380: 6a7d 37be 886c 013f 7853 bcbd d9ce 953d
00000390: 44c8 063e 2b1c 093e d79d edbc b139 2e3d
000003a0: f984 833b 7573 69bd f450 a23d 5833 31be
000003b0: 5033 453e 547b ba3d 8fdd 1abe 8215 09bd
000003c0: 737b 8d3d d124 3ebe 86ee 10be 8355 c13e
000003d0: be8c 22bf 44ae 58be 498e 85bd 4606 4abd
000003e0: 12e3 023e a8d1 7b3d a486 b9bd a58f cfbc
000003f0: 8e7b 3bbe 4f3b 9cbe 51eb 363e 64f1 173d
