model/final_cleaned1_trained_after_data_argument28_model9130.pth (torch, 80967 bytes, 24 tensors)

linears.0.0.weight f4 [64, 22]
00000000: a4db 74bd 3565 2abe b6da 003e a1d6 c43e
00000010: 3f19 2ebe 10f5 653d 4021 1abe ed84 0f3d
00000020: f414 4e3d 41ba 1cbe 6990 9a3c 4048 fc3d
00000030: f3f8 27bd 8d76 1cbe aaee 863e baf2 b03d
00000040: 27d5 b53d d53f 96bd 4676 4bbe 444c 0cbe
00000050: 9310 0b3e 67a2 61bd 319f 273e ee2e 93bd
00000060: 1154 923e 0ab8 3ebe d620 67ba 8379 cc3b
00000070: 3955 573e c286 543e 0941 42be aa11 4dbe
00000080: ec37 f93d eb06 b0bd 6d66 373e 6df4 103e
00000090: b1c9 b13d 88a9 0bbc fb01 10be 0601 bd3d
000000a0: 4d5e e13d 3605 6a3b c431 c3bd 8a0a a43c
000000b0: b0ba 893e 5b20 1a3f b2c1 0a3d 2ed0 3fbe
000000c0: 4818 063c 714d 133c dcc3 87bd f83b 2f3b
000000d0: 3b62 293e 891c 473e 2b8c d5bd 1f81 b5bd
000000e0: 1b68 a8be d83e 713e 0522 963e c1d5 43be
000000f0: cf17 4fbe d4e4 023e 8e7d fb3d fdc5 73bd
00000100: f801 1abe f32f 60be f693 f8bd 0714 03bd
00000110: 7d80 81bd 2829 a5be 8db9 8d3d a60c bc3e
00000120: de1d 7bbd cda9 223e 8972 043e b63f 53be
00000130: eb78 41be 6c38 fe3b 6ad8 93be 0713 0e3d
00000140: ee78 7cbe fe8d 943d 1a5b ddbd 8b4e 19be
00000150: 6ba1 8dbd fd98 b3bd ea7b 2bbe e0c8 82bd
00000160: b3fc 323e fa55 523e 1ae7 6f3e 9b0d 403d
00000170: ed08 01be 6cd7 32bc d911 8fbc ede8 e6bd
00000180: 4feb 49bd b464 3e3e ddfb 813d 6d8c 3fbe
00000190: a6c6 b23d 7d41 433d 3a94 1cbe b4fe 963d
000001a0: dc5b 093d b9db cc3d 0e8e ff3d 04dd 663d
000001b0: 8fdd 69bb 8f31 79be aa11 00be 1942 9ebe
000001c0: 2df8 68be ccde 3dbe 01b4 1dbe a3c7 443d
000001d0: 7817 62bb c4c4 423d 097b 5f3d aa73 5b3d
000001e0: f86f 2abd bbbd fe3d c9a6 523b 99a1 01be
000001f0: 68af e6bc 213d 463e 1e3a c73d 4875 083e
00000200: e156 9a3e 2f24 5b3e a22c 273e 2e7a 29be
00000210: 53c8 e2bd 56f2 f23d 3068 8f3e 2df4 253e
00000220: 9fbe ce3d efac 3abe a797 2a3e 90c5 023e
00000230: e35b 2a3d d056 41be 0462 99bd ca35 833c
00000240: c676 29bc d03c 253e 6c4b 11be 84b4 47bd
00000250: 2d5e 253d bdac 873b 8afb 00be 77a3 473e
00000260: fbe9 3a3e 5f36 9ebd 4561 a6bd 3191 033e
00000270: f61d debe 5c5d 44bf 3015 9cbd a797 b8b9
00000280: 4186 1fbe dd9d 1e3e eb1c 3ebd 2a30 173e
00000290: 1afb 26bd 0a89 063f 3952 c0bd a7c7 16be
000002a0: 0c6a 843e f04f 313e d39f 553b 5dd5 83bd
000002b0: 8e1f 4dbd d3dd 1d3e 79f0 623e 659f 10be
000002c0: 1b9d 39be ff43 febc cb89 4d3e 5a6d babe
000002d0: 0f7c 2d3e 2eb8 ff3a 8ae7 8ebc ade1 febc
000002e0: ad5c 313e 128c cbbb 8a9a 4dbe 3896 debe
000002f0: 645c a63d 9e61 643e 2923 a7bc 5341 ebbd
00000300: 43e9 20bd 3fde 35be 2763 81be ef66 723d
00000310: 9b6a ac3d 3ad5 07be 9388 923e 5056 91be
00000320: 88c0 2cbe 67f6 993c 147f 95be 8f23 863e
00000330: be14 72be a8eb b9bd 236a 94bd 9fb2 56be
00000340: fe25 61be 061d 7abe e13f a83d 21a4 1fbc
00000350: 0769 aabe cfed 12bd 0277 ce3c 7464 293e
00000360: 97c7 5e3c 0604 afbe 124c e8bd 0752 04be
00000370: dbef 1b3e 9c46 bdbc bc41 b73b 9837 94be
00000380: fec0 9fbc d192 5a3e eeb2 323e a6c1 7ebd
00000390: 53f8 efbd 599a 393d a42f 233d e8d7 c3be
000003a0: 67d8 993d 3162 69bd 806a 50be 0203 093e
000003b0: f7de 5a3e 7520 ec3c 407f 0cbe 9963 b2bd
000003c0: 4b73 6abb 15dc 45bd 389a 32be 5e4d 53bc
000003d0: b5f9 5abd e727 ac3d 2f56 6cbe d477 fa3e
000003e0: 71b0 d6bd ceca 0dbe 2921 1cbe 1ba9 3b3d
000003f0: b884 cd3c 9086 0e3c e778 c5be 4904 bbbd
-0.059779778 -0.1664017 0.12583432 0.38445 -0.17001818 0.056141913 -0.15051746 0.035038877
0.05031295 -0.15305425 0.018867688 0.12318468 -0.0410089 -0.15279599 0.2635396 0.086400464
0.08878546 -0.07336394 -0.19869336 -0.13700968 0.13580541 -0.05508652 0.1636932 -0.071866855
0.28579763 -0.18624893 -0.00088168436 0.0062400713 0.21028604 0.20754531 -0.18970121 -0.2002627
0.121688694 -0.085950695 0.17910166 0.14155741 0.08681048 -0.008524306 -0.14063255 0.09228711
0.110043146 0.0035708672 -0.095309764 0.020024557 0.26900244 0.6020562 0.03387613 -0.18731758
0.0081845 0.008990631 -0.06629154 0.0026738625 0.16541378 0.19444479 -0.104271255 -0.088625185
-0.32891926 0.23559129 0.2932283 -0.1912451 -0.20223926 0.12782604 0.12279807 -0.05951499
-0.15039814 -0.21893291 -0.12137596 -0.03200152 -0.06323335 -0.32257962 0.06920157 0.367284
-0.06130778 0.15885086 0.12934317 -0.20629773 -0.18893783 0.007758191 -0.28876048 0.034686115
-0.24655506 0.07253645 -0.10808392 -0.14971368 -0.06915554 -0.087694146 -0.16746488 -0.0638597
0.1747921 0.2054061 0.23428002 0.046887975 -0.12601061 -0.010915618 -0.017464565 -0.11274896
-0.049296673 0.18593103 0.06346867 -0.18705912 0.087292954 0.047669876 -0.15290919 0.073727995
0.03353487 0.10002846 0.12478267 0.05636312 -0.0035685038 -0.24335311 -0.12506738 -0.30909804
-0.22750922 -0.18542022 -0.15400697 0.04804195 -0.0034498852 0.04755093 0.054560695 0.053577103
-0.041610688 0.12438532 0.0032142869 -0.12659301 -0.028159812 0.19359256 0.09727882 0.13325989
0.30144408 0.21400522 0.1632562 -0.16550514 -0.11073365 0.11862628 0.28009176 0.16206427
0.10094952 -0.18230031 0.16659413 0.12770677 0.041591536 -0.18880773 -0.07489398 0.01601686
-0.010343259 0.1613648 -0.14188927 -0.048756137 0.040373016 0.004140465 -0.12595955 0.1949595
0.18253319 -0.07725214 -0.081240214 0.12848355 -0.43382233 -0.76704955 -0.07621229 -0.00035208205
-0.15578558 0.15489908 -0.046414297 0.14764467 -0.040766813 0.52552855 -0.09390683 -0.14724599
0.25862157 0.1731565 0.0032596483 -0.0643718 -0.05007892 0.1541665 0.22162046 -0.14123304
-0.18126337 -0.031038282 0.20072095 -0.36411554 0.16941856 0.0019509846 -0.01744439 -0.03111347
0.17320509 -0.006211766 -0.20078483 -0.43473983 0.08123091 0.22302863 -0.020402508 -0.11487069
-0.039284956 -0.17760561 -0.2527096 0.059180196 0.08418771 -0.13264933 0.28619823 -0.28386164
-0.1687032 0.018794252 -0.29198515 0.26199004 -0.23640725 -0.09078151 -0.072468065 -0.20966576
-0.21987149 -0.24425134 0.08215309 -0.009743721 -0.33283255 -0.035871323 0.025203232 0.16542226
0.013597391 -0.34182757 -0.11342634 -0.12921916 0.15228216 -0.023104958 0.005592553 -0.28948665
-0.019501206 0.21345069 0.17451069 -0.062196396 -0.11717286 0.045313213 0.039840356 -0.3825066
0.075119786 -0.05697841 -0.20353127 0.13380054 0.21374117 0.02882407 -0.13720417 -0.08710403
-0.0035774286 -0.04830559 -0.17441642 -0.012896864 -0.053460795 0.08406048 -0.23079751 0.48919547
-0.10482872 -0.13846895 -0.15247025 0.04581557 0.0250877 0.008699074 -0.38568804 -0.09131677

linears.0.0.bias f4 [64]
00000000: f106 b83d 722f 82bc 0e3f 56be 5f3d 70be
00000010: 6fe2 eebc 37c4 683e 0623 52be 3f52 8f3e
00000020: ffd2 14be 43af aa3e 12dc 4b3e 84cd 69be
00000030: 6988 9ebe 3a45 8e3e c84c afbd 6007 6ebc
00000040: c51c ed3c d424 adbc 3bca 303e de76 573d
00000050: 1729 863e e5ca 813c 08ae 033b a11d 36be
00000060: 61e2 4d3e 423f fdbd 9e47 01be c144 fe3c
00000070: 2bb0 76be 5973 d5be 386b 0ebe e504 123e
00000080: 0bf7 6e3e ada2 98be 1cc5 0bbc 80c8 afbd
00000090: d256 21be ba7a 86be b1e9 53bd dc8d acbc
000000a0: fa21 7dbe fefd 78bd 532f d0be c290 8fbe
000000b0: b0df 453b 85ba 503d d4e4 023e f1bd fa3c
000000c0: 3b43 47be deed 46be 7e77 473d 7738 31bd
000000d0: 1369 56bb c26f f13d 66f5 0abe fff4 d0bd
000000e0: 886f 78be fa90 6f3d 98b8 79be 1aad 3ebe
000000f0: e238 cf3e 4a67 2abf 42a6 113e e49a 7ebd
0.08985699 -0.015891764 -0.20922491 -0.23460911 -0.029160706 0.227311 -0.20521173 0.27992436
-0.14533614 0.3333684 0.19908169 -0.22832304 -0.30963448 0.2778719 -0.08559567 -0.0145281255
0.028944382 -0.021135725 0.17264645 0.052603595 0.26203224 0.015843818 0.0020092744 -0.1778474
0.20105888 -0.12365581 -0.12624976 0.031038644 -0.2409064 -0.41689566 -0.13908088 0.1425968
0.23336427 -0.29811612 -0.008530881 -0.08583164 -0.15755776 -0.26265508 -0.051736537 -0.021063738
-0.24719992 -0.0607891 -0.40661106 -0.2804013 0.0030193143 0.05095913 0.12782604 0.03060815
-0.1945924 -0.19426677 0.04869794 -0.04326674 -0.0032716438 0.11788894 -0.13570175 -0.10202979
-0.24261296 0.05848787 -0.24386823 -0.1862072 0.40473086 -0.66563857 0.14223579 -0.062159434

linears.0.3.weight f4 [16, 64]
00000000: 5022 dcbd 9996 4bbd e0ac 9dbd e916 32be
00000010: e6a5 c63d 61f1 9f3d bea7 1a3e 885f 23be
00000020: e3ff 013e 3620 c0bd f934 893d e70b 84bd
00000030: 66f0 9b3d c2f6 ddbd 0311 e03c 3784 91be
00000040: 0dc1 123c 24ef a03d 37b9 543e 5ccb 18be
00000050: 92a9 b53d db40 8b3e cb39 33ba be6e 2ebe
00000060: 1aa9 ddbc ea2f 2fbe 57c7 163d 5eb1 43bc
00000070: 03f8 473d fc59 70be e814 133e 4fea 58be
00000080: 8996 c43d ce15 a03d b3bf c13d 0c14 043d
00000090: acbe 1fbe e7c7 b3bd 39c1 233d a80d cbbc
000000a0: 89be 533c 49fb 84be 7030 c7bd cdcf 8fbd
000000b0: a566 58be 07ae 2e3d bf48 f23c df85 513d
000000c0: b8c3 11be 1936 553e d13f 85be 18f6 01be
000000d0: ffcc 373d 1db5 54bd 1069 683d ddd9 22bd
000000e0: 634e febc ab7a 6c3e a683 c2bd ffaa 943d
000000f0: ed03 8a3c bc3c 46be 7dd5 9abd 15d5 d03d
00000100: 193c 183e 42fd 823d b59e 15be efa0 9b3d
00000110: 7336 bfbc 1f95 5f3e e6c6 27bd 5704 75be
00000120: 2eea 283e a7a7 53bd c992 75bd 597b b23d
00000130: 6818 ea3c d7de 483e 471d c4bd 58dd c03d
00000140: 4986 a73b 21a9 a93c 5e6c 11be 1437 33be
00000150: 492f 1c3d 040b b73e abd7 b03b 5bed 043e
00000160: 225e 203e 4657 f1bd ccb5 c33d 4a78 c7bc
00000170: bf69 fa3c 14a0 613d 3ffb 71bb 557c 2ebe
00000180: c129 04be cca7 6b3e 7f52 f03d 5755 01b9
00000190: 0b45 fb3d 12db 90bd 417e 9f3d c247 a3bd
000001a0: 7c60 493e b5fc 2dbd 0a92 203e 9f5a 733d
000001b0: 6c52 37be c65c 3d3e b122 3fbe b8ab c73d
000001c0: 9321 623e d00c 393d e01d 08be e364 c3bd
000001d0: 23fa 4bbd 56c4 88be 65af 3a3d 3d8c 03be
000001e0: f7a4 a6bd 13a1 833e ad20 19bc 5bc2 793d
000001f0: 2f97 a5be 81e0 cfbc a7f8 3c3e 1650 41be
00000200: 30cf c1ba d237 c13c 0308 df3a 44b7 e63b
00000210: 1dfe fcbd c145 ccbd a97b 3c3c abc6 17bd
00000220: 6514 dabd d2b6 53be a478 d0bd edd7 e6bd
00000230: a896 37be 0847 753e 174a d5bd 95d8 4a3e
00000240: 5405 603c fc0e b03d eb33 9dbe a6b2 09bc
00000250: 702d c7bc 3bfe bcbd 0056 73be 81d3 c23e
00000260: 0854 3d3e 72d5 e3bd 5737 5b3e c517 0b3d
00000270: 908a 5cbb 5b40 94bc 6847 72be 3692 653d
00000280: 4806 3cbc 0178 333b 8f6a 8bbd c811 b8bd
00000290: b66e 693e 19d6 bebd 6825 9a3d e357 0d3d
000002a0: 67e6 803d 2fe4 c0bc 243c 66be f381 1bbd
000002b0: 3421 603e 3a93 d9bd a7a7 0b3e f3ed 58bd
000002c0: acd3 ae3d c445 36bd cf71 153e 8828 93bd
000002d0: 4893 3fbe aa0f c93c 5ad0 323d 14c9 e1bd
000002e0: 4754 92bd 937e 6b3c cdca 483c 0d6b f53d
000002f0: 6673 82be 4634 6e3e 273e a43e d3d8 75bd
00000300: 2a75 35be 7382 08be 4dfb 6e3b 3d33 d4bd
00000310: 4301 9ebc 53e5 25be eb5e a8bd 5729 033e
00000320: 5a00 243e fca0 093e 58f7 a1bc 29a0 e6bd
00000330: 955f b03d 603c 69be 4bae 07be 6bfb 203d
00000340: 68d8 08bd 0e0e e6bd d815 113e 0a25 2ebe
00000350: c0b9 f23d 1c3c afbd 4191 cc3c 0fc4 11bc
00000360: 74e9 cabd a735 5d3d 958c 7dbe 0e17 edbc
00000370: 1eb2 d8bd 1c36 7fbc cfa2 d43c 067b 353d
00000380: eed0 8b3c 4bfa fd3d 793e a03d bdef 5abe
00000390: 8726 50be a0fa 3d3d 1215 f1bd aed1 653b
000003a0: f2f5 ac3d 1215 75bc 04cb 29bd ae58 84be
000003b0: 919e bb3d 147f 26be 77c6 c33c dcd5 f73d
000003c0: d2b1 81bd 36e5 743e 216b 84be 2486 d43d
000003d0: 254f d7bb 52a0 683e 79d8 ad3c 172d a13d
000003e0: 0944 26bd 8646 e8bd bf7e afbd 4ea5 e2bd
000003f0: 38f7 ae3e 5dec d7be 60ec 09be a7d8 c8bd
-0.10748732 -0.049704168 -0.07698989 -0.17391552 0.09699611 0.07809711 0.15103051 -0.15954411
0.1269527 -0.09381144 0.06699557 -0.06447583 0.07614212 -0.10838081 0.027351862 -0.28421184
0.00895716 0.078581125 0.20773779 -0.14921325 0.088702336 0.27197918 -0.000683692 -0.17034432
-0.027058173 -0.17108122 0.0368112 -0.011944143 0.048820507 -0.23471826 0.14363444 -0.21183132
0.09599025 0.07816659 0.09460392 0.03224568 -0.1560008 -0.08778363 0.039979193 -0.024786785
0.012923845 -0.25972965 -0.097260356 -0.07022057 -0.21132906 0.042646434 0.029575704 0.05115306
-0.14234817 0.20821418 -0.2602525 -0.12691534 0.044873234 -0.051930536 0.05674082 -0.039758552
-0.031043237 0.23093669 -0.09497766 0.072591774 0.016847575 -0.19359106 -0.07560251 0.10196892
0.14866675 0.06395961 -0.14611323 0.07599055 -0.023341393 0.21834229 -0.04096117 -0.23927437
0.16495582 -0.051673558 -0.05995444 0.08714933 0.028576091 0.19616257 -0.09575897 0.09417218
0.0051124436 0.02071053 -0.14201495 -0.1750148 0.038131032 0.35750592 0.0053968034 0.12981169
0.15660909 -0.11784224 0.095561594 -0.02434935 0.030568002 0.055084303 -0.0036923436 -0.17039616
-0.12906553 0.23013228 0.11734485 -0.0001233419 0.12269028 -0.07073034 0.07787753 -0.07972671
0.19665712 -0.04247733 0.1568071 0.059412595 -0.17902535 0.18492422 -0.18665577 0.097495496
0.2208312 0.045178235 -0.13292646 -0.09540727 -0.049799096 -0.26712292 0.045577426 -0.12846465
-0.08136933 0.25708827 -0.009346169 0.060976367 -0.32341906 -0.025375606 0.18454228 -0.18878207
-0.0014786478 0.023586188 0.0017015937 0.00704089 -0.12353156 -0.09974242 0.011504092 -0.0370547
-0.10648421 -0.20675209 -0.101792604 -0.11271653 -0.17928565 0.23952878 -0.10414522 0.19809182
0.013673145 0.08596608 -0.30703673 -0.0084044095 -0.024313658 -0.09228178 -0.23763275 0.3805199
0.18489087 -0.11124696 0.21407829 0.033958215 -0.0033651926 -0.018097093 -0.23660052 0.05604764
-0.011476107 0.002738476 -0.06807434 -0.089877665 0.22796139 -0.0931818 0.07526666 0.034507643
0.06293946 -0.023546306 -0.2248388 -0.037965726 0.21887666 -0.10623784 0.13638173 -0.0529613
0.08536467 -0.044500127 0.14594196 -0.07185465 -0.18708527 0.024543602 0.04365573 -0.11024681
-0.07144981 0.014373439 0.012255383 0.11983309 -0.25478667 0.23262128 0.32078668 -0.060021233
-0.17720476 -0.13331012 0.0036465705 -0.103613354 -0.019287711 -0.16200761 -0.08221229 0.12808739
0.16015759 0.13440317 -0.019771263 -0.11261017 0.08611981 -0.22776937 -0.13250081 0.03930227
-0.033409506 -0.112331495 0.14168489 -0.17006317 0.11851835 -0.08556387 0.024971606 -0.008896842
-0.09907809 0.054006245 -0.24760659 -0.028941657 -0.10580848 -0.0155768655 0.02595654 0.044306777
0.017067399 0.12401255 0.07824416 -0.21380515 -0.20327197 0.046381593 -0.11771597 0.0035067606
0.08445348 -0.014958637 -0.041453376 -0.25848907 0.091611035 -0.16259414 0.023898346 0.12101337
-0.06332745 0.23915562 -0.25862983 0.10377148 -0.006570714 0.22717407 0.021221386 0.07869928
-0.040592227 -0.11341576 -0.08569097 -0.110666856 0.34172988 -0.42172518 -0.13469076 -0.09806948

linears.0.3.bias f4 [16]
00000000: a496 463e e5e1 d2bd 707d 6bbd 2a35 a5be
00000010: 0ad6 f7be 6137 11bd d7af 66be 9665 b63c
00000020: ce30 353d 073f aa3d f497 a63e a116 2dbf
00000030: ce2a 13bd a409 ff3e 7486 683e 5f4c e03e
0.19393402 -0.10296992 -0.057492673 -0.32267123 -0.48405486 -0.035453204 -0.22528015 0.022265237
0.044235997 0.08312803 0.32537806 -0.67612654 -0.035929494 0.49812043 0.2270754 0.43808267

linears.1.0.weight f4 [64, 22]
00000000: b7f3 ec3c 6e22 f93d 77be 66be 44ef 9e3e
00000010: b57b 083e 589a b8bb e9fe 30be 59e8 4a3e
00000020: a05e b83d 3be3 a83d d2f1 1d3c 2c7d 3bbe
00000030: 0614 d43e 25f3 083e 04ec 09be 0bda a93e
00000040: 6fe6 1b3d 50b9 13be 4912 4abe 0802 08bd
00000050: ded1 44be a5cb 4ebd ce6b f23b 8de2 99be
00000060: 93c0 073f f383 003d 87f0 a33d ece7 a43e
00000070: 209a 983d 2dfc 453e a0c7 ad3d 489c 37be
00000080: 4190 39be 7aa9 a63c f141 843e 8f5d 86be
00000090: 6c16 bc3d e627 adbe b705 de3d 856f 2abe
000000a0: f925 29be 812c 38bd 3544 503e f362 ccba
000000b0: b163 63be 6e78 82bf 4128 f1be 0cae 72bf
000000c0: e59d b83e 5bc4 bc39 bcf4 2bbe 202b 213e
000000d0: 5841 753e b6b9 2d3e 26de 2c3e 9192 4a3e
000000e0: 4073 a3be 598c 3f3e 8673 cc3c fd21 8fbb
000000f0: 3a2b 5b3d ec8c ca3d b438 eb3e 0648 dd3e
00000100: 32e4 38bd 6e37 4d3e f5e8 34bd 1974 9f3d
00000110: b94c c2bd 1a00 a23e 9e79 8f3d 8b6d 023f
00000120: f25d f8bc 4eec 3b3e 6e4d a7bc fe4e 4cbe
00000130: 9f9d 253e 3861 54be 557b cd3c 4a2a 75bd
00000140: 7aec d73d 762e 1ebc 62e5 0ebd 311e 223d
00000150: c9af 37be 2d79 aabd 0392 d53d 830c dc3c
00000160: e863 583e 00b1 853e 52b9 893e ff1d 34bc
00000170: 499a 5fbe 6d86 04be 7b8a 0e3d e6ff d43d
00000180: 23cc cdbd 5cbb af3d 69b7 fbbd bd1d 73be
00000190: d58a 0a3e 5ff5 91bc 670c c7bd 8b72 d63d
000001a0: 9bbd 2b3e b265 14be 69d9 3d3e d633 573d
000001b0: 6d33 1e3e b9b7 81be c05f 263e af5f 933e
000001c0: c8a5 453e fdaf eabd 0cfe 99bc 96cc e23a
000001d0: 73b9 dbbd 31ca c83d c15c a1bd 690f 753d
000001e0: e975 2b3c aecf 2a3e 4d95 0e3e 3776 27be
000001f0: ae38 7f3e f7ba 84be 3b1d b5bc 371b 433e
00000200: fa9f 75be 5db0 833e a3e0 463e f99c 473e
00000210: 0743 123e c29b c53e da3d 17be b798 a83e
00000220: cf86 a73e b53b 7c3b ca5e 8dbd cc08 1dbe
00000230: a490 fa3c 0322 51be 04b0 123e 6e09 983e
00000240: cc49 b6be 2139 6cbd 5145 4d3d c930 4ebc
00000250: 85cb 343e 2cab 60be 0d0d 88be cbf5 3cbe
00000260: c7d8 e5bd 2ffc df3d d94e 03be 5430 5fbf
00000270: a9db 91be 84cb a63e a4db 453e 5acc c13b
00000280: 8eec e6ba 58e0 9bbd 9146 2fbe a19f b7bc
00000290: 3406 233e a6ac 07bf fd43 a1be 65dc 853e
000002a0: 3423 583d 8749 73bb acdd 10be 5d04 7f3c
000002b0: 91d2 ce3d 5d63 5e3e a68d 093e 42ce 15bc
000002c0: a471 4a3e 6bf0 333e 46c5 a93e 98f1 0d3e
000002d0: 5107 b83c ee5c aa3e a7d4 fdbd bda2 5d3e
000002e0: e036 423e 2af5 46be edc8 cfbd 60c8 7fbe
000002f0: 937f 8fbd 16e4 33bd e604 ffbd 1d96 2dbb
00000300: b66d 73bd 3f87 ac3d dbf5 38bd 79b8 edbd
00000310: 0773 b93d 0bd7 e0bc c8c6 c5bd 05e4 3b3e
00000320: 374a 32bc 43c8 bf3d 81b6 6d3d 8a48 96be
00000330: 1e1a 2b3e c5a1 26be 1ff3 37bc def7 403e
00000340: a333 9c3d dd9c 3bbe 604c 043e 49ac bfbd
00000350: 14a4 883c c649 8fbb c3f0 273e e5ac 02be
00000360: 20a8 84be 8cc1 a6bc b0eb 873d c0a7 913d
00000370: 90ee e13d 389e 77bd c186 513e 4b8f c0bd
00000380: 9353 50be 42b3 35bd 5bc6 59be 4b96 233e
00000390: 71dc 573e 603b 62be 0d82 40bd fe02 64be
000003a0: cf4f 373e 81e0 38be 8477 90be 945c 7d3e
000003b0: 6da6 87bd 4965 a53b a473 20be dc0a a93d
000003c0: 5b7f 8bbd 8245 39be 25af 7dbe d681 50bd
000003d0: 4bff 653e cf70 e2bd 92b1 103e e379 253e
000003e0: 76b3 093e da2e 133e 8719 333e 5631 b3bd
000003f0: f1f1 573c 9a49 1b3e 17fd 663e 848d bf3d
0.028924806 0.1216477 -0.22533594 0.3104192 0.1332844 -0.0056336336 -0.1728474 0.19815196
0.09002423 0.08246466 0.009640174 -0.18309468 0.41421527 0.13374002 -0.13468939 0.33174166
0.038061555 -0.1442616 -0.19733538 -0.033205062 -0.19220683 -0.05048718 0.007398105 -0.30055657
0.5302822 0.031375837 0.08004861 0.32208192 0.07451272 0.19334479 0.08485341 -0.1793071
-0.18121435 0.020344485 0.2583156 -0.26243255 0.09183964 -0.33819503 0.10840934 -0.16644104
-0.16518392 -0.044964317 0.20338519 -0.0015593454 -0.22205998 -1.0193002 -0.47101024 -0.94796824
0.36057964 0.0003600445 -0.16792578 0.15739107 0.23950708 0.16965374 0.16881618 0.19782473
-0.31923866 0.18705882 0.02495743 -0.0043680654 0.05350802 0.0989016 0.459417 0.43219012
-0.0451395 0.20040676 -0.044167478 0.07785816 -0.0948729 0.31640702 0.070056185 0.509484
-0.030318234 0.18351862 -0.020422664 -0.19952008 0.16173409 -0.20740211 0.025083223 -0.059854783
0.10543151 -0.009654632 -0.034886725 0.039579574 -0.1793815 -0.08323894 0.1042824 0.026861435
0.21131861 0.26111603 0.268992 -0.01099348 -0.21836199 -0.12941904 0.034800034 0.10400371
-0.100487016 0.08580658 -0.12290842 -0.23741813 0.13529523 -0.017817197 -0.097191624 0.10471066
0.16771547 -0.14491919 0.18539967 0.05253967 0.15449305 -0.25335482 0.16247463 0.28783938
0.19301522 -0.11459348 -0.018797897 0.0017303403 -0.10728731 0.0980419 -0.078790195 0.05982915
0.010465124 0.16680786 0.13924141 -0.16353689 0.24923965 -0.25923893 -0.022108665 0.1905335
-0.23986807 0.25720492 0.1942163 0.19493474 0.14283381 0.38595396 -0.14769688 0.32929012
0.32720038 0.0038487737 -0.06902845 -0.15335387 0.030586548 -0.2042313 0.14324957 0.29694694
-0.35603178 -0.05767167 0.050114933 -0.0125848735 0.17655762 -0.21940297 -0.26572457 -0.18453138
-0.112229876 0.10936772 -0.12823047 -0.8718312 -0.284879 0.32577145 0.19322067 0.005914253
-0.0017618106 -0.076111495 -0.17116763 -0.022414984 0.15920335 -0.52997816 -0.31497183 0.2614471
0.052767947 -0.0037122683 -0.14147061 0.015565005 0.10098756 0.21717592 0.13432941 -0.009143414
0.19769913 0.17572181 0.3315832 0.13861692 0.022464426 0.33274025 -0.12394076 0.21644111
0.18966246 -0.1942946 -0.101457454 -0.24978781 -0.07006755 -0.04391869 -0.12452106 -0.002648718
-0.0594308 0.08424234 -0.04515634 -0.11607451 0.09055143 -0.02744629 -0.09657055 0.18348701
-0.010881952 0.09364369 0.058035377 -0.29352218 0.16709182 -0.16272648 -0.011227398 0.18844554
0.076270364 -0.18321557 0.1291976 -0.09359033 0.016679801 -0.004372808 0.16400437 -0.12761267
-0.2590952 -0.020355962 0.06636751 0.07112074 0.1103183 -0.060453624 0.20461561 -0.09402331
-0.20344381 -0.044360407 -0.21267073 0.15975301 0.21080185 -0.22092962 -0.046999026 -0.22266766
0.17901538 -0.18054391 -0.28216183 0.24742347 -0.0662354 0.0050474745 -0.15669113 0.082540244
-0.068114005 -0.18092921 -0.24773844 -0.05090507 0.22460668 -0.11056673 0.14130238 0.16159777
0.13447365 0.14373341 0.17490207 -0.087496445 0.013180242 0.15164796 0.22557484 0.09353164

linears.1.0.bias f4 [64]
00000000: 048a d23d 9101 d0bd 771d 3ebe 1eb7 65be
00000010: 9547 8b3c f3c6 fcbc 7116 943e 3fc9 b4be
00000020: 3c47 babe 740d 35be 8a54 0b3d cbf0 ebbc
00000030: d227 82bd b2da 8c3d 8a48 0a3e 7602 7fbe
00000040: 3426 813d 4494 5dbe 1c3c 90be 671b d4bd
00000050: e27e 193e ac64 333e fb9b 98be df8a 6e3e
00000060: a758 87be 8e48 74bd 29e4 5e3e 5cf0 043e
00000070: 0224 b83d d052 b1bd f60f 673d 9333 1abd
00000080: 880e 833e 3803 c83d d263 4ebe 5ccd 56be
00000090: 0fbf 5dbf c91d 363e d540 493e 1eeb 413e
000000a0: c7a7 703d fc03 303e c0b0 55bd f89c a5bc
000000b0: 7d71 59be 7277 553d 1828 743b 64f3 933d
000000c0: 53bb de3d 0175 20bd ebbd 123e 3a51 cf3e
000000d0: 6894 8e3d e8cc 243e ec6b ebbc 8825 ea3e
000000e0: 2dd3 31be d890 4fbd 5b5f 57be eda3 2cbd
000000f0: 81f8 733e a08d 8f3e d7e9 f7bc 7462 f6bd
0.10280231 -0.10156549 -0.18565927 -0.22433135 0.017001906 -0.030856585 0.2892337 -0.3530979
-0.36382473 -0.17680913 0.03401617 -0.028801342 -0.06355251 0.0687765 0.13504234 -0.24903283
0.06306115 -0.2163859 -0.2817086 -0.10356789 0.14989808 0.17518872 -0.29806504 0.23295163
-0.26434824 -0.059639506 0.21766724 0.12982315 0.08991243 -0.08658373 0.056411706 -0.03764684
0.25597024 0.09766239 -0.20155266 -0.20976776 -0.8661966 0.177848 0.19653638 0.18937346
0.058753755 0.1718902 -0.052170515 -0.02021645 -0.21234699 0.052115865 0.0037255343 0.072241575
0.10875573 -0.039174084 0.1433026 0.40491658 0.069619 0.1609379 -0.028737985 0.4573176
-0.17365713 -0.050675243 -0.21032469 -0.04214852 0.23825265 0.2803774 -0.03026287 -0.12030497

linears.1.3.weight f4 [16, 64]
00000000: 183d 24bd 38a2 9dbd f0c9 edbd f161 0dbd
00000010: 2cbf 4c3e 7dde b83d 26d3 15be 5318 433d
00000020: 9213 c0bc 8773 c1bc e63c 6b3d bfc7 abbd
00000030: 1dc5 32bd 7bb1 ac3d a913 a7bd 3611 5a3d
00000040: 048c 503e 2213 243e 7508 453e 8875 e5bd
00000050: 57d9 8b3e a8ea 503e b6a0 933d 9d39 09bd
00000060: bef0 52bc a602 9b3d bc90 1e3e ec2b fc3d
00000070: 34e1 963b 777a 7a3d 45e0 2f3e b0f1 233d
00000080: cca0 d33d 3186 5fbb b1c7 c43d 990b 9b3d
00000090: 459d 633d 5a1d 183e 8aa8 17be 877c 1dbe
000000a0: 0ce9 943e 7cc9 9fbb d128 1e3c ed33 8d3b
000000b0: 4c47 a4b9 74d0 913d 5520 03bd eb9f dd3d
000000c0: fdb6 d43d f716 e23d 659a 93bd 34c9 8c3e
000000d0: ee4b acbc 6fb6 a1bd 9218 1e3e 99f0 803e
000000e0: 0050 95bd 7ac1 843d c4a2 fc3c 85b8 28be
000000f0: 32ca fabd 3278 68bd 9006 753d 6b1c c03d
00000100: 5679 55bd 8eaa 3cbe 5a7d 9d3e bde2 ae3d
00000110: ab6d 01be f75c 893d 9318 9fbd 6651 c73e
00000120: c5dd a33c a654 0fbe 406d cdbd fe22 273d
00000130: ef79 dc3b 87dd f3bd c5d9 babd 8cd4 3c3c
00000140: 6555 71be 3ca1 013d 19f7 18be d78c 49be
00000150: 9a1c 3dbd 409a 853d ad98 02be 892c 1ebe
00000160: 30e2 803d 41c9 47bd 8f95 24bd 8812 833b
00000170: 1712 553e 4cf8 ba3d 60c2 ba3d fd97 7c3d
00000180: 444f 8bbe 13a4 9d3e 428e 1a3e b2b5 2cbe
00000190: 4fe8 163e c854 be3d 3e16 2d3e f468 02be
000001a0: f76e 833c a92f 32bd 7afb 17be e5cb 36be
000001b0: 4dbe cebd bd25 92bd c694 31be 0f6d 1f3e
000001c0: db83 c43c 1219 133e 4ccf 873c 0c34 37bd
000001d0: 7738 0ebe bf1a 9e3c d7da a8bd 5ec6 2cbe
000001e0: 6a82 9a3d 2d05 3c3e 8d78 1ebe ba2c ccbd
000001f0: 8eed 2c3e 367a 2cbe b24e c7bd 4533 d4bd
00000200: 628c a63c 1e1b b2bd cd98 033f 85fe 583d
00000210: 5c79 14be c6ef af3d 611b 373e 7c78 ac3d
00000220: f2c4 ccbd 1c0a 67bc 920f 1bbe 761c f9bd
00000230: 1b6d c83d dd20 e2bd d1d2 a8bd b210 b13c
00000240: a5df 3fbc 83bf 19be a785 4dbe 137e 0d3c
00000250: 4a3c 85bd 9595 48be 02fa 09bd 1ebe d9bd
00000260: 2cf4 42bd ce64 9fbd 787c 5abd 9ec6 5dbe
00000270: 9d54 093e 94bd e1b9 56d7 2abe 66f5 94bd
00000280: ad8c 19be 688e 3e3d 9a47 fabd 0a03 23be
00000290: 52bb 903c 307d 453c 1fb1 ab3e c49e 6cbd
000002a0: 691b ecbc d631 bebd 282a 5bbc 79b0 a63d
000002b0: d1f5 c3bd 6fb4 2abe 0910 02bc faab cebd
000002c0: db28 31be 99b1 bfbd 251d a43d a8b4 efbd
000002d0: 4136 ccbc 4a80 ddbd 75d4 cabd 89fd 4ebd
000002e0: bfd9 5e3e e1ce b2bd 1798 e13c 10f2 2b3d
000002f0: f45a 003e c9a2 85bd d673 8cbd c4d6 803d
00000300: f87e 0ebe 5dac 4ebd aa9f abbd 78d8 c2bc
00000310: 92a7 0e3e c036 11bd d0f8 813d 3037 50be
00000320: e3be 7fbd e43c 6dbd 65e8 683d 9b59 693b
00000330: 3766 f2bd 875d 0bbd c834 033b 5629 9c3d
00000340: 455c e73d afe9 c53c 418c 0f3e 9d6a 1ebd
00000350: 971b dc3d 0b72 f23d 2866 d63d 2261 37bd
00000360: 9f76 3b3e b7b9 c23d 5221 633d 551d 273d
00000370: 8e07 e9bd 6d1b f93c d270 c43d c309 113d
00000380: 7a32 5d3e d556 6f3a 9976 08be 787b 633d
00000390: 739a 8c3c 8b12 ad3d 48b0 5bbe 95b7 0b3d
000003a0: 3e1e fc3d 22b1 4d3d e366 7e3c 52ae 233e
000003b0: 3a08 0dbd cb4b 93bc 2145 983d 5ca3 c03b
000003c0: e9a8 a9bb e8c5 2b3c e345 a3bd 4275 253e
000003d0: a029 11ba 7c99 c0bd 08cd 83bd a50a 543e
000003e0: 8961 013d 2910 443e cd50 203e 016e 8bbd
000003f0: 396d 79be 4304 673d 9701 d63d 1882 a43d
-0.040097326 -0.076969564 -0.11610782 -0.034517232 0.19994801 0.09026811 -0.14631328 0.04763062
-0.023446832 -0.023614658 0.057431124 -0.08387708 -0.043645013 0.08432289 -0.08158047 0.05323907
0.20365912 0.16022924 0.19241507 -0.11204058 0.27314255 0.20402014 0.072083876 -0.03350221
-0.01287478 0.075688645 0.154849 0.12313065 0.004604483 0.061151948 0.17175396 0.040025413
0.10333404 -0.0034107084 0.096084006 0.075705715 0.055569906 0.14854947 -0.14810386 -0.15379535
0.2908405 -0.0048763137 0.009653286 0.0043091686 -0.00031333638 0.071198374 -0.032013256 0.108215176
0.10386465 0.110395364 -0.07207183 0.27497256 -0.0210323 -0.078961246 0.1543906 0.2518356
-0.072906494 0.06482215 0.030839331 -0.16476639 -0.12245597 -0.056755252 0.05982071 0.0938042
-0.052117668 -0.18424436 0.30759698 0.08539341 -0.12639491 0.06707185 -0.07768359 0.3892929
0.020003209 -0.13997135 -0.100306034 0.040804856 0.006728403 -0.11907487 -0.091235675 0.0115252845
-0.23567732 0.031647906 -0.1493801 -0.19682632 -0.046169855 0.065235615 -0.12753554 -0.15446676
0.06293142 -0.048775915 -0.040181693 0.004000012 0.20807682 0.0912939 0.09119105 0.061668385
-0.27208912 0.3078924 0.1509333 -0.16866186 0.14737056 0.092935145 0.16903016 -0.12735349
0.016044123 -0.043502484 -0.14842024 -0.17851217 -0.10094891 -0.07136104 -0.17341909 0.15568946
0.023988655 0.14365032 0.016578339 -0.04472737 -0.13888727 0.019299863 -0.082448654 -0.16872546
0.07544406 0.1836135 -0.15475674 -0.099694684 0.16887495 -0.16843495 -0.09731807 -0.103613414
0.020330612 -0.086965784 0.5140503 0.052977104 -0.1449942 0.08590655 0.17881538 0.08421418
-0.09998502 -0.014101531 -0.15142658 -0.121636316 0.09786435 -0.110414244 -0.08243335 0.021614406
-0.011711036 -0.15014462 -0.20070516 0.0086360155 -0.0650564 -0.19588311 -0.03368569 -0.10631965
-0.04759614 -0.07782899 -0.05334136 -0.21657798 0.13411184 -0.0004305659 -0.16683707 -0.072733685
-0.1499507 0.046522528 -0.12220688 -0.15919128 0.017667446 0.012053773 0.3353357 -0.0577686
-0.028821664 -0.09286849 -0.01337675 0.08139128 -0.0956837 -0.16670392 -0.007938393 -0.10091396
-0.17300741 -0.09360046 0.080133714 -0.11704379 -0.024928214 -0.10815485 -0.09903804 -0.05053476
0.21762751 -0.08730865 0.027538342 0.041978896 0.12534696 -0.065251894 -0.068580315 0.06290963
-0.13915622 -0.050457347 -0.08380063 -0.023784861 0.1393111 -0.035452604 0.06346285 -0.20333552
-0.062437903 -0.057919398 0.056862254 0.0035606388 -0.11835902 -0.03402474 0.0020020474 0.07625072
0.11296896 0.02415928 0.14018346 -0.038675893 0.1074745 0.11838158 0.104687035 -0.044770367
0.18306969 0.095080785 0.0554517 0.040799458 -0.11378394 0.030408585 0.09591831 0.0354097
0.21601287 0.00091300654 -0.13326491 0.05553767 0.01716349 0.084508024 -0.21453965 0.034110624
0.12310456 0.050217755 0.01552746 0.15984467 -0.034431674 -0.017980477 0.0743506 0.005878849
-0.0051776064 0.010484196 -0.07972314 0.16158012 -0.00055375136 -0.09404275 -0.06435591 0.20707186
0.031587157 0.1914679 0.15655823 -0.06808091 -0.24358071 0.05640055 0.10449522 0.08032626

linears.1.3.bias f4 [16]
00000000: b460 fc3d e47d a7be fc70 68be 1d6d 5dbd
00000010: e6d4 5abe bb2a 4bbe 9c11 ba3d ba77 c2bc
00000020: 22f4 3abe ffc2 9abd 071e f33d cf17 c1be
00000030: b893 ad3e c483 9a3e bb00 313e 552a 1639
0.12323132 -0.32713234 -0.2269935 -0.054059137 -0.21370277 -0.19840519 0.0908539 -0.02373873
-0.18257192 -0.07556724 0.11870962 -0.37713477 0.33901763 0.30178654 0.17285435 0.00014320885

linears.2.0.weight f4 [64, 22]
00000000: 64e1 94be bf77 e93d e000 04be 128d cd3e
00000010: 4862 943d d1c0 0fbf e53b 113e 973a 493d
00000020: f6cc 313e 605b 083e 8917 9a3d d834 f43d
00000030: e033 d53c c98a 26bc 0bc3 863d 7139 8abe
00000040: fab2 4d3e 1c94 453d f319 133c 7a31 06be
00000050: 1e08 13be 24d2 923d 0d35 833e 14a6 72bd
00000060: 15cf 7b3e 5cdd 283d 027e abbd bb08 f83e
00000070: 5982 74bd 40a1 5f3e 06fa 933d 1c2a 2d3e
00000080: a3be 25bd 1c2e af3d 9827 093d 902b 403e
00000090: 1ea6 b03d d0a3 c9bb 5284 91bd 9151 c0bc
000000a0: 4266 253d e725 8ebd b217 20bd 900f 773e
000000b0: aaf3 21bd c8a8 b13d 923a 0bbf 179c 463e
000000c0: b4f6 733d b3de afbe 91a1 373d c396 1b3c
000000d0: da65 15bd 6b8d 20be f9aa 8a3d 5b2a 4e3d
000000e0: 17fd ccbd c079 f73d 9c91 8a3e 6ac1 8d3c
000000f0: 0d51 9a3c e453 623e a0a5 f63d 0bbc 9d3c
00000100: b2ef 06be d118 f9bc c530 003e 1569 6dbe
00000110: 9062 ad3e 1877 1fbe 798a e9bb 76a9 92be
00000120: e510 c1b9 5832 03be db97 b13d 553d 8e3c
00000130: 80d4 b0bd 47b8 f43c 58de 84be 70eb 273e
00000140: 38b7 e83d 1538 c7bd 9ddc 103e 4b1d ccba
00000150: cfd2 7dbc 2f6a 39bd ed61 243e 1830 c3bd
00000160: e3ca 62be 34bd d9bd d559 3dbf 5345 153d
00000170: 86db 833c ff1c b33b b400 88bd 4766 97bd
00000180: 5fec 133e 4053 1f3e 429e 11bc 5233 aebd
00000190: 1d6a 8fbc 97ec 383e d4a0 8fbd 24c8 273e
000001a0: 47da 173e 437e 9f3d e446 03bd a3d5 14be
000001b0: 7294 e3bd add2 6c3d e1f9 0c3e e212 a0be
000001c0: 962d 963d 8f66 623e f535 3c3e 6e9c 2d3e
000001d0: 5229 333b c533 c93c e2b4 2abe 5ab7 47bc
000001e0: 9438 7abb 36d2 413e 6b61 93bc 4dc5 3b3c
000001f0: 4499 9bbc 0e68 3b3e 0f29 61bc 7d2d 3cbe
00000200: cac5 593d aa85 fabd 6087 473e 8190 1b3d
00000210: a63c 24bd 9c75 afbd 30be 42be 0119 ddbd
00000220: 9afa f7bd 96fd 35bf 8cef 603e e4f7 663d
00000230: 58f9 403e 8ffc 2c3e 9dcd 273e 3374 e83d
00000240: c922 723c 272b 6cbd 3227 8c3d 44d2 383e
00000250: 46a5 97bd 13c4 323e eaa3 4bbd d56a c5bd
00000260: a94f 4e3e a638 6c3e 2e85 44bb 1844 513e
00000270: 66fb 773c 2929 1ebe a0fb a9bd 110a 53be
00000280: 0e75 14be 4eda 99bd fc11 723e 39f2 12be
00000290: 4d0e 44be efe8 413e b611 aa3e 6644 f93d
000002a0: b4df 403e 3228 613e fbcf 99bc 27f5 163e
000002b0: 32ec bcbd dd36 02be 4f3c d4bc 63f8 1c3e
000002c0: 90c8 2f3d 21b8 843a a9cf 68bc 984d 363d
000002d0: 4824 d63b ba4e 2ec0 4689 b1bc 6ff3 c03c
000002e0: 4244 123e 93e8 933d 10eb f0bd 5a59 9fba
000002f0: 5984 a83b 1148 54bd 9299 2b3d e836 31bb
00000300: 92d8 cf3d 4ff6 a93c f73d 403d a5a4 0d3c
00000310: 2e38 9c3b 2a63 a1be b05a ffbe fa4b 6d3e
00000320: c860 15bf ae64 80be 5fe6 613e dd90 0ebb
00000330: 6e06 3fbe 73ce 1e3e ccd7 053e ee91 04be
00000340: 80e4 043e 6ed2 87be 1d40 07bb 0f79 67bc
00000350: 5d3a 6ebe a515 08be 7a94 9ebd 4c5e 0abe
00000360: 340c 9f3d 47bf 1bbd 1657 0a3d 6997 8ebd
00000370: b9a2 753e ffed a9be 45b6 c1be f998 bc3e
00000380: dc3a a03c a8ed 7f3e 57c7 36be 31de 1f3e
00000390: 7f36 323d cb5a 4ebe a8ba 6f3b cec1 eb3e
000003a0: 4fcb 033d e9e6 c4bd c7c7 d63d e8fa b63e
000003b0: a391 e5bd 0e0e a83d c923 a83b 7c6f 46bd
000003c0: 2215 e5bd 5488 0fbe f982 613d b315 5a3e
000003d0: afd8 583c f4b7 37be 09ac d23d ebba 84bd
000003e0: 2c09 143e 1cdb 4bbe 6fcc 02be 8449 223e
000003f0: ff58 783b 2bc0 1d3e f7f6 1ebe 14c5 0dbe
-0.2907821 0.11399793 -0.12890959 0.4014669 0.07245308 -0.5615359 0.14183004 0.04912814
0.17363343 0.13316107 0.0752402 0.11924142 0.026025712 -0.010164925 0.0658017 -0.2699695
0.20087805 0.04823695 0.008978355 -0.13104811 -0.14358565 0.071689874 0.25626412 -0.059240416
0.24590714 0.04122673 -0.083736435 0.4844416 -0.05969462 0.21838856 0.072254226 0.16910595
-0.04046501 0.085537165 0.033485025 0.18766618 0.08625434 -0.006153561 -0.07105316 -0.023476394
0.040380724 -0.06940823 -0.039085098 0.2412703 -0.039539017 0.086747706 -0.54386246 0.19395481
0.059561446 -0.34349594 0.044831816 0.009496394 -0.036474086 -0.15678947 0.06770892 0.050333362
-0.100092106 0.12083769 0.27064216 0.017304141 0.018837476 0.22102314 0.12043309 0.019254705
-0.13177374 -0.030407341 0.12518604 -0.23184617 0.3386426 -0.15572774 -0.007127103 -0.28644913
-0.00036824416 -0.12812173 0.08671542 0.01736323 -0.08634281 0.029873027 -0.25950885 0.16398406
0.11363071 -0.09727494 0.14146657 -0.0015572695 -0.015492155 -0.04526728 0.1605298 -0.095306575
-0.22147708 -0.10631791 -0.739652 0.036443066 0.016095888 0.005466103 -0.06640759 -0.07392555
0.14445637 0.15559101 -0.008887829 -0.08505882 -0.017506653 0.18059002 -0.070130974 0.16384941
0.1482936 0.077877544 -0.03205003 -0.14534621 -0.11112298 0.057818104 0.13767196 -0.31264406
0.073329136 0.22109435 0.18379958 0.16954204 0.0027337861 0.024560818 -0.16670564 -0.0121897105
-0.0038180696 0.18927845 -0.017990788 0.011460614 -0.018993981 0.18301412 -0.013742699 -0.18376727
0.053167142 -0.12232526 0.19485235 0.037979607 -0.0400969 -0.08567354 -0.19017863 -0.10795785
-0.12108345 -0.71090066 0.2196638 0.05638875 0.18845117 0.16893218 0.16387029 0.11350288
0.014778801 -0.05765834 0.068434134 0.1804896 -0.0740457 0.17457609 -0.049716868 -0.09639517
0.20147575 0.23068485 -0.0029986608 0.20436132 0.015135622 -0.15445389 -0.08299947 -0.20609309
-0.14497778 -0.075123414 0.23639673 -0.14350213 -0.1914608 0.18936513 0.33216637 0.12171249
0.18835336 0.2198799 -0.01877593 0.14741956 -0.09224738 -0.12716241 -0.025907664 0.15329127
0.04291588 0.0010125675 -0.014209666 0.044507593 0.006535087 -2.723555 -0.021671902 0.023553578
0.14283851 0.072220944 -0.117635846 -0.0012157366 0.00514273 -0.05182654 0.041894503 -0.0027040783
0.101487294 0.020747332 0.046934094 0.008645211 0.0047674393 -0.3152097 -0.49873877 0.23173514
-0.583508 -0.25076813 0.22060536 -0.0021753826 -0.18654796 0.15508442 0.13070601 -0.12946293
0.12977791 -0.26527733 -0.002063758 -0.014127984 -0.23264451 -0.13289507 -0.077431634 -0.13512534
0.077659994 -0.038024213 0.033774458 -0.06962473 0.23987855 -0.3318939 -0.37834373 0.3683546
0.019559316 0.24993002 -0.1784948 0.15612103 0.043509003 -0.20151822 0.0036579762 0.460463
0.032176312 -0.09614355 0.10487323 0.357383 -0.112094186 0.08205806 0.005131219 -0.048446164
-0.111856714 -0.14016849 0.055056546 0.2129734 0.013235255 -0.17941266 0.10286719 -0.06480964
0.14456624 -0.19907802 -0.12773298 0.15848356 0.0037894843 0.15405338 -0.15523897 -0.1384471

linears.2.0.bias f4 [64]
00000000: 550b 29be 2c5a 04be 5e4b cb3e eaf1 18be
00000010: e674 41be 39ac bc3c cf8c 90bd 2450 87bd
00000020: 3a65 0bc0 aa40 173e f805 8a3e ff44 d9bd
00000030: 3531 913e ad6a 5a3e 754b 79be e932 f13e
00000040: 5c9e 4f3e 9000 3fbe a604 9dbe dd06 8cbc
00000050: 4cfd 17bd 4978 26be 1453 943f af38 8e3e
00000060: 103f 8b3d 87c3 b33e 5d89 b0bd 4981 8b3c
00000070: 6cfe 62be c5f8 50be 750a 47bd 4680 bfbd
00000080: 1596 273e daaf 64be 6ac1 fe3d b546 8abd
00000090: 9739 aebd af78 96be 89bc b53e 9567 9f3e
000000a0: f55a 1cbe dcd4 c0bd e007 043f 46f4 883e
000000b0: d57a 323c 9310 06be 18ef 99be f364 673c
000000c0: c24d 983d 9ff8 4bbe d7fe 77bd cd6b 373e
000000d0: 7cc3 86be 3900 b83d 60bd 63be 0d0a 62be
000000e0: 4e43 43bd bf16 04be c0cd 6a3d 41c2 783e
000000f0: 5a47 54bd 0c6b 663e 444c 0bbf e42d dbbd
-0.16508229 -0.12925023 0.39705938 -0.14936033 -0.1889225 0.02303134 -0.07058107 -0.066070825
-2.1780534 0.14770761 0.2695768 -0.10608863 0.28357854 0.21329756 -0.24345191 0.47109154
0.20275253 -0.18652558 -0.3066761 -0.017093116 -0.037106797 -0.16256823 1.1587853 0.2777762
0.067991376 0.35110113 -0.0861995 0.017029421 -0.22167367 -0.20407398 -0.048593957 -0.09350638
0.16365846 -0.22332707 0.124392346 -0.067517675 -0.08507078 -0.2938895 0.35495403 0.31133714
-0.15269072 -0.094156 0.51574516 0.26748866 0.010893543 -0.1309226 -0.30065227 0.014123189
0.07436706 -0.1991906 -0.06054577 0.17912216 -0.26321018 0.089844175 -0.2224021 -0.22074147
-0.04767161 -0.12899302 0.057325125 0.24292852 -0.05182586 0.22501773 -0.5441325 -0.10702112

linears.2.3.weight f4 [16, 64]
00000000: 824c 963e 0af3 003e 19a1 0bbd 83d8 8bbc
00000010: 0b8f 393e 4bd5 3ebe e6f4 a63e e523 f23b
00000020: a7c5 183f 2156 9cbd 55ed 463e 77ad a4bc
00000030: 2dce 6f3e b430 1ebe 093a a33d 46be 48be
00000040: b1c0 fdbb 6a42 16be 3482 8ebe 4351 d13d
00000050: d0ef 803e 158e dfbd 0919 893e 5180 6abe
00000060: 86e7 433e eeac 103e 7b6c d2bd c505 e63d
00000070: ed95 2dbe c4ed 013e b18a 4cbe 1fa4 843e
00000080: 6392 69be 546b 7c3c c66e 36be 7bd0 173e
00000090: dc46 563a 2856 813c 9a89 64be 8357 22bd
000000a0: 8add 18be 7b91 1c3e 716b 2a3e 2e4d 75be
000000b0: 21e0 be3d 6112 77be 3fd6 f2bd 7b32 a2bd
000000c0: 861b 603d add3 e2bd 239a d2bd 3bf4 0e3d
000000d0: 6bbf 80bd c663 633c 15d4 50be 6c9f d33c
000000e0: 3a21 7f3c fc9f 6c3e bd01 59bd aae6 483e
000000f0: 090d 1ebe ebfb 843d 6d6f 8b3d 052d 2e3e
00000100: ad20 b13b ab9a 5b3e 5623 033e 4015 acbd
00000110: e51d ab3e 0a48 f83d a2d8 db3d 0f08 55bd
00000120: 3056 77bd e909 823e 2eab 3abe b809 15bc
00000130: 9f91 373e 80da a13e f60e f0bd 7267 3d3e
00000140: 08f0 25bc 8ceb a2bd 042b debc fc51 9bbc
00000150: 055c 09bc 685a a1bc ac9b 023e 809b 40be
00000160: b022 1bbe edaf a4bd f8ce b43b a4a3 20be
00000170: bcf5 04be 32e2 6cbe 26ae 883e 0420 ebbd
00000180: 71c6 d5bd cf92 01be 485b 0bbf dde1 a53c
00000190: c0d9 55be b97d 453d 0fb7 d8bd 48e0 233e
000001a0: 1e7b 9ebd 74e4 55bd 8e81 ca3d b863 06be
000001b0: 6135 b1bc 3140 95bd 4330 f3bd c9fb a5bc
000001c0: ed7a 6ebe 3ca1 9fbd 5295 9cbe 0835 6d3e
000001d0: 3be1 95be ce6a 25be a891 85bd 80ab c63e
000001e0: 0840 d1bc b089 153e eaba 63be 21a6 2fbe
000001f0: 6c0e b7bd d658 9bbe 1d2d d93c 9b08 68be
00000200: b44b 81be 46a4 3ebd 349d cebd a857 3e3d
00000210: 0b0d ce3d 1cf2 753e 9b1a 2dbe 2593 833d
00000220: de26 b73e 6ac3 933d f24f a0bd 7d59 18bc
00000230: c2d1 48bc 8cae 283e 0a9e 813b 6df3 5a3e
00000240: 6b4b b6be 6d3e a7bd 9730 ac3e 0c37 01be
00000250: a98c 513d 5d27 51bd ba27 bb3d 20a6 b03e
00000260: 9d6a 14be 8b0b 75be b66a 07bc 9ba0 44be
00000270: cc77 133e c987 003e 4dfc 743e a1ee 9dbe
00000280: d532 a1bc e894 903b 7116 433e 9188 3bbe
00000290: 15ff f6bd 0a49 20bd 9b42 a83d 6049 8e3e
000002a0: fff4 50bd 6dcf e1bd 14f6 4ebe 49e6 2c3e
000002b0: 0a01 903e 2c4b 463d faf1 973d d6b8 533e
000002c0: 4ccf b7be 45e3 b23d c9d3 48bc 6c4b d83c
000002d0: 48eb 5abe 5410 f3bc 05fc 62be 3902 5bbd
000002e0: 68dc 903c 6fc8 07bf c4a7 373e a9f3 b5bd
000002f0: 7386 3b3c 858e 8e3d eda9 3cbe 73c4 96be
00000300: 4e5b f63d 0861 dbbd eada 443e dd00 3bbe
00000310: 53e4 47bd c0ab 23be 0647 e03d a63b 023e
00000320: d3a3 b63d efd1 9fbd 21ed 143e 4835 773d
00000330: a223 2bbd 56e5 60bd d397 20bd 8a17 22be
00000340: 974c 8abd be84 93bd a79d 82be 1ff5 ef3d
00000350: df54 8ebd 7b37 403c bc4f bebd cfc6 943c
00000360: 8b19 c93d 0227 843e 4ecd 873c e397 023e
00000370: 0e6d 10be 29e6 263d ef14 59be defb 093e
00000380: 4d89 6ebe a772 b9bd 8cc9 a33d 5c0a 8b3d
00000390: 953e d33d 759b 3ebe b8df 8e3e 9c49 01be
000003a0: a152 22bd fae5 5bbc 7cd8 6fbd 58b7 093e
000003b0: 4089 5dbe 782f cb3c 936c 11be 7383 d83d
000003c0: 6e5f 103e 8e43 4ebe c3e1 483e d0cd 57be
000003d0: 3d99 ae3d 921c ad3d 748e ad3c 3681 26be
000003e0: fde6 c0bd cdfb d63d 0958 073d ca6d 3f3c
000003f0: 1a76 cfbd ce28 1e3d 6e3f d73d 9961 c73e
0.29355246 0.12592712 -0.03408918 -0.017071014 0.18120973 -0.18636052 0.32608718 0.007389533
0.59676594 -0.07633615 0.19426472 -0.020102246 0.23418494 -0.15448266 0.07970054 -0.19603834
-0.007743918 -0.14673772 -0.27833712 0.102205776 0.25182962 -0.10915772 0.26776913 -0.22900511
0.19131288 0.14128467 -0.10274597 0.11231569 -0.16951723 0.12688357 -0.19974782 0.25906464
-0.22809748 0.015406448 -0.17815694 0.14825623 0.0008174011 0.015788153 -0.22318116 -0.03963424
-0.1492826 0.15289871 0.16642548 -0.23955223 0.09320093 -0.24128105 -0.118572704 -0.07919785
0.05471375 -0.1107553 -0.102833055 0.034900885 -0.0628651 0.013878768 -0.20393403 0.025832854
0.015571887 0.23107904 -0.052980173 0.19619241 -0.1543466 0.06493362 0.06808362 0.17009361
0.0054055066 0.2144572 0.12806448 -0.084024906 0.33421245 0.12123115 0.10734679 -0.05200964
-0.06038493 0.25398186 -0.18229362 -0.009096555 0.17926644 0.31612015 -0.117216036 0.18496493
-0.010128029 -0.07955083 -0.02712012 -0.018959992 -0.008383756 -0.01969643 0.12754697 -0.18809319
-0.15149951 -0.08041368 0.0055178367 -0.15687424 -0.12984365 -0.23133162 0.26695365 -0.11480716
-0.1043824 -0.1265366 -0.5443616 0.020249302 -0.20883846 0.0482156 -0.10581791 0.16003525
-0.077383265 -0.052219823 0.09887992 -0.13123977 -0.021631898 -0.07287634 -0.118744396 -0.020261662
-0.2328908 -0.07794425 -0.30582672 0.23164761 -0.292734 -0.16154024 -0.06521922 0.3880272
-0.025543228 0.14603305 -0.22239271 -0.17153217 -0.08938298 -0.30341214 0.02651077 -0.22659533
-0.2525307 -0.046543382 -0.10088578 0.046470314 0.100610815 0.24018139 -0.1690468 0.0642455
0.3577184 0.07215007 -0.07827748 -0.009298679 -0.012257041 0.16472834 0.0039556073 0.21381922
-0.35604414 -0.08166204 0.3363082 -0.12618655 0.051159535 -0.05106293 0.091384366 0.34501743
-0.14493795 -0.23930185 -0.008265188 -0.19201891 0.14401168 0.12551798 0.2392437 -0.30846122
-0.019677559 0.0044122823 0.1905153 -0.18313815 -0.12060372 -0.039132155 0.08215829 0.27790356
-0.051014896 -0.110258915 -0.20211059 0.16884722 0.28125793 0.048411533 0.074192 0.20675978
-0.35900342 0.087347545 -0.012257525 0.026403151 -0.21378815 -0.029670872 -0.2216645 -0.053468917
0.017683223 -0.5304021 0.17935091 -0.08884365 0.011445629 0.06960777 -0.18424197 -0.29446754
0.12029134 -0.107118666 0.19224134 -0.18262048 -0.04880173 -0.15983486 0.10951047 0.12718067
0.08917966 -0.078037135 0.14543582 0.060353547 -0.04178203 -0.05490621 -0.03920729 -0.15829292
-0.067528896 -0.07203053 -0.25510904 0.11716675 -0.069497816 0.011731978 -0.09292552 0.018161206
0.09819325 0.2581101 0.01657739 0.12753253 -0.14104101 0.04074684 -0.21199392 0.13474986
-0.23294564 -0.09055071 0.079974264 0.06789085 0.10314671 -0.1861399 0.2790506 -0.12625736
-0.039629582 -0.01342153 -0.058556065 0.13448846 -0.21634388 0.024802908 -0.14201574 0.10571947
0.14098904 -0.20142958 0.19617371 -0.21074605 0.08525322 0.08452715 0.021186091 -0.16260228
-0.094190575 0.10497246 0.03304294 0.011683891 -0.10129948 0.038613133 0.10510145 0.3894165

linears.2.3.bias f4 [16]
00000000: f339 033e 045a 09be 252d b93d 0d92 eabd
00000010: e576 723c 7949 163d ebd0 ae3d 8574 af3b
00000020: 8fe8 cfbd b0cb bf3d 96d7 d4bd 5dd0 1d3e
00000030: 90c3 4bbd 9df6 b33e 21bd c1bb 5391 4b3e
0.12815075 -0.13413244 0.09041814 -0.11453638 0.0147988545 0.036691163 0.08535942 0.0053544664
-0.10151779 0.09365022 -0.10392682 0.15411516 -0.04974705 0.35149089 -0.0059124385 0.19879656

linears.3.0.weight f4 [64, 22]
00000000: 3a7a 523d ff01 ddbd a507 843e c2b3 1fbe
00000010: 6d93 a3bd 17b9 f0bb 4e8f 4fbd cf5b be3d
00000020: 9a49 73be 2aab 2dbe 1d0f 3cbe a789 b83e
00000030: 7562 3cbe 43ec 443c bb1e f63c 7b68 d23c
00000040: 3022 483e c279 c0bd c166 523e 97ae 773c
00000050: 3897 13be 28d5 773e 51c4 7b3e 99aa 093e
00000060: b53a d53e b930 eebe 2302 02be d1cc 23bb
00000070: ed1f 703e 2848 803d f30e 2bbe f4cf 9cbd
00000080: afdc 1abe d390 53bb 05ba b4bc 7661 493e
00000090: c4df b83e 74de efbd 7e75 923d c614 d43d
000000a0: 0ed6 73be f140 c6bd 9bdd 013e 1bc0 1ebe
000000b0: bf8a 89be 0f2d c3bc 28dd 84bc c6ac 7b3e
000000c0: 3729 f53d aa20 1d3d d413 f7bd be92 25bd
000000d0: 7905 3bbe 963c f6bd ba18 593e c367 15be
000000e0: 80d3 0b3e b4c1 7e3c af92 f63c 297f 763e
000000f0: ca0a b83d 576f 323e bc7a 763e b126 2d3c
00000100: aff7 fd3c 0522 2a3e be0d 2cbe e39d bebe
00000110: 060c 38bd 86ed 75be 9ff0 683e 9f54 de3b
00000120: 25a9 543e 27b2 28bd d8a5 713e 0e81 2c3e
00000130: 901f 3abe 63f2 a73d 308d fc3e db81 9c3d
00000140: 98b9 2d3c 099a 98be a205 28be 4c95 933b
00000150: f84e 913e 6398 87bc 3ebf 203c fb7c 923d
00000160: 410c fe3d 6736 fb3d 5092 46ba 665a 21be
00000170: b889 803b f670 273d ff39 803d 122d bbbc
00000180: b52b 793d 62c4 3fbe 8262 033e 0e8c 77be
00000190: 1348 a0bd bdce 6b3d 3027 903e a4b3 ad3d
000001a0: 39d7 0fbe 7c18 fb3d 692a 583d 9fb7 633e
000001b0: 2cb0 213d 053f f5bd 21a7 163e d167 183e
000001c0: 7bf6 183c 15a8 a2bd 18b4 4fbe 44b0 2cbe
000001d0: 04ba 363e bfb7 483e 83e2 143e b0a1 d93c
000001e0: 8191 543e d60c bcbe cf85 fbbc 3ac4 cf3d
000001f0: babe f3bd febb f73d a60f ab3c 4004 e23c
00000200: ea05 3dbe b2b2 193d d041 583e 8354 54bc
00000210: c42e 043e 2cab 90be 9531 00bf ae44 a9be
00000220: 8c35 4abc fdad 24bf efa4 5dbd a03b 5d3e
00000230: 325d 8e3d 58b0 423e c3dc 473e 67f0 633e
00000240: bfde c8ba 4a89 bdbd 5468 d3bc add5 f43b
00000250: e5d1 3dbe 76e1 5abe 331e c53d d849 903e
00000260: b444 25be d8a8 85bd c1be 4abe a4e2 513e
00000270: 02ff 4bbf 828e c5be 65ca 073e cb80 20bd
00000280: b86f 34be 70f8 34be d9b9 133c 1db2 20be
00000290: 3c6d 49be 8b07 81bc 8b1b 913e 76ac a6be
000002a0: 3b28 66be 641d d3bd a84c 1bbd e77b 1e3e
000002b0: 61a4 20bc f5cf d03c 995b 3c3e 8a04 20be
000002c0: 395f 823e f8df 083e 2fce 673b 9980 bfbe
000002d0: 4be6 b23e 40c5 a9bb 6a67 edbb ad86 1c3b
000002e0: 76d6 063e 24e4 1dbe 5043 01bd f0a5 353d
000002f0: a38e 8cbe 851e 9abc 970d 98be f863 94be
00000300: 295d 833d 7b95 3dbe d6e7 f33d 4651 2a3c
00000310: 95db 373d cf27 393e a5cf eabe 3e79 14bd
00000320: fe4c dcbe ebec 223f 651c 173e 01cf 873c
00000330: 6967 db3d afc2 653c 9b22 5c3e b09f f4bd
00000340: b475 32be f53a 81be e28a 21bd ab2f 103e
00000350: a6c2 2ebe e3f8 04be aa22 cbbd d4d8 8dbd
00000360: 38b9 d2bd 0693 97bc e523 263e 55ad d4bd
00000370: 1773 85bc 190a cabc 62ea e33a dfc3 91bc
00000380: d3de 2c3e de55 843f 85a6 51be d0cf 52be
00000390: e680 863c 2f5d 5abe 489b 8d3d 823e 1bbc
000003a0: 5ef2 e7bc 622b c83d ae72 20be fb4c b13c
000003b0: b4eb 07be aa36 023e 6f48 a33b 2a1c 4abe
000003c0: 8b7c a4ba 6b3d af3e 8da2 913d 3d78 65be
000003d0: fe90 67be 0ed1 0dbc d12a 16be 8f8d a3bb
000003e0: c8ed e33b 8604 bf3d 0baa bdbd 5190 29be
000003f0: 11ef 49be 3036 093d aa15 9ebd c95a d23c
0.051386096 -0.10791396 0.25787082 -0.15595916 -0.079871036 -0.007346283 -0.050673775 0.09294855
-0.23758546 -0.16959825 -0.1836514 0.3604252 -0.18396933 0.01201922 0.03004395 0.025684586
0.19544291 -0.093982235 0.2054701 0.015117309 -0.14413154 0.24202406 0.24586608 0.13443984
0.41646352 -0.46521547 -0.12696128 -0.0024993906 0.23449679 0.06263763 -0.16704921 -0.076568514
-0.15123247 -0.0032282367 -0.022061357 0.19666085 0.3610822 -0.117123514 0.07151316 0.10355525
-0.23812124 -0.09680355 0.12682192 -0.1550297 -0.26863667 -0.023825197 -0.016218737 0.24577627
0.11970752 0.03836123 -0.12064329 -0.040423147 -0.18263806 -0.120232746 0.21200839 -0.14590363
0.136549 0.015549112 0.030099241 0.24071945 0.08986433 0.17425285 0.24070257 0.010568307
0.031001894 0.1661454 -0.16802117 -0.37229833 -0.04493334 -0.24016389 0.2274804 0.00678499
0.20767649 -0.041185524 0.2359842 0.16846105 -0.18176103 0.082005285 0.49326468 0.076419555
0.010603331 -0.2980502 -0.16408399 0.0045038816 0.2838056 -0.016552156 0.009811221 0.071527444
0.12404681 0.12266236 -0.0007574903 -0.1575714 0.0039226674 0.040879212 0.06261062 -0.02284864
0.060832698 -0.18727258 0.12830546 -0.2417452 -0.07826247 0.057570208 0.28154898 0.08481529
-0.14046945 0.122605294 0.05277482 0.22238015 0.03947465 -0.11974911 0.14712192 0.14883353
0.009336109 -0.07942215 -0.20283544 -0.16864115 0.17844397 0.19601344 0.14539532 0.026566356
0.2075863 -0.36728543 -0.030703453 0.10144849 -0.119016126 0.120964035 0.020881485 0.027589917
-0.18459287 0.037523933 0.21118855 -0.012959602 0.12908465 -0.28255594 -0.50075656 -0.3306021
-0.012341868 -0.64327985 -0.05411237 0.21604776 0.06951369 0.19012582 0.19517808 0.22259675
-0.0015325173 -0.092547014 -0.025806583 0.007471761 -0.185371 -0.21375069 0.09624901 0.28181338
-0.1613949 -0.06526345 -0.1979933 0.20496613 -0.79685986 -0.38585287 0.13260801 -0.039185327
-0.17620742 -0.17672896 0.0090164775 -0.15692945 -0.19670576 -0.015750667 0.28341326 -0.32553452
-0.22476284 -0.1030834 -0.037914902 0.15476952 -0.009804816 0.025489787 0.18394317 -0.15626732
0.25463274 0.13366687 0.0035370698 -0.374028 0.34941325 -0.0051809847 -0.007244994 0.0023883984
0.13167748 -0.1541906 -0.031558335 0.044347703 -0.27452573 -0.018813381 -0.29697868 -0.2898252
0.06414253 -0.18514054 0.119094536 0.010395354 0.044887144 0.18081592 -0.45861545 -0.036248438
-0.4302749 0.6364276 0.14756925 0.0165782 0.10713083 0.014023467 0.21497576 -0.119445205
-0.17427713 -0.25240293 -0.03943909 0.14080684 -0.1706644 -0.12985568 -0.09918721 -0.06926122
-0.10289234 -0.018502723 0.1622463 -0.10384623 -0.01629023 -0.024663018 0.0017388577 -0.017793594
0.16881876 1.0338705 -0.20473678 -0.20587087 0.016418885 -0.21324609 0.06914383 -0.009475352
-0.028313812 0.097738996 -0.15668747 0.021643152 -0.13273507 0.12716165 0.004983 -0.19737306
-0.0012549324 0.34226546 0.07111082 -0.22409149 -0.22613904 -0.0086558 -0.1466477 -0.0049912403
0.006955836 0.09327035 -0.09260949 -0.16558959 -0.19720103 0.033498943 -0.07718976 0.025678055
