model/final_cleaned2_trained_after_argument_model.pth (torch, 78407 bytes, 24 tensors)

linears.0.0.weight f4 [64, 20]
0	0xbdbf53c8	-0.09342152
1	0x3dba5170	0.09097564
2	0x3e0e08e3	0.13870578
3	0x3ca29b75	0.019849518
4	0xbd125a9f	-0.035730954
5	0xbd94c6c7	-0.07264476
6	0xbcf1f7a6	-0.029537033
7	0xbe4e9491	-0.20173861
8	0xbccf6e87	-0.025321258
9	0x3dbf7bc3	0.093497775
10	0x3e53da9c	0.20688862
11	0x3e0db81a	0.1383976
12	0x3e75c862	0.24002221
13	0x3e57c84f	0.21072505
14	0xbd86c353	-0.06580224
15	0x3e29358d	0.16524334
16	0xbd5d6155	-0.0540479
17	0x3e30b987	0.17258273
18	0xbe03a338	-0.12855232
19	0x3e7814fc	0.24226755
20	0xbdecb48a	-0.115578726
21	0xbe271083	-0.16314892
22	0x3e152c7e	0.14567754
23	0xbc8b58d5	-0.017010132
24	0xbe3ef712	-0.18648937
25	0xbd9918be	-0.07475422
26	0xbe693ce4	-0.22777134
27	0x3e49981b	0.1968693
28	0xbe27ea47	-0.16397963
29	0x3c054f30	0.008136556
30	0xbe54eb50	-0.2079289
31	0x3e5f9abf	0.21836375
32	0xba7944cb	-0.0009508847
33	0x3c923ff2	0.017852757
34	0xbd8ede0a	-0.06975944
35	0x3e7db62a	0.24776521
36	0x3cd29f89	0.025710838
37	0x3dbeea1f	0.09321999
38	0xbd80fc27	-0.06298094
39	0x3dc9a9a1	0.09846807
40	0xbd818237	-0.06323665
41	0x3e006e50	0.12542081
42	0xbe2f54a8	-0.17122138
43	0x3cf017c1	0.029308202
44	0x3d896c0a	0.0671006
45	0x3d984666	0.074353024
46	0x3d8aa1dd	0.06769154
47	0xbe370d58	-0.17876184
48	0xbe406ea4	-0.18792206
49	0xbe2a212d	-0.16614218
50	0x3d6df8b5	0.058098514
51	0x3d31e49b	0.043430906
52	0xbe4996c4	-0.19686419
53	0xbcb06d73	-0.021536564
54	0xbe3a8d6a	-0.18218008
55	0x3e397b0a	0.18113342
56	0x3db5ad93	0.08870997
57	0x3e31bc85	0.1735707
58	0xbe06432a	-0.13111559
59	0x3e0638e4	0.1310764
60	0xbd680d9d	-0.056653608
61	0xbe1aa774	-0.15102941
62	0x3de8428c	0.11340818
63	0x3e1b6abf	0.15177439
64	0x3e04f423	0.12983756
65	0x3d32c515	0.043644983
66	0xbe57bad5	-0.21067365
67	0x3ddef085	0.10885719
68	0x3e07c6c4	0.13259417
69	0x3e2f18a0	0.17099237
70	0x3d23c56a	0.03998319
71	0x3e359ccf	0.17735599
72	0xbafb2626	-0.0019161149
73	0x3e3f238a	0.18665901
74	0xbc21860e	-0.009858621
75	0xbdf23a9f	-0.11827587
76	0x3c53be31	0.012923763
77	0x3e372379	0.17884625
78	0x3cae057d	0.021242851
79	0xbe37cc00	-0.17948914
80	0x3e02b199	0.1276306
81	0x3e0f349a	0.1398491
82	0x3d996f47	0.074919276
83	0xbd1bf4ea	-0.038075365
84	0xbd8c77bb	-0.06858774
85	0x3e326d46	0.17424497
86	0xbcf5cd8b	-0.030005237
87	0xbdea744e	-0.114479646
88	0xbe08ad5e	-0.13347384
89	0x3da71352	0.08157982
90	0xbde23460	-0.11045146
91	0x3ca99ad3	0.020703709
92	0x3e69c02e	0.22827217
93	0x3d77314f	0.06034976
94	0x3e4922ba	0.19642153
95	0x3dfe8d9b	0.12429353
96	0x3dc489b5	0.09596578
97	0xbe37fc33	-0.179673
98	0xbc8cabef	-0.017171828
99	0x3d97542d	0.07389102
100	0xbe5471d8	-0.20746553
101	0xbce043b2	-0.02737603
102	0x3c963889	0.018337505
103	0xbe3925a1	-0.1808076
104	0xbdf2d79d	-0.11857531
105	0xbda8c6a9	-0.082410164
106	0x3df1769f	0.11790203
107	0x3e51724d	0.20453759
108	0x3d975235	0.073887266
109	0xbca7ab4b	-0.020467421
110	0x3dd1226e	0.10211645
111	0x3c8b5c10	0.017011672
112	0xbd582858	-0.05277285
113	0x3e308c08	0.17240918
114	0x3e573c65	0.21019132
115	0xbde94f75	-0.11392108
116	0xbe339d63	-0.17540507
117	0xbda4077a	-0.080092385
118	0x3cf26ca6	0.029592823
119	0xbd3e6924	-0.04648699
120	0x3e026d07	0.12736903
121	0x3e2489f8	0.16068256
122	0x3e0efa08	0.13962567
123	0x3e4fb762	0.20284799
124	0x3e0c3132	0.13690642
125	0x3cd22fdb	0.025657585
126	0xbe192304	-0.14954764
127	0xbe4ec7d0	-0.2019341
128	0xbe0b58dd	-0.13608117
129	0xbe664641	-0.22487737
130	0xbcb46170	-0.022019118
131	0xbd3f45f5	-0.046697576
132	0xbdd1cfc5	-0.10244707
133	0xbe015def	-0.12633489
134	0xbe42d237	-0.19025503
135	0x3e18139f	0.14851235
136	0x3e681465	0.2266403
137	0xba7f78aa	-0.00097454584
138	0x3d65e89a	0.05613003
139	0x3e5becb4	0.21477014
140	0x3cfbc5da	0.030733991
141	0xbbc3ad25	-0.005971568
142	0x3d084835	0.033271987
143	0xbe5668e6	-0.20938453
144	0x3d2d3171	0.04228348
145	0x3bb4132c	0.0054954495
146	0x3e29fc49	0.16600145
147	0x3e35b6b3	0.17745475
148	0x3e31733c	0.17329115
149	0x3e30e5cf	0.17275165
150	0xbd1adf91	-0.037810866
151	0xbd8ce07c	-0.068787545
152	0x3d541434	0.05177708
153	0xbe0c4804	-0.13699347
154	0x3e108243	0.14112191
155	0x3d67493e	0.056466334
156	0xbe0c8961	-0.13724281
157	0xbdd42692	-0.10358919
158	0xbd8d0d88	-0.068873465
159	0xbe29a94e	-0.16568491
160	0x3e26c6a4	0.16286713
161	0x3bde5aa2	0.0067857066
162	0x3dc8ec29	0.09810669
163	0xbda5dd19	-0.08098812
164	0x3e0a7558	0.13521326
165	0x3e56c47a	0.20973387
166	0xbe3aa448	-0.18226731
167	0x3dad2f9d	0.08456347
168	0xbcaba4e0	-0.020952642
169	0xbbf5fd9f	-0.0075070406
170	0x3d2e8ab2	0.04261274
171	0xbe33a6c4	-0.17544085
172	0x3e4050fc	0.18780893
173	0xbe3d9812	-0.18515041
174	0xbe290d6a	-0.16509023
175	0xbe6c6c2e	-0.23088142
176	0xbdd50c8b	-0.10402783
177	0xbdf9c56b	-0.121958576
178	0xbd16b66b	-0.03679506
179	0xbde1531e	-0.110021815
180	0xbda076a0	-0.07835126
181	0xbdc354b7	-0.095376424
182	0xbd802b9a	-0.06258316
183	0xbc914890	-0.017734796
184	0xbddf9b71	-0.1091832
185	0xbbff8c24	-0.0077986885
186	0xbd3d1184	-0.046159282
187	0xbb925784	-0.004465999
188	0xbdb87d51	-0.09008277
189	0x3e1f75ac	0.15572232
190	0xbdf616e2	-0.12016083
191	0x3e5e4f47	0.2170993
192	0xbd99fcb6	-0.07518904
193	0x3dae8e77	0.08523267
194	0xbddbcab4	-0.10732022
195	0x3e5e2e43	0.21697335
196	0xbd7cc93b	-0.061715346
197	0x3d73c762	0.05951632
198	0x3ccdc2e7	0.02511735
199	0x3d132d5f	0.03593194
200	0xbe3b3e3b	-0.18285458
201	0xb94be2d8	-0.00019444095
202	0xbe20ed11	-0.15715434
203	0xbe100152	-0.14063004
204	0xbd16889d	-0.03675138
205	0x3daab824	0.08335903
206	0xbe448409	-0.19190992
207	0xbbec0310	-0.0072025135
208	0xbe27b0c9	-0.16376032
209	0xbd1a19ac	-0.03762214
210	0x3e596a43	0.21231942
211	0x3c631e8c	0.013862263
212	0xbc4ca42c	-0.0124903135
213	0x3e08514d	0.13312264
214	0xbe212657	-0.15737282
215	0xbd94c29c	-0.07263681
216	0xbd18590a	-0.03719429
217	0x3deadf15	0.11468331
218	0x3d93f59a	0.07224579
219	0x3e0a594b	0.13510625
220	0xbd06bbef	-0.03289407
221	0xbd2b6e58	-0.04185328
222	0xbe361034	-0.17779619
223	0xbe423e4b	-0.18969075
224	0x3e3c409a	0.18384019
225	0x3a92182e	0.0011146122
226	0x3e00487e	0.12527654
227	0x3e08f2ea	0.13373914
228	0xbe440939	-0.19144143
229	0x3e170840	0.14749241
230	0xbac6b38d	-0.0015159711
231	0xbdf759f5	-0.12077705
232	0xbe7cf541	-0.24702932
233	0xbe3637a9	-0.1779467
234	0x3e49189f	0.19638298
235	0xbd803e94	-0.06261936
236	0x3d02a64d	0.031896878
237	0x3e14aacc	0.14518279
238	0xbdd0c626	-0.10194044
239	0xbe48ec12	-0.19621304
240	0x3dd436d7	0.10362022
241	0x3e853ab1	0.2602134
242	0xbdd1318f	-0.10214531
243	0xbe2626be	-0.16225716
244	0x3e72de68	0.23717654
245	0xbe58c7fe	-0.21170041
246	0xbdaa5ab7	-0.08318084
247	0xbddc011a	-0.107423976
248	0x3db1a9e0	0.08674979
249	0x3e03617d	0.12830158
250	0xbdb6e644	-0.089306384
251	0x3e06fa5d	0.13181444
252	0x3cc3da41	0.023907783
253	0x3d9c6ddf	0.07638144
254	0xbe575b68	-0.21030962
255	0xbe21d88a	-0.1580526

linears.0.0.bias f4 [64]
0	0x3d62edac	0.055402443
1	0xbd76bbe7	-0.06023779
2	0xbdbea597	-0.093089275
3	0x3c0f69e0	0.00875327
4	0xbca7896f	-0.020451276
5	0xbe4b1617	-0.19832645
6	0x3c5a9361	0.013340802
7	0xbe14863c	-0.14504331
8	0xbdd2c29b	-0.10291024
9	0xbe1edcb5	-0.1551388
10	0x3a8e10d3	0.0010838754
11	0xbd8da4d9	-0.06916208
12	0xbe538809	-0.20657362
13	0xbd822d96	-0.06356351
14	0x3ddeb65c	0.10874626
15	0x3e225fd7	0.15856872
16	0xbddd2f39	-0.10800023
17	0x3e53ecd1	0.20695807
18	0x3cd49f5a	0.025954891
19	0x3ddc52b6	0.10757963
20	0xbcacd491	-0.021097453
21	0xbe116706	-0.14199457
22	0xbddf6d35	-0.109095015
23	0xbdc6d253	-0.09708085
24	0xbe20bb65	-0.15696485
25	0xbc3ce131	-0.011528299
26	0xbc76ec4e	-0.015070988
27	0x3e8058db	0.2506779
28	0xbdb36d7e	-0.08761118
29	0xbdc99bf7	-0.09844201
30	0x3e362f4a	0.17791477
31	0x3e5ad91b	0.21371882
32	0xbe36dc46	-0.17857465
33	0xbd86fa71	-0.06590737
34	0x3e63d02b	0.22247379
35	0x3e3777e4	0.17916828
36	0x3e21d874	0.15805227
37	0xbe4b08ee	-0.19827625
38	0x3d877366	0.066138074
39	0xbcd731fc	-0.026268952
40	0xbd864764	-0.065565854
41	0x3dd3e2b9	0.10345978
42	0xbc1c4324	-0.009537492
43	0xbd151e3c	-0.036405787
44	0x3e6d1682	0.23153117
45	0xbe3fcb3d	-0.18729873
46	0x3cfd0b62	0.030889217
47	0x3de79ddb	0.113094054
48	0xbdd572d2	-0.10422291
49	0xbe229d3b	-0.15880291
50	0xbdb3962d	-0.08768878
51	0x3cfeb8a7	0.031093908
52	0x3e384fad	0.17999144
53	0x3df450f4	0.11929503
54	0x3e53faf8	0.20701206
55	0x3e35c019	0.1774906
56	0xbe10d3ce	-0.14143297
57	0x3e4c1ef3	0.19933681
58	0x3e23e909	0.16006865
59	0x3e3c9cf1	0.18419243
60	0x3de04342	0.109503284
61	0xbe569277	-0.2095431
62	0xbd9ff07f	-0.07809543
63	0xbd5312b7	-0.05153152

linears.0.3.weight f4 [16, 64]
0	0x3c224e5f	0.00990638
1	0xbcfd46ee	-0.030917611
2	0xbe0311ec	-0.12799805
3	0xbc2f403c	-0.010696467
4	0x3cb445a3	0.022005862
5	0x3dff6355	0.12470118
6	0xbdd08f1b	-0.10183545
7	0x3dd3e8ce	0.10347138
8	0xbdd817e9	-0.105514355
9	0xbe01158a	-0.12605873
10	0x3cff35b7	0.031153543
11	0x3d6c5907	0.05770209
12	0xbd936b1f	-0.07198166
13	0x3dc6df94	0.09710613
14	0x3d484f5b	0.048903804
15	0x3dd8ab96	0.105796024
16	0x3de72be6	0.1128767
17	0x3d02b83b	0.031913977
18	0xbdf8f6bd	-0.121564366
19	0xbc7f1e99	-0.01557126
20	0x3c778df7	0.015109531
21	0xbe0cb9fa	-0.1374282
22	0xbe09294a	-0.13394657
23	0xbe2a9af3	-0.16660671
24	0xbc78c9b9	-0.015184813
25	0xbdca99a3	-0.09892585
26	0xbd1851e8	-0.037187487
27	0xbe031d59	-0.12804164
28	0x3df07801	0.11741639
29	0x3c06eb90	0.008234873
30	0xbd6d960d	-0.058004428
31	0xbe682434	-0.2267006
32	0x3dad7992	0.08470453
33	0xbe07fd14	-0.13280135
34	0xbe24a018	-0.16076696
35	0xbe1ef3e0	-0.15522718
36	0xbc979701	-0.018504621
37	0xbe015629	-0.12630524
38	0x3dea348a	0.11435802
39	0xbd1dae0b	-0.03849606
40	0x3c5ff44a	0.013669083
41	0xbcdde1b0	-0.027085155
42	0xbd25a9ec	-0.040445253
43	0xbc771c61	-0.01508245
44	0x3dec67be	0.11543225
45	0xbcb502ff	-0.022096155
46	0xbdedefc0	-0.11617994
47	0x3d234c57	0.039867725
48	0x3c781791	0.015142337
49	0xbcea4078	-0.028595194
50	0x3db04a7e	0.08607958
51	0xbd0cb658	-0.034353584
52	0x3d21c499	0.03949413
53	0x3cbc5cbf	0.022993444
54	0x3d8e0297	0.06934088
55	0x3d4cd124	0.05000414
56	0x3d926865	0.07148818
57	0xbe0c5cf5	-0.13707335
58	0xbde2bd68	-0.110712826
59	0xbe15d9e2	-0.14633897
60	0xbe21c48a	-0.1579763
61	0xbd1433e5	-0.036182303
62	0x3d2977ca	0.041374005
63	0xbb3171e7	-0.0027075948
64	0xbdbf066e	-0.09327398
65	0xbd7b7e10	-0.06139952
66	0xbdd28d33	-0.10280838
67	0x3e041527	0.12898694
68	0xbda662b1	-0.08124293
69	0x3c51c33e	0.012802897
70	0xbcc86e78	-0.024466738
71	0xbd8af106	-0.06784253
72	0x3dbfd19c	0.09366152
73	0xbcd64448	-0.026155606
74	0x3c91624a	0.017747063
75	0x3e1cc627	0.15309964
76	0x3e1b0ef6	0.15142426
77	0xbd3469c0	-0.044046164
78	0x3e157e22	0.14598897
79	0xbd2bd6bb	-0.04195283
80	0x3da9341b	0.082618915
81	0xbcf40969	-0.029789643
82	0x3c55cb36	0.013048938
83	0x3cf0581e	0.029338893
84	0x3e31da80	0.17368507
85	0x3d37ab26	0.044840954
86	0xbd8988ae	-0.06715523
87	0x3c6a1b6f	0.014288767
88	0xbd3d558f	-0.046224173
89	0x3e41f0a3	0.18939452
90	0x3e223de9	0.1584393
91	0x3d847e2b	0.06469377
92	0xbd6c7772	-0.0577311
93	0x3e333a4a	0.17502704
94	0x3e11540d	0.14192219
95	0x3e905f99	0.28197935
96	0x3d1b76d3	0.037955116
97	0x3b364b67	0.002781594
98	0x3e10c052	0.14135864
99	0x3a25c91f	0.000632422
100	0xbc816c66	-0.015798759
101	0x3cb272ba	0.021783222
102	0x3d22c74f	0.039740857
103	0x3e0d02ad	0.13770552
104	0x3e087f00	0.13329697
105	0x3d9f861e	0.07789253
106	0x3c852364	0.016252227
107	0x3e4193c7	0.18904029
108	0xbe490b81	-0.19633295
109	0x3de99c59	0.11406774
110	0x3c6ccbf1	0.01445292
111	0x3dc659e9	0.09685118
112	0x3c7cd1f4	0.015430916
113	0xbda00cb5	-0.07814924
114	0xbcbffaad	-0.023434961
115	0xbcf8f7c6	-0.030391585
116	0x3de82863	0.11335828
117	0x3d5ab8a1	0.053398732
118	0x3dbea076	0.09307949
119	0x3e030c26	0.12797603
120	0x3db1d6ed	0.08683572
121	0x3e065867	0.1311966
122	0xbd3a287a	-0.045448758
123	0x3cfa7771	0.030574532
124	0x3e01e8eb	0.12686507
125	0xbd21ff47	-0.039550092
126	0x3da2a922	0.07942416
127	0xbcd7378b	-0.026271602
128	0x3dbc2200	0.091861725
129	0xbdf9ff9f	-0.12206959
130	0xbde4fa57	-0.11180561
131	0x3d1aae64	0.037763968
132	0x3de8559a	0.11344452
133	0xbda20df9	-0.07912821
134	0xbd208b4a	-0.039195336
135	0xbd97a46f	-0.0740441
136	0x3ca04276	0.019562941
137	0x3d0023e4	0.031284228
138	0x3de1526d	0.110020496
139	0xbd0bb7c6	-0.034110807
140	0xbcd35d1c	-0.025801234
141	0x3b2a4a7d	0.002598434
142	0x3dcc2980	0.09968853
143	0x3d830afe	0.06398581
144	0xbcd60aa1	-0.026128115
145	0xbc61073d	-0.013734636
146	0xbdfc9669	-0.12333376
147	0x3c04660a	0.008080969
148	0x3ca2d943	0.01987899
149	0x3dd2b510	0.10288441
150	0xbdea0cc6	-0.114282176
151	0xbd064bc4	-0.0327871
152	0x3cce1acd	0.025159264
153	0x3e0bb520	0.13643312
154	0xbdc50b8e	-0.096213445
155	0xbdb317cf	-0.087447755
156	0xbabb7449	-0.0014301623
157	0x3dac0a42	0.08400394
158	0xbc4faafb	-0.012675042
159	0x3dd6cde4	0.10488489
160	0x3d4c112f	0.049821075
161	0x3dae5830	0.08512914
162	0x3d9b4378	0.07581228
163	0x3d827c3a	0.063713506
164	0xbd66d150	-0.05635196
165	0xbd038f26	-0.03211894
166	0xbd60556c	-0.054768965
167	0x3dffd3e2	0.12491585
168	0x3da2f5b8	0.079570234
169	0x3da61928	0.08110267
170	0xbd272b45	-0.04081275
171	0xbd1f4b72	-0.03889031
172	0x3c007c55	0.007842143
173	0xbdb3d90d	-0.087816335
174	0x3d2736a9	0.040823612
175	0x3df27faf	0.1184076
176	0x3da468dd	0.080278136
177	0xbdc923e0	-0.09821296
178	0x3cb33f9e	0.021880921
179	0xbd92938a	-0.07157047
180	0xbd95e239	-0.07318539
181	0x3d3bf513	0.045888018
182	0x3e187f3c	0.14892286
183	0x3d82a067	0.063782506
184	0xbde1e30b	-0.11029633
185	0xbd5bed2d	-0.053692985
186	0x3dbbac85	0.09163765
187	0x3e0c730e	0.13715765
188	0x3d3c88fc	0.046029076
189	0xbdca67e6	-0.09883098
190	0xbd5f52fe	-0.054522507
191	0x3d371d58	0.04470572
192	0x3dcc54e6	0.099771306
193	0xbc5bec1f	-0.013422995
194	0xbb1379da	-0.002250305
195	0x3d3838ac	0.04497592
196	0x3d4925f6	0.049108468
197	0x3c93aa26	0.018025469
198	0xbcd0e431	-0.025499435
199	0xbd26b897	-0.040703382
200	0x3db5bf9c	0.08874437
201	0x3dadc666	0.08485107
202	0xbd48264d	-0.04886465
203	0xbd7ef40c	-0.06224446
204	0x3d29ccb3	0.041454982
205	0xbd0ad4e3	-0.03389443
206	0xbcb1fb19	-0.021726178
207	0xbd55f0da	-0.052231647
208	0x3c304679	0.0107589895
209	0x3cd8bf1a	0.026458312
210	0xbe0782cc	-0.13233489
211	0xbd46dc67	-0.048550036
212	0xbca4bff6	-0.020111065
213	0xbbe38c5b	-0.006944222
214	0xbdf12678	-0.117749155
215	0xbd6122ed	-0.05496495
216	0xbd09515a	-0.03352485
217	0xbe02ccd7	-0.12773453
218	0xbde7bb0a	-0.11314972
219	0x3cec5a88	0.028851762
220	0x3de0a8b5	0.10969678
221	0x3d7a865d	0.061163295
222	0xbd63fd1e	-0.055661313
223	0xbd0ac79d	-0.033881772
224	0xbd89a1be	-0.06720303
225	0xbdd34031	-0.10314978
226	0xbdaeea0a	-0.08540733
227	0xbd8407c9	-0.064467974
228	0x3d3547df	0.044257995
229	0xbcee3de7	-0.029082252
230	0xbc9706cb	-0.018435856
231	0x3bb8d9ad	0.0056411834
232	0xbcad301c	-0.021141104
233	0x3c2e70fd	0.010647056
234	0x3df927fd	0.1216583
235	0xbcba8c1b	-0.022771886
236	0x3da386b2	0.079846755
237	0xbb1a4466	-0.0023539304
238	0xbd57d437	-0.05269262
239	0xbdc4cc9b	-0.09609338
240	0x3df909f7	0.12160104
241	0xbe00900b	-0.12554948
242	0xbdc7f9d4	-0.09764448
243	0x3c1e2207	0.009651667
244	0x3c8d617c	0.017258398
245	0x3e114d8e	0.14189741
246	0x3db822af	0.0899099
247	0xbba647e2	-0.005074487
248	0xbdfcb115	-0.12338463
249	0xbd3946d0	-0.045233548
250	0x3dbf9ce1	0.09356094
251	0xbb15a00b	-0.0022830989
252	0xbd941741	-0.07230998
253	0xbd1b2a9e	-0.03788244
254	0x3c814454	0.015779652
255	0x3dbd5cd9	0.09246225

linears.0.3.bias f4 [16]
0	0xbd95c975	-0.073138155
1	0x3e5863ce	0.21131822
2	0x3ddb5b31	0.10710753
3	0x3da6e776	0.081496164
4	0xbda2ee80	-0.079556465
5	0xbd94a0e3	-0.07257249
6	0xbd2e9d93	-0.042630743
7	0x3db2e087	0.087342314
8	0x3d00b2d8	0.03142056
9	0x3db0499d	0.086077906
10	0xbe434083	-0.19067578
11	0x3c02129d	0.007939008
12	0x3c5704f6	0.013123741
13	0xbdb91788	-0.09037691
14	0x3ccdf3c5	0.025140652
15	0xbe1d83e6	-0.15382347

linears.1.0.weight f4 [64, 20]
0	0xbe4dfc77	-0.20115839
1	0x3d9a0bea	0.07521804
2	0x3ea1e38f	0.31618926
3	0x3dcfc4f7	0.1014499
4	0xbd9dfdf0	-0.0771445
5	0xbdc0088d	-0.09376631
6	0x3def2d26	0.11678533
7	0x3e1f6fcd	0.15569992
8	0xbddae25f	-0.10687708
9	0x3e68d45f	0.22737263
10	0x3e237cd7	0.15965591
11	0x3dc97708	0.098371565
12	0x3dfe4990	0.12416375
13	0xbd0a51e2	-0.033769496
14	0xbe5474b9	-0.20747651
15	0xbe46bb84	-0.19407469
16	0xbd48336e	-0.048877172
17	0x3e429c22	0.19004872
18	0xbe14c7ae	-0.14529297
19	0x3d69cd06	0.05708029
20	0x3ea988cc	0.3311218
21	0x3e8f8c2a	0.28036624
22	0xbd67a986	-0.056558155
23	0x3e7a1c69	0.244249
24	0x3e290485	0.1650563
25	0xbe2411ad	-0.16022368
26	0xbb44fe0d	-0.0030058653
27	0xbe4b9c94	-0.19883949
28	0xbc54abdc	-0.012980428
29	0xbe728c0c	-0.23686236
30	0xbe3e5279	-0.18586148
31	0x3ec71a86	0.38887423
32	0x3eacdc9f	0.3376207
33	0x3e029c22	0.12754872
34	0x3e26c62b	0.16286533
35	0xbd7e1c5d	-0.062038768
36	0xbe117b41	-0.14207174
37	0xbe07085e	-0.13186786
38	0x3ccb80cc	0.024841689
39	0xbe0b1156	-0.13580832
40	0xbe2fa3e4	-0.17152363
41	0x3d4e8117	0.05041608
42	0x3d84e03f	0.06488084
43	0x3d161ebb	0.0366504
44	0x3dd81bf1	0.105522044
45	0x3e4609f8	0.1933974
46	0x3e3ec963	0.1863151
47	0xbe057297	-0.13031994
48	0x3e0b0aae	0.13578293
49	0x3d77da73	0.060511064
50	0x3e08205f	0.13293599
51	0x3dd9f079	0.1064157
52	0xbe552f67	-0.20818864
53	0x3e4b915d	0.1987967
54	0xbe519aab	-0.20469157
55	0xbd4dfa56	-0.050287567
56	0x3dff8890	0.12477219
57	0xbe5e1041	-0.21685888
58	0x3dd10653	0.102062844
59	0x3b4c3b57	0.00311633
60	0xbe8ad063	-0.2711211
61	0xbd950fcb	-0.07278403
62	0x3e4801fa	0.19532004
63	0x3e07e59c	0.13271183
64	0x3e4a323d	0.19745727
65	0xbe7a3d66	-0.24437484
66	0x3dcbf3af	0.09958588
67	0x3e165b9d	0.14683385
68	0x3b3187a4	0.0027088905
69	0x3d957e11	0.07299436
70	0x3caf890c	0.021427654
71	0xbe2e1a9b	-0.17002337
72	0x3e4a3202	0.19745639
73	0xbe3b6d8c	-0.18303508
74	0x3e11fffa	0.14257804
75	0xbe583716	-0.21114764
76	0xbe2eaafc	-0.17057413
77	0x3de1616d	0.110049106
78	0xbb8f2aa1	-0.0043690954
79	0xbb26ff33	-0.00254817
80	0x3e34787e	0.17624089
81	0xbe6878b7	-0.22702299
82	0x3ac25b62	0.001482826
83	0xbd812e02	-0.063076034
84	0x3e03d461	0.12873985
85	0xbc7d2fd4	-0.015453298
86	0xbe1b13ce	-0.15144274
87	0x3e217d81	0.15770532
88	0x3df57ec9	0.11987073
89	0x3d452a02	0.048135765
90	0x3e2946c4	0.16530901
91	0xbcc0be1e	-0.023528155
92	0x3e11bb36	0.14231572
93	0x3e3ab578	0.18233287
94	0x3dfcec48	0.123497546
95	0x3e53c14b	0.20679204
96	0xbe4fee55	-0.2030576
97	0xbe54d8cb	-0.20785825
98	0x3de33ae5	0.110952176
99	0x3e26fddf	0.16307782
100	0x3e4bdd20	0.19908571
101	0xbd1444ba	-0.036198355
102	0x3e471bc7	0.1944419
103	0xbdaff7b3	-0.08592167
104	0xbd0eba40	-0.03484559
105	0x3ae3abff	0.0017369984
106	0xbd401e23	-0.04690374
107	0x3e6ccb5f	0.23124455
108	0x3e3ae050	0.18249631
109	0x3db7c436	0.08972971
110	0x3e2ee653	0.17080049
111	0xbdbc895a	-0.09205885
112	0x3c4f4391	0.012650386
113	0x3d3f02e1	0.046633605
114	0xbddc9701	-0.10770989
115	0xbe08d7de	-0.13363597
116	0xbe405576	-0.18782601
117	0xbe62f852	-0.22165039
118	0xbcbd86c7	-0.023135556
119	0xbe2892e7	-0.16462289
120	0x3e04ad61	0.12956764
121	0x3e7de340	0.2479372
122	0xbe295db2	-0.16539648
123	0x3e848ff0	0.25891066
124	0x3de27fda	0.11059542
125	0x3b19ad27	0.0023449154
126	0xbd9e81f6	-0.07739632
127	0x3c076a18	0.008265041
128	0x3dd360ce	0.103211984
129	0x3e36d57b	0.17854874
130	0xbd361bae	-0.04445999
131	0xbddcaf25	-0.10775594
132	0xbdffd540	-0.12491846
133	0xbd68c591	-0.05682904
134	0x3e429a40	0.19004154
135	0x3dce8484	0.10083869
136	0xbe2e22db	-0.17005484
137	0x3dfa99ec	0.122363895
138	0xbe09bc3c	-0.13450712
139	0xbd659148	-0.056046754
140	0xbe5ad77d	-0.21371265
141	0x3db9a3c3	0.09064438
142	0xbe411ea3	-0.18859343
143	0xbe6bc218	-0.2302326
144	0x3e681b2b	0.22666614
145	0x3a89dd9c	0.0010518315
146	0x3e0c35f2	0.13692454
147	0x3e391a97	0.1807655
148	0x3e479e2c	0.19493932
149	0x3dd4bcaf	0.10387551
150	0xbd2e81c5	-0.042604227
151	0x3cffccac	0.031225525
152	0x3e9e3343	0.30898485
153	0xbc8f30ae	-0.017479267
154	0x3b2a44ea	0.0025981017
155	0xbe1fe86f	-0.1561601
156	0x3e1fae53	0.15593843
157	0xbe1e5f22	-0.15465978
158	0xbe5b700c	-0.21429461
159	0xbe08ae26	-0.13347682
160	0x3e30520a	0.17218795
161	0x3e0d171f	0.13778351
162	0xbe46742e	-0.19380257
163	0x3e446e21	0.19182636
164	0x3d38eb46	0.04514625
165	0x3c80ea8a	0.015736837
166	0xbe573615	-0.21016724
167	0xbe24346c	-0.16035622
168	0xbe2a45d6	-0.16628203
169	0x3db91c05	0.090385474
170	0x3e156555	0.14589436
171	0xbd956f65	-0.072966374
172	0xbe049943	-0.1294909
173	0xbd01c80a	-0.031684913
174	0xbe58d579	-0.21175183
175	0x3dc8b8cc	0.09800872
176	0x3cb7fd7d	0.02245974
177	0xbe476cc0	-0.19475079
178	0x3d7fc0d3	0.06243975
179	0x3e0984db	0.13429587
180	0xbdcd5737	-0.100264005
181	0x3e8b70a4	0.27234375
182	0xbe9f51bb	-0.31117043
183	0xbe3d6b6c	-0.1849801
184	0x3db47fe3	0.08813455
185	0x3a8ad7d0	0.0010592882
186	0xbe2972f4	-0.16547757
187	0xbddc1d32	-0.10747756
188	0xbe727c8c	-0.23680323
189	0xbd9fbea1	-0.078000315
190	0xbd54ad41	-0.05192304
191	0x3cd79e27	0.02632053
192	0x3e020d99	0.127005
193	0x3e2a7707	0.16646968
194	0xbda612e3	-0.08109071
195	0xbe7069de	-0.23477885
196	0x3d5ca98f	0.05387264
197	0xbe3266db	-0.17422049
198	0x3e4f0e0a	0.20220199
199	0xbc99f75a	-0.018794704
200	0xbdf4b48d	-0.119485
201	0x3ccfefc2	0.02538288
202	0xbde868e4	-0.11348131
203	0x3dc3f1f8	0.09567636
204	0xbe044465	-0.12916715
205	0x3e7780de	0.24170253
206	0x3e29b2be	0.16572091
207	0x3e1298b9	0.14316072
208	0xbd8e491d	-0.06947539
209	0x3df78df7	0.120876245
210	0xbdcdf38e	-0.1005622
211	0xbde6f714	-0.11277595
212	0xbe25d5fb	-0.16194908
213	0xbd1aa8ba	-0.037758566
214	0xbe1b4750	-0.15163922
215	0xbda8f9b8	-0.08250755
216	0xbe7ea2a3	-0.24866728
217	0xbbb5590c	-0.005534297
218	0x3c58bc5d	0.013228503
219	0xbe2937de	-0.16525218
220	0xbe54b746	-0.20773038
221	0x3e47b0be	0.19501016
222	0xbd208b94	-0.039195612
223	0xbdea0d41	-0.11428309
224	0x3e51f718	0.20504415
225	0x3c33f2ed	0.010983211
226	0xbd992b51	-0.07478965
227	0xbd1d5512	-0.038411207
228	0x3c661134	0.0140421875
229	0xbd9e4ef6	-0.07729904
230	0xbd8e17e2	-0.06938149
231	0x3da8f7ce	0.0825039
232	0x3b8546a6	0.00406726
233	0xbd266fb2	-0.040633865
234	0xbd3eac4a	-0.046551026
235	0x3e3e690c	0.1859476
236	0x3e42fa2a	0.19040743
237	0x3daa06a8	0.08302051
238	0x3e1c9667	0.15291749
239	0xbd52fef6	-0.05151268
240	0x3d86e68c	0.06586942
241	0xbe9f6f0b	-0.31139407
242	0x3d93ea3e	0.072224125
243	0x3e556101	0.20837785
244	0x3e021702	0.1270409
245	0xbdb251f0	-0.087070346
246	0x3d8ce156	0.06878917
247	0x3d1c39a2	0.0381409
248	0xbdcc2946	-0.0996881
249	0x3e50e32b	0.20399158
250	0xbe24cb8a	-0.16093269
251	0x3e2f4d4b	0.17119329
252	0xbe376deb	-0.17913024
253	0xbd07b066	-0.03312721
254	0xbd1757a6	-0.036948822
255	0x3e4ed4e4	0.20198399

linears.1.0.bias f4 [64]
0	0x3db5fcce	0.08886109
1	0xbe4a7b05	-0.1977349
2	0xbcbb9f37	-0.022903068
3	0xbe17f70d	-0.14840336
4	0xbdaf9a49	-0.085743494
5	0xbc18a699	-0.009317064
6	0xbe7aa720	-0.24477816
7	0xbd71a05a	-0.058990814
8	0x3d30d0e9	0.043167982
9	0xbe0a9981	-0.1353512
10	0x3dc12596	0.09430997
11	0xbe137067	-0.14398347
12	0xbe09fc7c	-0.13475221
13	0x3d0b9633	0.034078788
14	0x3da65d1c	0.08123228
15	0x3e1892dd	0.14899774
16	0xbd9f8e65	-0.077908315
17	0x3e5feafb	0.21866982
18	0xbe369e4e	-0.17833826
19	0x3d86ccf2	0.06582059
20	0x3dd467f2	0.103713885
21	0x3c9094ca	0.017649073
22	0x3e1fb92f	0.15597986
23	0x3d0965a7	0.03354421
24	0x3e97a400	0.2961731
25	0x3e6a4aa4	0.22880036
26	0xbd218ab8	-0.039438933
27	0x3dbd6518	0.09247798
28	0x3daabf44	0.08337262
29	0xbd148ec9	-0.036268983
30	0xbe4b2310	-0.19837594
31	0xbe4f82d5	-0.20264752
32	0x3da86b07	0.08223539
33	0xbe00611a	-0.12537041
34	0x3e53dfbc	0.20690817
35	0xbd189ef2	-0.037260957
36	0x3e48f901	0.19626237
37	0x3e98ac01	0.2981873
38	0x3e88e1ab	0.2673467
39	0xbe139442	-0.14412025
40	0x3e7dba78	0.24778163
41	0xbe1b5c88	-0.15172017
42	0xbe73933c	-0.23786634
43	0x3e39f37a	0.18159285
44	0xbe12fdef	-0.1435468
45	0x3df7686d	0.120804645
46	0xbe29c1bb	-0.16577809
47	0xbdb864ee	-0.09003626
48	0x3ebf8c75	0.37411848
49	0x3d9ae4dd	0.075631835
50	0x3e23c56b	0.15993278
51	0x3e9ddd73	0.30833015
52	0x3d61de0a	0.055143394
53	0xbe373cac	-0.17894238
54	0xbe485597	-0.195639
55	0xbdd70b85	-0.10500244
56	0xbd0e529c	-0.03474675
57	0x3e1a4c07	0.15068065
58	0xbd5b1fd6	-0.053497158
59	0x3c050104	0.008117918
60	0x3da3d170	0.079989314
61	0xbe384b74	-0.17997533
62	0xbe57d7ee	-0.21078464
63	0x3e4507d6	0.1924127

linears.1.3.weight f4 [16, 64]
0	0x3af74f3c	0.0018868218
1	0xbd58e720	-0.052954793
2	0xbd921e3d	-0.07134674
3	0xbdce6e83	-0.10079672
4	0xbe260c86	-0.16215715
5	0x3d1b6cbe	0.0379455
6	0x3cc63c18	0.024198577
7	0x3e17b6ba	0.14815798
8	0x3dd0d433	0.10196724
9	0xbd5f48c8	-0.05451277
10	0x3d720d99	0.059095
11	0xbe191094	-0.1494773
12	0xbdc3104a	-0.09524591
13	0xbbfd7b2c	-0.0077356305
14	0xbe0fbc88	-0.14036763
15	0x3e0400d7	0.12890945
16	0xbd1b3d4d	-0.037900258
17	0xbdbd67f8	-0.09248346
18	0x3cf08858	0.029361889
19	0xbdc56230	-0.096378684
20	0xbde99eee	-0.114072666
21	0xbd3a4994	-0.045480326
22	0x3cd23519	0.025660085
23	0xbdd2eda7	-0.10299235
24	0xbd32bbf7	-0.04363629
25	0x3da2e9f6	0.07954781
26	0xbdb235ee	-0.087016925
27	0x3e005d42	0.12535575
28	0xbb620e49	-0.0034493378
29	0xbd359672	-0.04433293
30	0x3d846e8e	0.06466399
31	0x3dc71f95	0.09722821
32	0xbe4e32fa	-0.20136634
33	0x3cddc624	0.02707202
34	0xbd813d6b	-0.06310543
35	0xbd83799f	-0.06419682
36	0x3cccf139	0.025017368
37	0x3d223c73	0.03960843
38	0xbdf4e612	-0.11957945
39	0xbd57f63f	-0.052725073
40	0xbd11e137	-0.035615172
41	0x3d6ff75c	0.05858551
42	0x3cec4a89	0.028844135
43	0x3df89836	0.12138407
44	0x3dd740b0	0.10510385
45	0xbda98ffa	-0.082794145
46	0xbdbd5a6b	-0.092457615
47	0xbde94c1c	-0.1139147
48	0xbd52015c	-0.051270828
49	0xbdfff33d	-0.12497566
50	0x3d7b18a4	0.061302796
51	0x3d68e3c7	0.05685785
52	0xbd4b72be	-0.049669974
53	0x3d975c03	0.07390597
54	0xbc2f8e23	-0.01071504
55	0xbe1d38af	-0.15353654
56	0x3dafbc2c	0.08580813
57	0xbdc248c8	-0.09486538
58	0xbe304a04	-0.17215735
59	0x3d347037	0.04405233
60	0xbe204ffb	-0.1565551
61	0x3dd6c75a	0.10487242
62	0x3d0ae97f	0.033914085
63	0x3e042cb7	0.12907682
64	0xbe14f190	-0.14545274
65	0x3e2e5247	0.17023574
66	0x3dff3c84	0.12462714
67	0x3df9cb94	0.121970326
68	0xbda4f9b4	-0.080554396
69	0xbd201b6c	-0.03908865
70	0xbd4202e2	-0.04736603
71	0xbd6f57d5	-0.058433373
72	0xbe40f17b	-0.18842117
73	0xbe7e2e7e	-0.24822423
74	0xbd9e3677	-0.07725232
75	0x3dd120b8	0.10211319
76	0x3bcabd90	0.0061871484
77	0x3e6f28c0	0.23355389
78	0xbd052d01	-0.032513622
79	0xbe4d44d9	-0.20045795
80	0xbdc491bf	-0.09598111
81	0xbd961e8d	-0.07330046
82	0x3b586ab0	0.0033022575
83	0xbe34a996	-0.17642817
84	0xbe08b0d4	-0.13348705
85	0xbdb4bb20	-0.08824754
86	0xbe038c35	-0.12846453
87	0xbe09f790	-0.13473344
88	0xbb20702d	-0.0024480924
89	0x3cafb7d5	0.021449963
90	0x3d4060bc	0.046967253
91	0xbd4b5ae0	-0.049647212
92	0x3e136884	0.14395338
93	0xbd97e1b9	-0.074161
94	0xbe5892e2	-0.21149781
95	0x3d8337ac	0.06407103
96	0x3e581f11	0.21105601
97	0x3d4536c8	0.048147947
98	0xbe242b15	-0.1603206
99	0xbd9262c1	-0.07147742
100	0xbe22f147	-0.15912353
101	0xbe36e440	-0.17860508
102	0x3d0a036c	0.03369467
103	0x3d4cee4a	0.050031938
104	0xbe0c6299	-0.13709487
105	0xbddc596f	-0.107592456
106	0xbd140d5b	-0.03614555
107	0x3d344d99	0.044019315
108	0xbaadb971	-0.0013254118
109	0xbd5a500e	-0.053299002
110	0xbcde9f94	-0.027175702
111	0xbc3691a2	-0.01114312
112	0xbd929248	-0.07156807
113	0xbcd34ae6	-0.02579255
114	0x3cb5fafa	0.022214402
115	0xbe5433bb	-0.20722859
116	0x3c2edf6a	0.010673383
117	0x3d084455	0.03326829
118	0xbe08b045	-0.13348491
119	0x3e0ededf	0.13952206
120	0xbdbc2a11	-0.09187711
121	0xbd23ee49	-0.04002217
122	0x3e904064	0.28174126
123	0x3dfcf2a6	0.12350969
124	0xbbaf04dd	-0.005341156
125	0x3e354350	0.17701459
126	0x3be91c7a	0.0071139904
127	0xbe168da0	-0.14702463
128	0x3da95294	0.08267704
129	0xbdd460be	-0.103700146
130	0xbcde1d8b	-0.027113697
131	0x3dcd7206	0.10031514
132	0x3d9a3381	0.07529355
133	0x3e0a25f6	0.13491043
134	0xbc8f8157	-0.017517729
135	0x3c0b6601	0.008508206
136	0xbcbd8268	-0.023133472
137	0xbb9f39aa	-0.004859169
138	0x3dacc7dd	0.084365584
139	0xbc1ff9a2	-0.009764107
140	0x3daa7a49	0.08324105
141	0x3dec1d44	0.115290195
142	0xbe00c5c3	-0.1257544
143	0xbbb1f5c4	-0.005430909
144	0xbdbcdbdb	-0.092216216
145	0xb8470f6a	-4.7459653e-05
146	0xbd844c6e	-0.0645989
147	0xbccca379	-0.024980294
148	0x3d9cea26	0.07661848
149	0x3c5ef015	0.013607045
150	0xbd8067f5	-0.06269828
151	0xbd804163	-0.062624715
152	0x3e20f339	0.15717782
153	0xbc40eff2	-0.011775957
154	0x3d3b8761	0.045783404
155	0x3cb91c69	0.022596555
156	0xbd876d7d	-0.0661268
157	0xbde2d367	-0.11075478
158	0xbd1deab4	-0.03855391
159	0xbd7836f4	-0.060599282
160	0xbdb8d5f1	-0.09025181
161	0x3dcd444e	0.10022794
162	0x3de33a99	0.11095161
163	0x3db76e13	0.08956542
164	0x3ae42c37	0.0017408197
165	0x3b7dd2b9	0.0038730337
166	0x3dcf8751	0.101332314
167	0x3c300b2d	0.010744852
168	0xbd2eb459	-0.04265246
169	0xbe0b975b	-0.13631956
170	0xbdfe931a	-0.12430401
171	0x3df075fc	0.11741254
172	0x3d8ad8ee	0.06779657
173	0x3dc21eb2	0.09478511
174	0xbe05e595	-0.1307586
175	0xbe12b18e	-0.14325544
176	0x397628b3	0.0002347555
177	0xbde38403	-0.111091636
178	0x3e1904cd	0.14943238
179	0xbdb5ccf0	-0.08876979
180	0xbd43b9d1	-0.04778463
181	0xbd9890c3	-0.07449486
182	0xbe27a665	-0.16372068
183	0xbbb3c85a	-0.0054865303
184	0x3e1a66b7	0.15078245
185	0x3dde2806	0.108474776
186	0xbe2c3383	-0.16816525
187	0x3d53778a	0.051627673
188	0xbd1f83fe	-0.038944237
189	0x3d87982b	0.066208206
190	0x3cd60cb7	0.02612911
191	0x3d014980	0.031564236
192	0x3b571f8e	0.0032825205
193	0xbe4bad83	-0.19890408
194	0xba312029	-0.00067568064
195	0x3d68804f	0.05676299
196	0x3c7003e4	0.014649365
197	0x3d9e89ab	0.07741102
198	0x3e0da7fb	0.1383361
199	0x3e470900	0.19437027
200	0x3c71510a	0.014728794
201	0x3df82914	0.1211721
202	0x3d2f8d04	0.042859092
203	0xbd94f25c	-0.07272789
204	0xbe1e4111	-0.15454508
205	0xbe0f46a4	-0.13991791
206	0xbd44f8c2	-0.048088796
207	0x3b6e6cbf	0.0036380736
208	0xbd0a4150	-0.033753693
209	0x3e138c70	0.14409041
210	0x3c96c066	0.01840229
211	0x3e2da57c	0.16957659
212	0x3e274cd8	0.16337907
213	0x3e5ac680	0.21364784
214	0x3dc8f1d1	0.09811748
215	0x3b10230f	0.0021993553
216	0x3e525d91	0.20543505
217	0x3e1992c6	0.14997396
218	0xbd50808d	-0.050903846
219	0x3c884cee	0.016638245
220	0xbcb5f350	-0.022210747
221	0x3d77a072	0.060455747
222	0x3d8e1ca7	0.06939059
223	0x3e23009b	0.159182
224	0xbe3f408c	-0.18676966
225	0x3cbcf2a7	0.023064924
226	0x3e6cb603	0.23116307
227	0xbc25e8dc	-0.010126319
228	0x3e37c1d5	0.17945035
229	0x3d919d6a	0.071101025
230	0x3e09f3e8	0.13471949
231	0xbe118c07	-0.14213572
232	0x3e7f9ee5	0.24962957
233	0x3d937379	0.07199759
234	0xbd950008	-0.072753966
235	0x3e1624d0	0.1466248
236	0x3e1145f8	0.14186847
237	0x3cf38969	0.029728608
238	0x3d2e703f	0.042587515
239	0x3c20b998	0.009809874
240	0x3e922d71	0.28550294
241	0x3dd937c5	0.1060634
242	0x3e048892	0.12942722
243	0x3d61eb3e	0.055155985
244	0xbdc37d45	-0.09545378
245	0xbd5d24ff	-0.05399036
246	0x3d89e5ee	0.06733309
247	0x3c5cacd2	0.013468938
248	0x3ded62b7	0.11591094
249	0xbc32a3be	-0.010903297
250	0xbe94b7c7	-0.2904646
251	0x3c8610d1	0.01636544
252	0xbcc3ad84	-0.02388645
253	0x3dcafe9d	0.09911845
254	0xbd7e7552	-0.062123604
255	0x3e0f1284	0.13971907

linears.1.3.bias f4 [16]
0	0x3e27648d	0.16346951
1	0xbe98bc75	-0.2983128
2	0x3d81d010	0.06338513
3	0x3e9c45b6	0.30521935
4	0x3dffa870	0.12483299
5	0xbe868d65	-0.2627975
6	0x3e3362a8	0.17518103
7	0x3e83736e	0.25674003
8	0x3eb22232	0.34791714
9	0x3c1db6ce	0.009626104
10	0xbcb18c90	-0.02167347
11	0xbe8d19df	-0.275588
12	0x3dc4575c	0.09586975
13	0x3d401d46	0.046902917
14	0xbec00a19	-0.37507704
15	0xbdef4099	-0.11682243

linears.2.0.weight f4 [64, 20]
0	0x3e398e9c	0.18120807
1	0xbe6d81f0	-0.23194098
2	0xbcec2922	-0.028828207
3	0xbc869d3c	-0.016432397
4	0x3e45eb0f	0.19327949
5	0xbc98aa89	-0.018636005
6	0x3da49991	0.08037103
7	0x3e5650a3	0.20929198
8	0xbbd379a8	-0.0064537115
9	0x3e3e2652	0.18569306
10	0x3d84d200	0.06485367
11	0xbda5e4d5	-0.08100287
12	0x3e4f8422	0.20265248
13	0xbe44f3be	-0.19233605
14	0xbe36454b	-0.1779987
15	0xbe1c274c	-0.15249366
16	0xbe0b052e	-0.13576195
17	0xbde3ee57	-0.11129444
18	0x3d962db6	0.073329374
19	0xbb3ef26c	-0.0029136194
20	0x3e7a35d2	0.24434593
21	0x3e4004ed	0.18751879
22	0xbc632507	-0.0138638085
23	0xbe0cfd92	-0.13768604
24	0x3e2a4a34	0.16629869
25	0x3e5b0099	0.21386947
26	0xbe2ae45c	-0.16688675
27	0xbe415a39	-0.18882073
28	0x3db883ca	0.09009512
29	0x3e3d69c6	0.1849738
30	0xbe5ddcc2	-0.21666244
31	0xbe2ed68d	-0.17074032
32	0xbe2e33c8	-0.1701194
33	0xbd0ccb0b	-0.034373324
34	0xbe43d765	-0.19125135
35	0xbe76a07a	-0.24084654
36	0x3dd92cd0	0.106042504
37	0xbe2ccf5d	-0.16875978
38	0x3df21fd6	0.118224785
39	0x3e51ff43	0.20507531
40	0x3e2819e4	0.16416126
41	0x3e577277	0.21039759
42	0xbdde57b6	-0.10856573
43	0xbd80006f	-0.06250083
44	0xbe5916e0	-0.21200132
45	0xbd8b0580	-0.067881584
46	0x3dc8a887	0.09797769
47	0x3daaf051	0.08346618
48	0x3d220ef4	0.03956504
49	0xbe18906b	-0.14898841
50	0xbc49289f	-0.012277751
51	0x3e5cd698	0.21566236
52	0xbe00d48a	-0.12581077
53	0x3dec3586	0.11533646
54	0x3e1c88ea	0.15286604
55	0xbd819ba5	-0.06328515
56	0x3e1ce504	0.15321738
57	0x3e2dd089	0.16974081
58	0xbe37bcbd	-0.17943092
59	0xbcf101b4	-0.029419757
60	0x3e910d5b	0.28330502
61	0xbe4d2026	-0.20031795
62	0x3e830d9f	0.2559633
63	0x3d373b5a	0.044734336
64	0x3e607207	0.21918498
65	0x3a86793c	0.0010259519
66	0x3e1e3ce7	0.1545292
67	0x3c0ab1e1	0.008465261
68	0xbc976d44	-0.01848472
69	0x3e09f330	0.13471675
70	0x3d29e844	0.04148127
71	0xbd38fc2e	-0.045162372
72	0xbdbd7e5f	-0.09252619
73	0x3b285a21	0.0025688487
74	0x3d5af847	0.053459432
75	0x3e76c1eb	0.24097411
76	0x3dd17018	0.10226458
77	0x3e244a97	0.16044079
78	0x3c85a1dd	0.016312534
79	0x3e1ddd6a	0.15416494
80	0x3df57b3f	0.11986398
81	0x3deb0f7e	0.11477564
82	0xbdd342c3	-0.10315468
83	0xbb948f95	-0.004533718
84	0x3e46a11f	0.193974
85	0x3e19a3b9	0.15003861
86	0x3dc24c9f	0.094872706
87	0x3e45a4f5	0.19301207
88	0xbe3f9d94	-0.18712455
89	0xbcd5d08a	-0.026100416
90	0x3ddbf5ad	0.10740218
91	0x3e21604d	0.15759392
92	0xbda87661	-0.08225704
93	0xbe176ac9	-0.14786829
94	0x3e53cc69	0.20683445
95	0x3dba6cf9	0.09102816
96	0xbcfae685	-0.030627498
97	0x3dd8a1bb	0.10577723
98	0x3e4cb40f	0.19990562
99	0x3e4c6ed5	0.19964154
100	0xbe87d814	-0.26532042
101	0x3c01e5d4	0.00792833
102	0xbe528da9	-0.20561852
103	0xbcc00724	-0.023440905
104	0x3da7d9bc	0.081958264
105	0xbdbf4737	-0.09339755
106	0x3d6f97d6	0.05849441
107	0x3d142d0b	0.03617577
108	0x3e1cc7cf	0.15310596
109	0xbe189c97	-0.14903484
110	0xbdb8fdac	-0.09032759
111	0x3e06c45b	0.13160841
112	0x3d6cd8cb	0.057823937
113	0xbe3be2c0	-0.18348217
114	0xbdd2daba	-0.10295625
115	0xbe06472a	-0.13113084
116	0x3e0ef090	0.13958955
117	0xbe0ddcae	-0.13853714
118	0x3dd3f023	0.10348537
119	0xbdd83396	-0.10556714
120	0xbd5319a8	-0.05153814
121	0x3e6feb67	0.23429643
122	0x3e7bff4c	0.24609107
123	0xbc010e69	-0.007876971
124	0xbe4349f6	-0.19071183
125	0xbdd57a4d	-0.10423718
126	0xbe3514de	-0.17683741
127	0xbe58d83d	-0.21176238
128	0x3d8dc28a	0.06921871
129	0x3dd060e3	0.1017473
130	0x3d493342	0.04912115
131	0xbdd6c0f1	-0.104860194
132	0x3e074f8c	0.13213938
133	0x3d808607	0.06275564
134	0xbd9721c1	-0.07379485
135	0x3de0fc92	0.10985674
136	0xbe5c0646	-0.21486768
137	0x3d6fcee6	0.058546923
138	0x3e204f67	0.1565529
139	0x3e1b778a	0.1518232
140	0xbe0808f2	-0.13284662
141	0x3e01f1a0	0.12689829
142	0xbd9202f3	-0.07129469
143	0xbc8702a5	-0.016480753
144	0xbe001ea5	-0.1251169
145	0xbe5a4418	-0.21315038
146	0x3e0c69db	0.13712256
147	0xbe3f3ab1	-0.18674733
148	0x3d0ce652	0.034399338
149	0x3d8f247d	0.069893815
150	0xbdb0cb09	-0.08632476
151	0x3e3105ca	0.17287365
152	0xbd5939cc	-0.053033635
153	0xbdfa32a8	-0.12216693
154	0xbd043b9c	-0.03228341
155	0x3e87ca14	0.2652136
156	0xbe578474	-0.2104662
157	0xbe23477f	-0.15945242
158	0xbe5b570a	-0.21419922
159	0x3dfa8530	0.12232435
160	0x3e23803b	0.15966885
161	0x3df8e855	0.12153689
162	0xbe5dcef2	-0.21660975
163	0xbcdd243b	-0.026994815
164	0x3e7a834d	0.2446415
165	0x3e2ece61	0.17070915
166	0x3e33bb63	0.17551951
167	0x3e5bf3dd	0.21479745
168	0xbd494a74	-0.04914327
169	0x3e374280	0.17896461
170	0xbd3f9542	-0.046773203
171	0x3c673c01	0.014113427
172	0x3a7e6c08	0.0009705429
173	0xbe2e6a0b	-0.1703264
174	0xbd7ed169	-0.062211428
175	0x3d23a5d6	0.039953075
176	0xbc9899b6	-0.018627983
177	0xbe57bece	-0.2106888
178	0xbd43dd91	-0.047818724
179	0x3d9f8311	0.07788671
180	0xbd10bec5	-0.035338182
181	0xbd9d7b66	-0.07689552
182	0x3e458c8d	0.19291897
183	0xbdff0b51	-0.1245333
184	0x3d2ca125	0.042145867
185	0xbd449df7	-0.04800221
186	0xbde5bda3	-0.11217811
187	0x3c2bf146	0.010494536
188	0xbdcfe0f7	-0.101503305
189	0x3e33d450	0.1756146
190	0x3e2b6ad3	0.16739969
191	0xbd02c494	-0.031925753
192	0x3e161557	0.14656578
193	0xbe414afb	-0.18876259
194	0x3e0d9145	0.13824947
195	0xbd847926	-0.0646842
196	0x3e08ef73	0.13372593
197	0x3d84fe66	0.06493835
198	0x3d5e7742	0.054312952
199	0xbe64ca5f	-0.22342823
200	0x3e668a9c	0.22513813
201	0xbdcc0f6f	-0.09963881
202	0xbe51cad5	-0.2048753
203	0xbe5a2683	-0.21303754
204	0xbc84b119	-0.016197728
205	0x3c16ebf3	0.009211528
206	0xbe03baf7	-0.1286429
207	0xbbb2ab6c	-0.005452564
208	0xbe3ed7ad	-0.18636961
209	0xbd343fdd	-0.044006217
210	0xbe2f9add	-0.1714892
211	0x3d749f7a	0.0597224
212	0xbdebe7f8	-0.11518854
213	0x3e372a01	0.17887117
214	0xbd3f8481	-0.046757225
215	0x3c2ff425	0.010739361
216	0xbda73de0	-0.081660986
217	0x3e66280c	0.22476214
218	0x3dfc1fb8	0.12310737
219	0xbe29ba93	-0.16575079
220	0x3ddd8a25	0.108173646
221	0x3e52bedf	0.20580624
222	0xbe366fdf	-0.17816113
223	0x3e4cdac2	0.20005324
224	0xbe6c9e3d	-0.23107238
225	0x3e3008f0	0.1719091
226	0xbd57befb	-0.052672368
227	0xbcd3d159	-0.02585666
228	0x3e583927	0.21115552
229	0xbd8ae72f	-0.06782376
230	0xbda20dd7	-0.07912796
231	0x3d627689	0.055288825
232	0xbd87d8ea	-0.0663317
233	0xbe1d9d90	-0.15392137
234	0x3e01a1a7	0.12659322
235	0x3e07ba3e	0.1325464
236	0x3d463be6	0.048396967
237	0x3e5349a1	0.20633556
238	0x3c7e1326	0.015507495
239	0xbe18d3f2	-0.149246
240	0x3e399e87	0.1812688
241	0xbd1ac768	-0.037787825
242	0x3d36f30b	0.044665378
243	0xbd6f87b4	-0.058479026
244	0xbe502ce7	-0.20329629
245	0xb773ce7b	-1.4532004e-05
246	0x3e687f8e	0.22704908
247	0xbd0e6281	-0.03476191
248	0xbcb889bd	-0.022526616
249	0x3e3e06a5	0.18557222
250	0x3e3306aa	0.17483011
251	0x3e18c261	0.149179
252	0x3dd077ea	0.10179122
253	0x3e22bedc	0.1589312
254	0xbe07a71b	-0.1324734
255	0x3e5d3e3c	0.21605772

linears.2.0.bias f4 [64]
0	0xbcf5745c	-0.029962711
1	0x3e4891f2	0.19586924
2	0x3e02b882	0.12765697
3	0x3dd0ab79	0.10188956
4	0xbe65623c	-0.22400755
5	0xbdd4020e	-0.103519544
6	0xbdc48ed7	-0.09597557
7	0x3e128bff	0.14311217
8	0xbdd98d8d	-0.10622702
9	0xbe28c747	-0.16482268
10	0xbe1b2036	-0.15149006
11	0x3e3392a7	0.17536412
12	0xbd990742	-0.074720874
13	0x3e7459cc	0.2386238
14	0xbd07998d	-0.03310542
15	0x3db76d1c	0.08956358
16	0xbc30bd88	-0.010787375
17	0x3c899d62	0.016798679
18	0x3d6865ca	0.0567377
19	0x3db7004e	0.08935605
20	0x3d1509e0	0.03638637
21	0x3d8de12c	0.06927714
22	0xbe497c36	-0.19676289
23	0x3dcf3956	0.10118358
24	0xbd894905	-0.067033805
25	0x3e2cca0c	0.1687395
26	0x3d1a371d	0.037650216
27	0xbe6d43c0	-0.23170376
28	0xbdf5010f	-0.119630925
29	0x3df4c5b0	0.119517684
30	0x3bc2ac19	0.005940926
31	0x3d9b2739	0.075758405
32	0x3e2f6880	0.17129707
33	0x3d84f889	0.06492717
34	0xbe5279ea	-0.20554319
35	0xbdb28793	-0.08717265
36	0xbd8c3623	-0.06846263
37	0xbe597007	-0.21234141
38	0xbe5efc59	-0.2177595
39	0x3e8554a4	0.26041138
40	0xbbab8697	-0.00523455
41	0x3c8ffe54	0.017577328
42	0x3e669d52	0.2252095
43	0xbe4e56c3	-0.20150284
44	0xbc942a43	-0.018086558
45	0x3c99238f	0.018693713
46	0xbdabcdca	-0.083888605
47	0x3e3ac81f	0.18240403
48	0xbe4247fc	-0.18972772
49	0xbe6cf8a1	-0.2314172
50	0xbda814af	-0.0820707
51	0xbe5aacfa	-0.21355048
52	0xbe04d3f2	-0.12971476
53	0x3e1011c5	0.14069279
54	0xbe299425	-0.16560419
55	0xbe74a496	-0.2389091
56	0xbde19ca7	-0.11016207
57	0xbdf283e2	-0.11841561
58	0xbd19afd7	-0.03752121
59	0x3e14db73	0.14536838
60	0xbe037f8b	-0.12841623
61	0xbe553d34	-0.20824128
62	0xbd3dfd12	-0.046383925
63	0xbe1f18c0	-0.15536785

linears.2.3.weight f4 [16, 64]
0	0xbbc813f3	-0.0061058938
1	0xbc81bf7b	-0.015838375
2	0xbe0854fc	-0.13313669
3	0xbcc0a2d7	-0.023515148
4	0xbd282889	-0.041054282
5	0x3c8b4a1f	0.017003117
6	0x3db9c06f	0.09069907
7	0xbca73ec0	-0.020415664
8	0xbcdf4022	-0.02725226
9	0xbd7f79eb	-0.06237213
10	0xbddd2997	-0.10798948
11	0xbd8e4e39	-0.069485135
12	0x3e058e35	0.13042529
13	0xbc38bd6f	-0.011275633
14	0x3d299f5c	0.041411743
15	0x3e0929ed	0.133949
16	0xbe00fc8b	-0.12596337
17	0x3dc42001	0.09576417
18	0xbe2a7a5e	-0.16648242
19	0x3daff9e9	0.085925885
20	0xbdc592eb	-0.09647163
21	0xbd7dc5d0	-0.061956227
22	0xbe112f37	-0.14178167
23	0xbe3120ef	-0.1729772
24	0xbe06ed7b	-0.13176529
25	0x3d01128c	0.03151183
26	0xbd22d2f0	-0.039751947
27	0xbc23da55	-0.010000785
28	0x3cb78c43	0.02240575
29	0xbdc588c8	-0.096452296
30	0x3d885ac6	0.06657939
31	0xbcf2ef24	-0.029655047
32	0x3e05ae86	0.13054857
33	0xbc8d624c	-0.017258786
34	0x3cd5efee	0.026115384
35	0xbde8cd5e	-0.11367296
36	0xbd832e98	-0.064053714
37	0xbdf5e0c7	-0.120057635
38	0xbd27af8b	-0.040938895
39	0xbb43a6ab	-0.002985398
40	0x3db62a1c	0.088947505
41	0xbda14790	-0.078749776
42	0xbdd6d7f2	-0.10490407
43	0xbd6d1e9e	-0.057890527
44	0xbb5d3761	-0.0033754932
45	0x3cc9abc9	0.024618046
46	0xbba40acd	-0.0050061704
47	0xbe234c58	-0.15947092
48	0xbd3e5b00	-0.046473503
49	0xbd6578e9	-0.056023512
50	0xbbd4ae94	-0.006490538
51	0xbc9ff254	-0.01952473
52	0x3d1d18b7	0.038353648
53	0x39d822f9	0.00041224787
54	0x3dcb20a6	0.099183366
55	0x3bad820e	0.0052950447
56	0xbc6a2421	-0.01429084
57	0x3ccbc2b8	0.024873123
58	0xbda436d6	-0.080182716
59	0xbe197e50	-0.1498959
60	0xbe371f07	-0.1788293
61	0xb9770cea	-0.00023560566
62	0x3ccc7c48	0.024961606
63	0xbcdd2134	-0.026993372
64	0x3d52539f	0.05134928
65	0xbaff5d2b	-0.0019482722
66	0x3e160f22	0.1465421
67	0xbe0b11d8	-0.13581026
68	0xbe0c0919	-0.13675345
69	0xbdab0e60	-0.08352351
70	0xbe0d400d	-0.13793965
71	0x3d867f14	0.06567207
72	0xbe0ddcda	-0.1385378
73	0x3ddfefc1	0.10934401
74	0x3d33045a	0.04370532
75	0xbcf6c1fc	-0.030121796
76	0xbdd47539	-0.10373921
77	0xbd6c3191	-0.057664458
78	0xbe05765c	-0.13033432
79	0xbdbdc608	-0.09266287
80	0x3dcc77d7	0.09983795
81	0xbe124569	-0.1428429
82	0xbc8009dd	-0.015629703
83	0xbd9c5956	-0.07634227
84	0x3dd50012	0.10400404
85	0x3dcbe5ed	0.09955964
86	0x3e0a7879	0.13522519
87	0x3d978930	0.07399213
88	0x3ddadb34	0.10686341
89	0x3d5998bb	0.05312417
90	0xbd60b7e0	-0.054862857
91	0x3d9a1175	0.07522861
92	0x3dd0b360	0.10190463
93	0xbd3f163c	-0.046652064
94	0x3dc19636	0.094524786
95	0x3e2de942	0.16983512
96	0xbe3f9f7f	-0.18713187
97	0x3d1efa3a	0.038812853
98	0xbd335882	-0.04378558
99	0x3da3e90d	0.08003435
100	0x3bb19dfe	0.0054204455
101	0x3dd36c0e	0.10323344
102	0xbc254715	-0.010087748
103	0xbd5bf101	-0.053696636
104	0x3e253a8c	0.16135615
105	0xbd335f82	-0.043792255
106	0x3e04c830	0.1296699
107	0x3d686830	0.056739986
108	0x3e08046b	0.13282935
109	0x3e0b6432	0.1361244
110	0x3d6772a1	0.056505803
111	0xbc960bce	-0.018316176
112	0x3dd3212f	0.10309064
113	0xbd6b0aad	-0.057383228
114	0xbde4eb66	-0.11177711
115	0xbcdd6333	-0.027024841
116	0xbd920f82	-0.07131864
117	0x3dfee063	0.12445142
118	0x3c7e8ccb	0.015536497
119	0x3dc57f51	0.09643424
120	0xbda81482	-0.082070366
121	0x3d0733b0	0.033008277
122	0x3dbe085b	0.092789374
123	0x3e2c0b8b	0.16801278
124	0x3e16a7a7	0.14712392
125	0x3dc9f511	0.09861196
126	0x3c82c314	0.015962161
127	0x3def168d	0.11674223
128	0x3dd05719	0.101728626
129	0xbd3a5755	-0.045493443
130	0x3d263e2f	0.040586647
131	0x3c9c6ded	0.019095385
132	0xbc4ef512	-0.0126316715
133	0x3e05a46f	0.13051008
134	0xbd9cf8b8	-0.07664627
135	0x3c0a787b	0.008451576
136	0x3d1dd4fd	0.0385332
137	0x3d074232	0.033022113
138	0xbd908756	-0.07057063
139	0x3daf515c	0.0856044
140	0x3dd2fcc8	0.103021204
141	0xbcbfff63	-0.023437208
142	0xbcaf2e26	-0.02138431
143	0x3daaf034	0.08346596
144	0x3d0a46e8	0.033759028
145	0xbc107766	-0.008817529
146	0xbd93db0b	-0.072195135
147	0x3c04e03f	0.008110105
148	0xbc5fda5d	-0.013662902
149	0xbdcb3863	-0.09922864
150	0xbd2dd6ba	-0.042441107
151	0x3d784425	0.060611863
152	0xbd790d56	-0.060803734
153	0x3dc9ebf0	0.09859455
154	0x3dfc3e54	0.12316576
155	0x3dc9e266	0.09857635
156	0x3c999951	0.018749865
157	0x3d53f3bb	0.05174611
158	0xbdb50187	-0.08838182
159	0x3d201258	0.039079994
160	0xbbb074ae	-0.005385003
161	0xbdda3fce	-0.10656701
162	0x3d953739	0.072859235
163	0xbdc56ad1	-0.09639514
164	0xbdc844a3	-0.097787164
165	0x3dac2090	0.08404648
166	0xbd9f6a49	-0.07783944
167	0x3daa4896	0.08314626
168	0x3e445203	0.1917191
169	0x3d78311d	0.060593713
170	0x3db14efe	0.08657645
171	0xbc9f2e80	-0.019431353
172	0xbd825f95	-0.06365887
173	0xbd7728dd	-0.060341705
174	0x3c00a53a	0.007851893
175	0x3cac0111	0.020996602
176	0xbdad7685	-0.084698714
177	0x3d6582c5	0.056032915
178	0xbd92e70d	-0.07172976
179	0x3d6ec267	0.058290865
180	0x3e08326d	0.13300486
181	0x3af05886	0.0018336929
182	0x3d89ac0f	0.06722271
183	0x3d42ff50	0.047606766
184	0xbd52e864	-0.051491156
185	0x3e1fad83	0.15593533
186	0x3d28f1ec	0.04124634
187	0xbdc734e7	-0.09726887
188	0x3d33c2f9	0.043887112
189	0x3b6ffd3f	0.0036619452
190	0x3c9aff2b	0.018920502
191	0x3daa48ad	0.08314643
192	0x3db9ace5	0.0906618
193	0x3e223dc9	0.15843882
194	0x3d2e5ee1	0.042570952
195	0x3ae241db	0.0017262058
196	0x3dcd5bba	0.10027261
197	0x3e1201b3	0.1425846
198	0x3e169459	0.14705028
199	0x3d859313	0.06522193
200	0x3dccb799	0.09995956
201	0x3d8d2b96	0.06893079
202	0x3e0c1530	0.13679957
203	0xbdf3aed1	-0.11898578
204	0x3da1c996	0.078997776
205	0x3e0ae6f0	0.13564658
206	0x3dc6ac55	0.097008385
207	0x3d75aecf	0.059981164
208	0xbdcd8fe5	-0.10037211
209	0x3d170a6c	0.036875173
210	0xbdc16150	-0.09442389
211	0x3df7e1bc	0.12103602
212	0xbc71a784	-0.0147494115
213	0xbdd34b47	-0.103170924
214	0x3d3990e0	0.04530418
215	0xbe006932	-0.12540129
216	0x3d733fd1	0.059387032
217	0x3cb15d73	0.021651005
218	0xbd87c6d9	-0.06629724
219	0x3d92c8ef	0.07167231
220	0x3db8544c	0.09000453
221	0x3e3463e7	0.17616235
222	0xbdcbf480	-0.09958744
223	0xbdacefbd	-0.08444164
224	0x3e1dbffc	0.15405267
225	0xbdf1db4d	-0.118094064
226	0x3df03a86	0.117299125
227	0xbc25fbca	-0.010130832
228	0x3aa0c0ee	0.0012264529
229	0xbd934d91	-0.07192529
230	0xbb93f739	-0.004515555
231	0xbd46e910	-0.04856211
232	0x3d5889c1	0.052865747
233	0xbd4a3db4	-0.04937525
234	0xbdb0213a	-0.086000875
235	0xbdb0a588	-0.086253226
236	0x3cb7a449	0.022417204
237	0x3c9ac732	0.018893812
238	0x3e0e83a7	0.13917409
239	0x3dba794d	0.091051675
240	0x3d1ffb83	0.03905822
241	0xbda4be48	-0.08044106
242	0x3e058175	0.13037665
243	0x3cca26cf	0.024676709
244	0x3c8be265	0.017075727
245	0x3d807270	0.06271827
246	0xbd27470c	-0.04083924
247	0xbd2ee792	-0.04270131
248	0xbe098a06	-0.13431558
249	0xbd167bbf	-0.036739107
250	0x3d3cb7f4	0.04607387
251	0xbd9055a4	-0.07047585
252	0x3d97f0c9	0.07418973
253	0x3cedee15	0.02904419
254	0x3dcefa55	0.10106341
255	0x3bdada69	0.0066788686

linears.2.3.bias f4 [16]
0	0x3d34e0ea	0.044159807
1	0xbdb1285f	-0.08650278
2	0x3def8335	0.11694948
3	0x3df7275e	0.120680556
4	0x3c925a55	0.01786534
5	0xbe4c9d09	-0.19981779
6	0x3e06bca7	0.13157903
7	0x3d4862ca	0.048922338
8	0x3d884cc0	0.06655264
9	0xbd241dbd	-0.040067423
10	0xbdce43c8	-0.10071522
11	0x3db507a8	0.08839351
12	0xbe0dd42e	-0.13850471
13	0x3c9b0d5c	0.018927269
14	0xbdfb516d	-0.1227139
15	0x3ccc5b47	0.024945868
