model/final_cleaned1_trainedmodel.pth (torch, 78407 bytes, 24 tensors)

linears.0.0.weight f4 [64, 20]
00000000: fadf c33d 75ea 4ebd 0857 3dbe ae17 9b3d
00000010: 9e3d 913d f7d6 1b3b 5234 43be b822 513d
00000020: e74b 613e c601 0c3d 7e86 87bd 57a4 75be
00000030: de3e 383e f740 63bc 9e87 72be 4033 4bbe
00000040: 0157 553e e8f4 533e 7d47 993d 28be 2c3e
00000050: b0a9 62be 2035 19be 7978 68bd 22e8 893e
00000060: 8ae4 063e 8d51 a9bd 712d 143e 794f 3dbe
00000070: 46e3 5bbe 7f3c 873c e24b b73d 96a9 cb3e
00000080: 0480 09bd 1f47 f4bc 703a 7abd 2cd2 083e
00000090: 64e9 623e 6374 613b 8c32 08be 913c 3e3e
000000a0: e7ab ad3d 9eee 043e c8f8 473e fcbc 613e
000000b0: b7a6 04be 28db b3bc 65e6 b03c 93c9 4fbe
000000c0: 4785 dd3d f4d9 3e3e c80f bb3d 48da 53be
000000d0: acb7 c53d b2a4 0b3d 2be5 5e3e d937 58be
000000e0: 88fb 45be 2784 1ebe f6dc 9dbd 4aed 153e
000000f0: c1be b93d a939 0bbe 93e0 ab3e 8e5b 963d
00000100: af80 eabd d887 c63b 79bb 983d 0186 c33d
00000110: 15e8 d6bd 445d 40be 8465 43be 7918 8f3e
00000120: 0eb6 e7be a39d 07be 81fd 34be 55ed 23bb
00000130: 0576 ad3d bfa7 883d 13a9 11bc 16f7 513e
00000140: 58d6 98bb d970 8b3e 2054 cabe 2c9c 42be
00000150: 4b22 4dbe 21e8 243d 1579 273e 2bdc bb3c
00000160: b157 103e 343a 5ebe 89b4 cb3d 6aa6 25be
00000170: fb97 86be 43db a73d ddcb 3cbe 2e8a 7e3e
00000180: baec 1c3d a041 20bc d786 4b3e 2887 07be
00000190: d733 c0be 5171 63be 04ea 5e3e f820 113e
000001a0: 5631 533d 3d85 b1bd efde 0f3e 97b9 4bbe
000001b0: 1903 363e 6a5c 7f3e 735f 24bd 745c 953e
000001c0: 5952 1bbe 3191 7d3d 7c1b 043e 212d 743e
000001d0: ab3e 68bd 212e a53d f015 1c3e 1bbf 89be
000001e0: fe17 223e e595 40bd c139 1dbe dcbc 0ebe
000001f0: 05f5 353d 3ef7 073e 717f ac3d 8f64 2a3e
00000200: eee4 54be a5da 89bd 173a 63be 2420 febd
00000210: 1677 a8bb a2bc 153e 3fce c43d 96e1 04be
00000220: 4533 10be e179 d93d caea 91bc f3c1 9d3d
00000230: 16fb 823d ef6a be3d 5d03 6b3d 1ac1 493e
00000240: 5f4f 4ebe eed5 7139 902d 4c3d 84b6 62bc
00000250: de2a d63d 75e6 263e 871f d83c c88c fc3d
00000260: aa61 503d 1f77 a43d 7ebc d23c 39f5 863c
00000270: 156e 3ebe cac1 6abd 42d6 1d3e 3aa6 063e
00000280: bf35 bebc e360 003e 059a 55bd 776f 683e
00000290: 4682 c23c ea87 bd3e 7883 ca3d e02c 4c3e
000002a0: 7b40 223e 559f 3fbe cd65 1a3d 296a 1d3e
000002b0: 5c5e 02be 5b4b f43d 01a4 3dbe 6110 a63d
000002c0: 22ca 503e eae6 d2bd e1d7 74bc 9526 313e
000002d0: c76b 1bbc 2b62 313e d6f7 723e f11a 593e
000002e0: a89b 3fbe dbdf 6fbe a5db ab3d a5fd ecbd
000002f0: 8653 fbbd 2da7 3f3d c813 c63a d917 c63e
00000300: 16b2 ab3d 681f c9bc ea77 00be 68e5 983d
00000310: b699 3a3d b228 b63d 8d18 803e a721 a73d
00000320: 4634 0dbe 390a 353e e19d bbbe 1402 53be
00000330: ab16 d43d 295b c73e 56eb 833d 0888 473e
00000340: d6f7 543e b78f 9bbd 195b cdbc dbf2 48bb
00000350: 74a0 733d 6cbf 4dbe 4665 c839 26ac 93b9
00000360: fe22 853d b15d 533e bb2c 42bd a85b 04be
00000370: 664c 163e 008b 1abe 22c0 e33d 2bb3 8bbe
00000380: d6c9 433e 2d06 da3e b092 5ebe a2a7 1cbc
00000390: 9cea 0d3d 621c 33bd 7d83 9c3d 93e0 14be
000003a0: a7e5 d5bd d579 f63d e57a ff3b f84d ff3d
000003b0: 9dae 733e 0229 d8bd 04b9 f73d 1399 383e
000003c0: 6e56 ad3e bcc7 bfba 8f80 92be fce1 c4be
000003d0: 33f6 e33e 91b9 ea3b 7599 d13d e61d 153e
000003e0: d091 adbd 927d 2f3e c2bf ce3d 3afe 5abe
000003f0: 8be7 81be fe8d 6cbe 8e1e dcbd 0d7a 94be
0.095642045 -0.050516564 -0.18490231 0.07572876 0.07091831 0.0023779252 -0.19062927 0.0510585
0.2200161 0.03418138 -0.06617449 -0.23988472 0.17992732 -0.013870469 -0.23684546 -0.19843769
0.2083397 0.20698893 0.074843384 0.16869414 -0.22135043 -0.14961672 -0.056755517 0.26934916
0.13173118 -0.08267508 0.1447046 -0.18487348 -0.21473417 0.016508339 0.089500204 0.3977782
-0.03356935 -0.02981907 -0.061090887 0.13361424 0.22159344 0.0034401647 -0.13300532 0.18577792
0.084800534 0.1298165 0.19528496 0.22044748 -0.12954222 -0.021955088 0.021594236 -0.20291738
0.10816436 0.1863783 0.091338694 -0.20688736 0.09654173 0.034092613 0.21767108 -0.21115054
-0.19334233 -0.154801 -0.077081606 0.146413 0.090695865 -0.13596214 0.33569774 0.073416814
-0.11450326 0.0060586743 0.074576326 0.095470436 -0.10493485 -0.18785578 -0.19081694 0.2794836
-0.45256084 -0.13243727 -0.17674829 -0.0025013287 0.08469776 0.0667262 -0.008890408 0.20504412
-0.0046642236 0.27234533 -0.39517307 -0.19004887 -0.20032613 0.040260438 0.16354783 0.022932133
0.14095952 -0.2170189 0.09946544 -0.16176763 -0.26287827 0.08196118 -0.18437143 0.24857399
0.038311698 -0.009781271 0.19875656 -0.13235152 -0.3753955 -0.22211196 0.21768957 0.14172733
0.051560722 -0.08667991 0.14049886 -0.19895016 0.17774619 0.24937597 -0.04013009 0.291721
-0.15168132 0.061906043 0.1290111 0.2384534 -0.05670039 0.08065439 0.15242743 -0.26903614
0.15829465 -0.04701795 -0.15354063 -0.13939232 0.044423122 0.13277909 0.08422745 0.16639923
-0.20790455 -0.06731156 -0.22190128 -0.12408474 -0.0051411493 0.14622739 0.09609651 -0.12976679
-0.14082058 0.1061895 -0.017812151 0.077030085 0.06395547 0.0929774 0.057376254 0.19702569
-0.20147465 0.00023063246 0.04984814 -0.01383746 0.10457395 0.1629885 0.02638222 0.123315394
0.05087439 0.08030533 0.025724646 0.016474353 -0.1859668 -0.057313718 0.15413764 0.13149348
-0.023218988 0.1253696 -0.052148838 0.2269877 0.02374376 0.37017757 0.09888357 0.19938993
0.1584491 -0.18713124 0.03769474 0.15372528 -0.12731308 0.119284354 -0.18519594 0.08108593
0.20389608 -0.102979496 -0.014944048 0.17299874 -0.009486145 0.17322604 0.23727354 0.21201684
-0.18711722 -0.23425238 0.08391503 -0.11571816 -0.1227179 0.04679029 0.0015112096 0.3869007
0.083835766 -0.024551108 -0.12545744 0.07465631 0.045556746 0.08894481 0.2501873 0.081607156
-0.13789472 0.17679681 -0.3664389 -0.20606261 0.10355886 0.38936737 0.06441371 0.19485486
0.20797667 -0.07595771 -0.025067853 -0.0030662331 0.059479192 -0.20092553 0.00038222427 -0.00028166285
0.06500815 0.20641209 -0.04740594 -0.12925589 0.14677581 -0.15092087 0.11120631 -0.27285132
0.19119963 0.42582837 -0.21735644 -0.009561451 0.03464757 -0.04372824 0.07642267 -0.14538793
-0.10444193 0.12034956 0.0077966326 0.12466043 0.23797078 -0.105546966 0.12095836 0.18027143
0.33855003 -0.0014631669 -0.28613707 -0.38453662 0.44523773 0.0071632345 0.10234348 0.14562187
-0.08475077 0.17137745 0.10095169 -0.21386042 -0.25371966 -0.2310104 -0.10748015 -0.28999367

linears.0.0.bias f4 [64]
00000000: 3bfe 26be 108e 923c 5806 45be 6f34 26be
00000010: 8c3e ba3d 1067 9ebe 979c c3bd b003 7cbe
00000020: 1d79 ad3b 5beb 3e3e 68fb db3e 1b05 ab3d
00000030: 7bca 213e 0d23 a13d a43b 003d 6860 803e
00000040: 9a54 a6bd e8a0 7c3c 1821 c0bc 1135 943e
00000050: b16e 9abd bea3 213e 59a2 a13e 72e9 0cbe
00000060: 70ef 79be d8d6 5f3d 89aa ddbd ce9a fcbb
00000070: b0e1 07be ba6f 143d 2629 253e b215 ec3e
00000080: ab8c bdbe 94ed e0bd 564b 57be d23f 583d
00000090: d7c9 07bc c762 8dbe 6ab7 dbbe 8a74 65be
000000a0: 00fc 003e a4d3 ac3d 29c5 23be 6b88 d0bd
000000b0: 5eab 183e d845 a43e d6e3 1fbe ec8e 423e
000000c0: fc78 5d3e a288 37be a156 2ebe 7fd0 babd
000000d0: b1fd 1b3d b4ad 8ebe d291 a6bd 68a0 7fbc
000000e0: baa6 293e ca1b 24be f783 eebd 5306 9e3e
000000f0: 0d76 ef3d c16d 923d c1b7 093e 6536 2c3e
-0.16307919 0.017890006 -0.19240701 -0.1623094 0.09093961 -0.30938005 -0.095513515 -0.24610782
0.005293979 0.18644468 0.42965245 0.08350583 0.15799896 0.078680135 0.031306878 0.25073552
-0.08121605 0.015419222 -0.02345328 0.28946736 -0.07540644 0.15785119 0.31569174 -0.13760927
-0.24407744 0.05464825 -0.108235426 -0.007708884 -0.13269687 0.036239363 0.16128978 0.46110302
-0.37021384 -0.109828144 -0.21024832 0.05279524 -0.008287868 -0.27614424 -0.4291337 -0.22407737
0.1259613 0.08438805 -0.1599318 -0.1018227 0.14909121 0.32084537 -0.15614256 0.18999833
0.21628183 -0.17923215 -0.17025234 -0.09121799 0.038083736 -0.278669 -0.08133282 -0.015602209
0.16567507 -0.16026226 -0.11646264 0.308642 0.11692438 0.0714984 0.13449003 0.16817625

linears.0.3.weight f4 [16, 64]
00000000: 8736 97bd 0b6f 7f3e d1ed 67bd c57f 803e
00000010: 143d 36bd 886f 763e a777 813d 32e7 dfbd
00000020: 0a02 2f3e 294d cd3d 09e1 8f3d b55e 39be
00000030: 1076 0abe 8c55 32be 79c4 503e fc3e 8a3d
00000040: 6cbd 05be dacf 0ebe 71c1 8e3d 5902 483e
00000050: e8e8 9d3d ebdc b0bc d64f 86be 69fc c73d
00000060: 8cd8 25be dce9 59be aa40 cd3d bac3 f33c
00000070: 2499 ee3c 27ba 983e 2514 73be 5519 35be
00000080: 10ef 263e e722 37bd 6967 7a3d 1f31 9e3d
00000090: d845 fb3d d901 383b 86d5 ba3c 0c9a 0bbb
000000a0: 0102 cbbd 7a4b 9dbe bd7b 2dbc 5fb9 233e
000000b0: 53bd 713e 9f60 9dbe d0f3 93bd 22ca 8fbe
000000c0: 4c45 e83d f2da 063e b468 4bbe d69f c6bc
000000d0: 3b83 cdbc a128 46bc b2b0 d4bc eda8 b83e
000000e0: 4893 acbe a8e1 213d e248 fd3d b9f5 4ebd
000000f0: 66ea dc3e a852 533d cad0 60bc 0301 2dbd
00000100: d757 c73c a0d0 00be bee1 fcbd 71bb 57be
00000110: df40 1a3e 1da9 e6bd 879a 9a3d f667 39be
00000120: 00e3 6bbe 103c 7ebe 23c8 60be 3496 b73d
00000130: f47a cf3e 6669 383e f035 6dbe 5ac3 66be
00000140: 1196 4cbd 48f8 b93c a222 adbe 815c a4be
00000150: 1f44 8abe ad45 bfbd 226f 0b3e 2a99 06be
00000160: 0fe1 4f3e 6835 e93d 180f 88bc 13c8 533b
00000170: 8cb9 24be c149 b3be a5c3 a03e ed33 44be
00000180: 5a69 9dbd 49b7 873d 32f1 75be 94b9 fe3b
00000190: 6484 eabb edfd f7bd 92d7 a8be 6080 8abd
000001a0: 9745 f2bd 19a2 813c f80a 4d3e dec7 9c3d
000001b0: 9821 95bc c8d1 03be 9156 1d3e 811b 4a3e
000001c0: e74d c53c 4267 cb3d ee15 853e aed7 b83b
000001d0: 6dd1 7b3e e7c9 0c3d c7df 08bb e962 82be
000001e0: 5a3d ebbd 5997 1fbc 34e0 a0be c2d7 7e3e
000001f0: 31aa 74be e2bd c53e 666d cbbd b872 eabd
00000200: 45bb 8b3d 21f7 9cbd 24ae 4abc 23fb 9dbd
00000210: 0921 67bd d9da 223d e8f7 c13c 487c 07bc
00000220: f764 a4bd 5198 263e f395 3c3e 53d4 39bd
00000230: 3cf6 2c3c 0721 573d b695 603e 163b 4bbe
00000240: d753 3dbd 09dc 42be 2a96 3c3d 2fa0 5e3c
00000250: a47e 1d3d e407 be3c 2c53 c7bd 0da9 483d
00000260: ab6e 98bc 9080 dd3d b5e8 9bbb 4210 cdbd
00000270: f619 74bd d76a 143e 9b6d 1bbe ab42 18be
00000280: d62b babd 97ee 303d 4297 11be bb36 63bd
00000290: aa06 86bd f3ee 8bbe 73d6 0abe 0877 92bc
000002a0: 1425 593d f21a 64be 5e85 8dbd 831b c5bb
000002b0: 29be 403c 39ec ecbd 6765 f23d 08ca a1be
000002c0: 9228 86bd 0b33 573d 110f a9bd d958 edbc
000002d0: 1b0a cdba 1fcb 3f3d 7f2c 38bd 1177 cabc
000002e0: 5e3b 033d a9da a1bc 8de1 113d f7ef a9bd
000002f0: 2e2b 4b3e 937e 45bc e1bd 773d d323 a5bd
00000300: ec79 063d d35a 26be 565f 18bc 9cbc e9bc
00000310: f220 56bd e173 17be 150b 553d b17a 043d
00000320: 10f7 13be 7fb6 f8bd e58a 643e e65f a83e
00000330: 5409 9a3e 719b ebba bfc4 e53a acff 34be
00000340: 51fb 84bd b7ea 6a3e e32f 48bd c751 36be
00000350: a6f6 513c 4b06 c73d e6d6 723e 29ee fc3d
00000360: 9271 3b3e ac36 473e c6f5 2d3e 5bd4 1cbe
00000370: 02e5 1ebe 8810 8cbe c3c4 c93e 2809 55be
00000380: 712e 44be acec 933c e1ad 81be c1fa 98be
00000390: 04b5 68bb e6aa 89be 84bb fcbd 0ad6 3abe
000003a0: e780 03be 2036 e43e f61e 533c d18e 0bbe
000003b0: 8661 9ebe c880 6e3e 4d3b 933e d953 7c3d
000003c0: e8b4 183e 3abe 453e c868 2f3e 8026 693e
000003d0: 48b3 033f 1080 783e 641d 0a3e 4278 20be
000003e0: ce06 093e 84b9 263d 270a 013e ce03 de3e
000003f0: 63c9 04be 98c0 a83e 98ef a2be 47bb eb3d
-0.07383447 0.24944703 -0.056623284 0.2509748 -0.044491842 0.24065983 0.0632165 -0.10932769
0.17090622 0.10024483 0.07025344 -0.18102534 -0.135216 -0.17415446 0.20387448 0.067502946
-0.1306054 -0.13946477 0.0697049 0.19532146 0.07710439 -0.021589717 -0.26232785 0.0976494
-0.16195887 -0.21280617 0.10022099 0.029756416 0.029125758 0.29829523 -0.23738153 -0.17685445
0.16302133 -0.04471102 0.061133776 0.07724213 0.12269181 0.0028077273 0.022806894 -0.0021301536
-0.099124916 -0.30721647 -0.010588584 0.15988682 0.23607378 -0.3073778 -0.07224238 -0.28083903
0.11341342 0.13169459 -0.1986416 -0.024246138 -0.02508699 -0.012094648 -0.025963161 0.3606638
-0.33706117 0.039521843 0.12367417 -0.050527308 0.43147582 0.0515925 -0.013721654 -0.042237293
0.024333877 -0.12579584 -0.123477444 -0.21067597 0.15063809 -0.112627245 0.07549005 -0.18106064
-0.23035812 -0.248276 -0.21951346 0.08964196 0.40523493 0.18008956 -0.23165107 -0.22535458
-0.049947802 0.022701398 -0.33815485 -0.32101825 -0.27005097 -0.093394615 0.13616613 -0.13144365
0.20300697 0.113871396 -0.01660876 0.0032315298 -0.16086406 -0.35017207 0.31399265 -0.19160433
-0.0768611 0.06626756 -0.2401779 0.0077735875 -0.0071568955 -0.121089794 -0.32976967 -0.06762767
-0.118296795 0.015824364 0.20023715 0.07655309 -0.018204495 -0.12872994 0.15365054 0.19737054
0.024084998 0.09931804 0.25993294 0.0056409454 0.24591608 0.034372237 -0.0020885335 -0.25466087
-0.11486311 -0.009740674 -0.31421053 0.24886993 -0.23893048 0.38621432 -0.099329755 -0.11447662
0.06822828 -0.076643236 -0.01237062 -0.07713916 -0.05642799 0.03975949 0.023677781 -0.008269377
-0.0802707 0.16269042 0.18416576 -0.045368504 0.010556754 0.05252173 0.2193211 -0.19846758
-0.046222534 -0.19029249 0.046041645 0.013587995 0.038450852 0.023197122 -0.09732661 0.048989344
-0.018607458 0.10815537 -0.0047579654 -0.100128666 -0.05959507 0.14493881 -0.1517853 -0.14869182
-0.09090392 0.043196287 -0.14217857 -0.055472117 -0.0654424 -0.2733074 -0.13558368 -0.017879024
0.053013876 -0.22275904 -0.069102034 -0.0060152425 0.011764088 -0.115684934 0.11835747 -0.3159945
-0.06550707 0.052538913 -0.08254827 -0.02897303 -0.001564327 0.04682457 -0.04496431 -0.024714978
0.03203904 -0.019757586 0.035615493 -0.08297723 0.1984069 -0.012054103 0.060483817 -0.080634736
0.032831118 -0.16245584 -0.009300074 -0.028532319 -0.052277513 -0.14790298 0.05201252 0.03234357
-0.14449716 -0.12144183 0.22318609 0.32885665 0.30085242 -0.0017975402 0.0017529948 -0.17675656
-0.06493247 0.22941099 -0.048873793 -0.17804633 0.012815153 0.09717997 0.2371479 0.12350113
0.18305042 0.1945445 0.16988286 -0.15315382 -0.15517047 -0.27356362 0.3940793 -0.20804274
-0.19158341 0.01805719 -0.25327972 -0.2987881 -0.0035508284 -0.26888198 -0.12340453 -0.18245712
-0.12842141 0.44572544 0.0128858 -0.13628699 -0.3093378 0.23291314 0.2875618 0.0616034
0.1491276 0.19310847 0.17129815 0.22768593 0.51445436 0.24267602 0.13487774 -0.15670875
0.13381502 0.040704265 0.12601529 0.43362278 -0.12967448 0.32959437 -0.3182342 0.1151033

linears.0.3.bias f4 [16]
00000000: 1b12 e8be 4e49 70be 9fc2 3abe 73ce 75be
00000010: 6a61 81bd 06a3 0bbe 3722 503e 7106 86be
00000020: 097d 9e3d 7b10 78bc 9a0a 6bbe 8c3f 77bd
00000030: 1ded ca3c c050 bd3e 923f ecbd a3d3 803e
-0.45326313 -0.23465464 -0.18238305 -0.24004535 -0.063174084 -0.13636407 0.20325552 -0.2617679
0.07738692 -0.015140648 -0.22953263 -0.060363337 0.024771268 0.3697567 -0.115355626 0.25161466

linears.1.0.weight f4 [64, 20]
00000000: 73e0 283e 05bb d6bc c611 5ebe 032f f4bd
00000010: 29bd 0a3e c4b2 833e 14ba 323e 7b53 3cbe
00000020: 233e 3c3e c300 11be 5689 b13c 3853 423c
00000030: 3a84 06bc e33f 28be 9322 43be 6ded 6bbe
00000040: 0f20 843b b6c6 f9bb f08c 45be 1826 1f3d
00000050: c5f3 b73d 0be0 4cbe 39ce c4bc 292d e0bd
00000060: f5c6 11bd e9e0 27bc 9d1e eabd c3d6 b23d
00000070: 4f51 213d f0b9 5ebe ddb0 803c 40b7 56be
00000080: 5b20 863d c874 543d 117a 9dbe 6483 bd3e
00000090: fc9e a2be 0426 ea3e ba9b 2f3d 5780 de3d
000000a0: 8f24 45be abd6 193e fd4f 23be 6544 403e
000000b0: b1da 2b3c c665 9e3a 351d 5c3c 1ad8 19be
000000c0: 157b 373e 5ca1 013e 9366 17be 2094 1b3e
000000d0: 6ce0 ccbe fa5f c23d d55a 9a3e dc33 78be
000000e0: a29f 473e ed54 71be 5dea a1bd f7ee ecbd
000000f0: 8dc9 d43d 6002 063b 47e0 783e 6833 06be
00000100: c231 033e 7a43 a03d 213e 1ebd 518e 6cbd
00000110: 9a4f 4bbe 6684 853d e1b3 4b3e b042 5d3e
00000120: 7bd9 96be efde 97bd f0fe 37be e40f a8be
00000130: 6f01 31bb a3be 4cbe 7c63 063e 0502 7e3a
00000140: 79a2 8dbe a24e d5bb 5e9f 80be 54d7 d03e
00000150: 2005 44bd dbc2 003a 1c7e 67be 2f6e 3cbc
00000160: 7903 273d 1d67 63bd 50af 3e3d bda7 4e3c
00000170: d57f 933e 59b5 03b9 d82d 3abf 05d4 05be
00000180: 3a18 47be f194 cbbd 7f48 523c 24bc 7abe
00000190: 40b7 1c3d b996 02bf de7d 243f 90d9 b53e
000001a0: 64c2 ed3d 6cf5 2fbd 38e9 8cbc 5a18 b93d
000001b0: 3e05 1bbd 96db cbbe 3a4e 813d b185 be3e
000001c0: 03d8 82bc a6a8 2abe d5c3 0cbe 2456 74be
000001d0: b91f 00be cfba 793e 813e 05be 4485 aebd
000001e0: cb0b 1fbe c4d1 2dbe 80d3 e63d b93c 2a3c
000001f0: 2a83 4cbe 411f 3e3e 2971 873c b2f2 9b3d
00000200: 7b1e eb3c a63d 983d 7ee7 143e 4e29 32be
00000210: 602e 5db7 88eb 92bd 84a3 90bb 1aa3 9abe
00000220: a08f 1f3e 433c d1bd f30a 09be 8f74 c0bd
00000230: 162f 32bd 414d 963e 275f acbe fb5a a8be
00000240: 00ae 27be bb1c b93b 6048 9ebc e451 7d3d
00000250: 6590 22be 23c5 46be f21a 033d 2f9e 84bd
00000260: b81d 483e d626 0a3e b6d8 30be 7490 cfbd
00000270: 4d06 7fbe 58a8 203e b611 183e 8179 d7bd
00000280: 006f 90bd 2d7e 0fbe 4759 723c 49b5 81bd
00000290: 8418 253e 9aca e93e 2915 88bd 5444 15bd
000002a0: 6809 25bb 4894 263e bc37 fdbc 73d1 0ebe
000002b0: d67f b83c 943b 1a3e b569 d53d 5ff1 52bc
000002c0: f964 0b3d 27ef 433e 5cd5 a9bd ee04 4a3b
000002d0: dc43 b0be 757c 73bc 4a55 2e3d 104d e83d
000002e0: 923e 8fbe b993 923e 1918 ef3d 67c2 edbd
000002f0: 9648 29be bc9b 9e3d 56c8 8abc ff3b b1bd
00000300: a65a 2e3e 03c8 ffbd cc69 4abe ba08 803e
00000310: 271e 493e 230b 2bbe 635c 013e 320f 01be
00000320: bb07 e5bc d918 d6bd ec00 4c3e 6f4d 81be
00000330: 0527 a0bd 25ba 91be 1dea 0cbe 082f a7bd
00000340: 36b9 0f3e 08eb 2f3d d933 51be c6cd 88be
00000350: 1c6e 833d ed3e 2abe d242 333e 1535 803e
00000360: 7f65 20be 3405 bdbb f1df 56be 39cc 183d
00000370: 0901 44bd 0e1a 6e3e 31c7 a7be 8e08 dcbe
00000380: 07b3 6a3d 3629 8f3c e806 6ebe 1452 e9bc
00000390: 502a 81be 8bec 813d 9879 36be 59c9 1b3e
000003a0: ecfe fabd dabf 06be 4007 41be 459b 1a3e
000003b0: 6049 26be 89ce 42be 9334 183e a2c3 523e
000003c0: a913 c13d 10a4 a23d 61c7 953e 19df 02bf
000003d0: 02cc 463c 791c 23bb 7b53 33be a386 9fbd
000003e0: 24c1 e03c c4c6 65be cb0e 4dbe 2da4 973e
000003f0: 97e1 cfbe a375 803e 0d76 07be 3e42 0ebf
0.1649187 -0.026212225 -0.21686468 -0.11923029 0.13548721 0.25722325 0.17453796 -0.1839122
0.18383078 -0.14160447 0.021671932 0.011860661 -0.008210236 -0.16430621 -0.19056158 -0.2303979
0.004032142 -0.007622565 -0.19292045 0.03885469 0.08982042 -0.2000734 -0.024024116 -0.109461136
-0.03559013 -0.010246494 -0.1143162 0.08732369 0.039384183 -0.21750617 0.015709335 -0.20968342
0.0654914 0.051869184 -0.30757192 0.37014306 -0.3176192 0.4573213 0.04287312 0.10864323
-0.19252227 0.15023296 -0.15948482 0.1877609 0.010489152 0.0012084774 0.013434698 -0.15023842
0.17918046 0.1265921 -0.14785223 0.15193224 -0.4001497 0.09490962 0.30147424 -0.24238533
0.19494489 -0.23567553 -0.079060294 -0.115690164 0.10390005 0.0020448193 0.24304305 -0.13105547
0.1281195 0.0782537 -0.03863347 -0.05775291 -0.19854584 0.065193936 0.19892837 0.2160747
-0.294628 -0.07415568 -0.17968345 -0.32824624 -0.002700891 -0.19994597 0.13123888 0.0009689632
-0.2766302 -0.006509618 -0.25121588 0.40789282 -0.04785645 0.0004911848 -0.226067 -0.011500879
0.040774796 -0.05551826 0.04655391 0.012613234 0.28808466 -0.00012560691 -0.727262 -0.1306916
-0.19442835 -0.09940518 0.012834667 -0.24485832 0.0382607 -0.51011235 0.6425456 0.3551755
0.11609343 -0.042958662 -0.017201051 0.09037848 -0.037846796 -0.39815968 0.06313749 0.37211373
-0.015972143 -0.16665897 -0.13746579 -0.23860985 -0.12512101 0.24387668 -0.13012125 -0.08521512
-0.15531842 -0.1697455 0.11270809 0.010390454 -0.1997191 0.1856661 0.016533451 0.0761465
0.028701058 0.074336335 0.14541432 -0.17398569 -1.3183424e-05 -0.0717383 -0.004414024 -0.30202562
0.15582132 -0.10216572 -0.13383083 -0.09397232 -0.043501936 0.29355815 -0.33666345 -0.32881913
-0.1637497 0.005649177 -0.01932162 0.061845675 -0.15875395 -0.19411139 0.03200812 -0.064754836
0.19542587 0.13491377 -0.17270169 -0.10134974 -0.24904747 0.15689218 0.14850506 -0.10521222
-0.070524216 -0.14012976 0.014791793 -0.063334055 0.16122633 0.45662385 -0.06644661 -0.036442116
-0.0025182609 0.16267502 -0.030910365 -0.13947086 0.022521894 0.1506179 0.10420553 -0.01287493
0.034031842 0.19134198 -0.08292648 0.0030825692 -0.34426773 -0.014861216 0.042561807 0.113428235
-0.27977425 0.28628328 0.11674518 -0.11609345 -0.16531596 0.07744548 -0.01694123 -0.086540215
0.17026767 -0.12489321 -0.19766921 0.25006658 0.19640408 -0.16703467 0.12632899 -0.12603453
-0.027957788 -0.10453958 0.19922227 -0.2525439 -0.078199424 -0.2846233 -0.13761182 -0.081632674
0.14035496 0.042948753 -0.20429935 -0.26719493 0.06417486 -0.16625567 0.17505959 0.25040498
-0.15663718 -0.0057684425 -0.20983864 0.037304137 -0.04785255 0.23252127 -0.32769158 -0.42975277
0.05729964 0.017475706 -0.23244822 -0.02848152 -0.25227594 0.06343945 -0.17819822 0.15213527
-0.12255654 -0.13159123 -0.18850422 0.15098293 -0.16238928 -0.190241 0.14863805 0.2058244
0.09427578 0.07941449 0.29253677 -0.5112167 0.0121336 -0.0024888797 -0.17512314 -0.07789352
0.027435847 -0.22439104 -0.20025174 0.29617444 -0.406018 0.2508975 -0.13228627 -0.5556983

linears.1.0.bias f4 [64]
00000000: 5850 cf3d e384 903e 4c68 c3bc 74b5 323d
00000010: eba8 5b3d 5213 b3be cd0a ccbd 6133 03be
00000020: 6d94 3cbe 514a 923e e7ef 273e 05b7 8e3e
00000030: 6cfd e93d 7cc5 123e 3433 853e d9dd 483d
00000040: 3651 ce3d 67c2 16be a0a3 bf3e 231f ae3d
00000050: 1455 5e3e 7f5f 0cbe 33fb bb3e 56e6 6c3e
00000060: a25e 4b3e 6668 b63c a889 283d 5edb bb3c
00000070: 3c81 ab3e be8c 67be 936e 1abe bef5 61bd
00000080: dd10 08bd 7ab9 dcbf 8f92 633e 9c5c 443a
00000090: 200d 1bbf 2c9f 643e 059a dcbb 50b2 27bd
000000a0: 350b aa3c 8b06 99bd 51bc 24be 000f 2a3e
000000b0: 2b2d 67be 3dbf dcbd 7553 04bd 3033 4cbd
000000c0: 6bf6 fd3d 5f47 13bd 367f 8fbe 3b24 313e
000000d0: aa31 9dbe 14f7 6bbc 0d8c 4cbd a5f4 d23d
000000e0: e6e5 05be 7dab d73c 2498 1ebe f96f ac3c
000000f0: abc6 49bd 4e7a 7d3e 60d2 09be ad98 b63d
0.10122746 0.28226385 -0.023853444 0.04363008 0.05362789 -0.34975678 -0.099629976 -0.12812568
-0.18415995 0.28572324 0.16400109 0.27874008 0.114252895 0.14333147 0.26015627 0.049039695
0.100740835 -0.14722596 0.37429523 0.085020326 0.21712142 -0.13708304 0.36715087 0.23134741
0.19860318 0.022266578 0.041146904 0.02293175 0.33497036 -0.22612283 -0.15081243 -0.055166
-0.033219207 -1.7244103 0.22223876 0.00074906065 -0.605669 0.22326344 -0.0067322277 -0.040941536
0.020757297 -0.07471951 -0.16087462 0.16607285 -0.22575824 -0.10778663 -0.032306153 -0.049853504
0.12400516 -0.035956737 -0.28026742 0.17298977 -0.30701953 -0.01440217 -0.04993825 0.103005685
-0.1307598 0.02632689 -0.15487725 0.021049486 -0.04926173 0.24753687 -0.13459158 0.08915839

linears.1.3.weight f4 [16, 64]
00000000: 1c72 64bc 04a0 41be dced 533d c531 e03d
00000010: 230d 443e 8164 2bbe b027 ebbd bb5e 3c3e
00000020: d0ce 1dbd 5b1a 39bd ffa4 20be 379f ff3d
00000030: d24f 993e 3d44 acbe ab9d e0be 9d17 5f3e
00000040: c880 59bd b225 863d fdbf d4be 78cc 92bd
00000050: f0bf 923e 962c bfbe ee4d aabe bda0 54bd
00000060: 48a1 e3be 7295 25be 3750 59be 34a4 d4bd
00000070: 9cf2 51be 941d cbbd 4871 19be 0274 88be
00000080: a56f 723d e334 74bf 893b e6bd d727 95be
00000090: 0a4e b13e 483c 813e b59a a9be 2fe7 88be
000000a0: 833e a4be aa10 d23d 26ce 99bd f6bb 443c
000000b0: 1aaa 3f3d f16f 5bbc b58e 823c 58a3 a03d
000000c0: 743f 023e 3e88 8bbe d38b 3abd 7f5e c83d
000000d0: 5eb8 563e 4af2 9a3d 86df 5ebe dba9 22be
000000e0: 167d 33be a481 2fbe 568f 9cbe f4cc 82be
000000f0: 1115 79be e2d4 293d db06 1c3e 943a 96be
00000100: 2330 0f3d 036a 303e 26c3 29be 2b81 eebc
00000110: 595c 10bf 159a 743e 5311 2e3b d8b4 b3bd
00000120: e0ff 0b3e abec 39bd af9a 073c 7e3b 8dbe
00000130: 0ff8 aabe fda2 6f3d 1ef5 5e3e 72fa 05be
00000140: 0a08 463e df78 8abd 2744 583e 56f8 5b3c
00000150: 6cd0 f7be 1a08 433e 53b4 24bd e11c 91be
00000160: b257 8f3e f178 4e3e 17a4 f5bd b2dd fabd
00000170: 225c 813b be63 b8bd 9435 3f3e 0533 a03e
00000180: 1c7c ab3d 52bf a3be b9c5 70be 81ff 2e3d
00000190: c9d7 babe cf48 75be 6806 173e 27b9 873e
000001a0: 2c9f 78bd 8597 b4be bab9 f43e 18a6 cbbd
000001b0: 766c 5a3c bb05 e4bd 5c69 61bb bdad b5be
000001c0: 9a61 0fbd 6e49 71bd 104f 96bd fcab 93be
000001d0: 3d9a a8be f439 c63a a275 c13c 0d00 4b3e
000001e0: 6382 bb3d 947c b33d 8149 e53e 543e b13e
000001f0: 38ec 35bc f149 82bd ef6c 8abe 3a17 0bbe
00000200: d483 bebd 6b80 3b3e b4a0 473e 3677 a43b
00000210: 8f40 95bc 52c9 2f3e f224 ebbd 68cb 8abd
00000220: 6888 46be 7ccc ad3a b8c9 2fbe 2bc7 87be
00000230: add7 973c ea2c 9bbd a302 b6bd 16d8 b53d
00000240: 3a20 f03b f21a cebd c697 64be 73ff 57bd
00000250: fe38 1abf 674e 4bbe 0393 f63b c6af b1bd
00000260: f9f3 98bd 59a5 11be 38c5 62be 49e7 5c3e
00000270: b36c 80be fed3 233e 71d4 d3bd b2ca 07be
00000280: 4e9e 8b3d 7a9d 5dbe 14fb fdbe 1c89 ad3d
00000290: 3e83 7e3d 7fa4 243e 8beb 41bc 0e34 fa3c
000002a0: 190f 853d 8e21 143e 26de 33be 3583 2bbe
000002b0: 3f7b f6bd 98e0 7c3d 582d b5bd 4ebe 09be
000002c0: b22a 843e 27f5 24be 8d3a 05be bc9a b43e
000002d0: 40ee 76bc f718 2cbe 54cf bbbd d826 bcbd
000002e0: c7e9 f0bc cb89 bd3b 54ba 0dbd 415d 97be
000002f0: 2549 7c3b b928 70be 4af1 debd 797d 1c3e
00000300: 8179 e73b 7b7b b43d d031 703e da61 83bc
00000310: d6e8 33be 9d18 1a3e 18ec 98bd 56ef 65be
00000320: 47b1 8b3c a3ce cd3d 761c 6dbe 3eb5 8bbe
00000330: 6453 acbe 0dc2 9b3e 3381 a9bd bd0b b53d
00000340: 0624 a43d 2536 093d 87b7 a83e f11d dbbe
00000350: 498f 0dbc 0561 0d3e 545d 313e 3667 003e
00000360: 2bb9 a83d bd5a 09be 7e7d 8abd fc3d 063e
00000370: d079 d6bc 5f55 8c3e 8aea a33c c700 c83c
00000380: 401f 9fbd 978a 923f c227 59bd 1ecc 663e
00000390: 0239 0b3e a4ba 1d3e b59e 2e3e 5684 583e
000003a0: 696c 583e 6792 583d 05b4 d1bc b38c 363d
000003b0: 0d06 41be 0ed9 1dbe 6ec2 c63c 2886 44bd
000003c0: f957 253e 5dc7 2dbe c1d5 58be f202 6bbe
000003d0: 7a84 3ebe a5ce c4bc 402e 43bd 3c86 96bd
000003e0: d5da 31bd 7fb8 c9bc 87fb aaba 060b a4bd
000003f0: b8b7 1b3e 543e 283e 8ee7 39be ee4f 7fbc
-0.013943221 -0.18908697 0.051740512 0.10946993 0.19145636 -0.16737558 -0.11482179 0.18395512
-0.03852731 -0.04519115 -0.15687941 0.1248154 0.2994371 -0.33645812 -0.4387029 0.21786352
-0.05310133 0.065501586 -0.41552725 -0.071679056 0.28662062 -0.37338704 -0.3326258 -0.051911104
-0.44458985 -0.1617029 -0.21222006 -0.10382882 -0.20502704 -0.09917751 -0.1498462 -0.26651007
0.059188504 -0.953932 -0.11241824 -0.29131958 0.34629852 0.25241303 -0.33125845 -0.2673888
-0.32078943 0.10257085 -0.07510023 0.012007704 0.04679308 -0.013393388 0.015937189 0.07843655
0.12719518 -0.27252382 -0.045543503 0.09783649 0.20968768 0.07565744 -0.21764955 -0.15885107
-0.17528185 -0.17139298 -0.30578107 -0.25546992 -0.24324442 0.041462786 0.1523699 -0.29341567
0.034958016 0.1722794 -0.1657835 -0.029114326 -0.5639091 0.23886903 0.002656062 -0.087747276
0.13671827 -0.04539172 0.008276626 -0.2758445 -0.3339238 0.058505047 0.21773192 -0.13083819
0.19339004 -0.067613356 0.21119748 0.013425907 -0.484012 0.19046059 -0.040211033 -0.28342345
0.27996594 0.20163323 -0.11994188 -0.12249316 0.0039477507 -0.09003399 0.18672782 0.31288925
0.08373281 -0.31981903 -0.23512925 0.042724136 -0.36492756 -0.23953556 0.14748538 0.26508448
-0.060698673 -0.3527185 0.47797948 -0.09943789 0.013331523 -0.111339055 -0.0034395074 -0.35484114
-0.03500519 -0.05890792 -0.07339299 -0.2884215 -0.32930174 0.0015123473 0.023615662 0.19824238
0.09155729 0.08763996 0.44782642 0.34617865 -0.011103682 -0.063617595 -0.27036235 -0.13583079
-0.09302488 0.18310706 0.19494897 0.005019094 -0.01821926 0.17166641 -0.11481656 -0.06777078
-0.19387972 0.0013259794 -0.17166793 -0.2651914 0.01853546 -0.07576926 -0.08887222 0.08879106
0.0073280605 -0.10063733 -0.22323522 -0.05273385 -0.60243213 -0.19854127 0.0075248494 -0.08676104
-0.07468409 -0.14223231 -0.22145545 0.21572603 -0.2508293 0.15998837 -0.10343254 -0.13260916
0.068173036 -0.21642104 -0.4960562 0.08473417 0.06213688 0.16078375 -0.011835943 0.0305424
0.0649702 0.14465925 -0.17565212 -0.1674927 -0.12035226 0.061737627 -0.08846539 -0.13451502
0.25813824 -0.16109143 -0.13010617 0.35274303 -0.015071452 -0.16806398 -0.09170404 -0.09187096
-0.029408349 0.0057842485 -0.034601524 -0.29563335 0.0038495746 -0.23453034 -0.10885866 0.15282239
0.007064045 0.088126145 0.23456502 -0.01603787 -0.17569289 0.15048452 -0.07466906 -0.2245458
0.017052306 0.100491785 -0.23155388 -0.27286714 -0.33657372 0.30421486 -0.08276596 0.088401295
0.080146834 0.033498902 0.3295252 -0.4279628 -0.008640119 0.13806541 0.17320758 0.12539372
0.08238443 -0.1341352 -0.06762217 0.13109583 -0.026181132 0.27408883 0.020009298 0.024414433
-0.07769632 1.1448544 -0.05301643 0.22538802 0.13595966 0.15403229 0.1705273 0.21144232
0.21135105 0.052873995 -0.025598535 0.044567775 -0.18849964 -0.15414831 0.024262633 -0.047979504
0.1614684 -0.16970582 -0.2117529 -0.22950342 -0.18605223 -0.024024317 -0.04765153 -0.07349822
-0.043421585 -0.024624107 -0.0013044932 -0.08009915 0.15206802 0.16430026 -0.18154737 -0.015583022

linears.1.3.bias f4 [16]
00000000: 1158 eabe 6eb9 273e a7d1 61be 5d82 ae3d
00000010: ebe8 0c3e a637 bdbe b4fa e2bd b71d 07be
00000020: 4f39 0bbd 5ed0 fbbd 95e2 433c 01e2 f33a
00000030: b288 30be ab90 233e 1f01 17be 8da7 803e
-0.45770314 0.1637933 -0.22052632 0.085209586 0.13760726 -0.3695652 -0.11082974 -0.13194929
-0.0339902 -0.12295602 0.011955877 0.0018606783 -0.17239645 0.15973155 -0.14746521 0.2512783

linears.2.0.weight f4 [64, 20]
00000000: 9dde 4b3e 5cd5 e03e c47e 2abd ab39 59bf
00000010: ba5e 48be 578b 8bb8 541b c83d bb9a 053e
00000020: 150c 7d3e 7348 963d 9c60 bebc 45d7 18bd
00000030: 588a 073f a708 fc3d 2f03 77bc e7f7 e3bb
00000040: 8140 e5bd 189c dfbe c9a5 353e 5f71 3bbe
00000050: 5a33 98be 523c afbc 2eff 02bd ff1d 4f3d
00000060: aa05 5f3e 02a7 823e 59c1 39be 3aaa 68be
00000070: aed1 343c 2437 bf3c f1ae c93d c2ca 24be
00000080: 5aa2 4ebd d122 243e 0bef 22bd cf0e 443e
00000090: 7606 f3bd 2b33 6ebe d1ed 2d3d 771c 0cbe
000000a0: a122 a83c 0363 193e b494 383e 8d44 80bc
000000b0: 54ae d1bc 60ce cdbc a1c9 943d 5fa6 bdbd
000000c0: 7973 df3c ba84 253e 138b 1d3d 5920 34be
000000d0: 23aa 1fbd 308a eabb bf08 96bd f5a1 1b3e
000000e0: fdfd 0e3e 4231 2ebe 5c91 473e d486 2e3d
000000f0: c53d d5bd 9859 863e c1be 83be 02e3 14be
00000100: 79d3 303e f4d6 06bf 9115 6f3e 8c76 103e
00000110: 35e8 233c 4e77 44be a487 6b3c d5a4 1cbd
00000120: 50b7 30bf 8882 6ebe fd1e c03d 8e4d a4ba
00000130: 29c5 92bd 0d52 4f3e dbdb 263e 37fe cebc
00000140: 93a1 8dbe f702 743e 2e20 35bc 8c71 f93d
00000150: 5daf 97be b568 18be ff6e 30be 157f 23bd
00000160: 133a 153e eae6 f73c 6eb9 e53d f48f 043d
00000170: 36fc 723c 9a15 043e 2f9e ff3d 0536 3b3e
00000180: 08d1 89bd 0945 87be 0549 53bc 036b 9b3d
00000190: 2fc2 9a3e bb9a 85bd cc6c db3d 3281 873e
000001a0: a443 dcba c754 0535 0651 5bbd a373 503e
000001b0: 57ee 043e 795f ec3d 6387 853d 483d 873d
000001c0: 481e 3fbe 1be2 0fbe ccc6 cdbe 0013 c03d
000001d0: 60e9 8ebe ce02 8e3d d2aa d53d 67e7 adbe
000001e0: d440 653e 4185 953e d73c 953e f5aa 5abd
000001f0: f432 423e d1f9 663c 205d 0b3e 84c6 0dbe
00000200: 4bad 10be 0006 6c3e 303f 68be 1803 10bf
00000210: ba12 05bd a172 a63c 93b5 58be 3ade 9e3e
00000220: cf93 a3bd c9ac 0ebd 1361 95bd a805 4a3e
00000230: c6fa 3abe b045 c9bc 534d 2b3e bd9a b9be
00000240: 8004 9dbe 9425 b83d 283f 593e ce9a 7dbc
00000250: e628 22be 5dd3 f23c e9ea 273e be7a 06bd
00000260: e316 99bd 486a e23d d7b2 9c3d e334 dd3d
00000270: 084d 2cbd 417c 65be 54a6 483a 4e0e 613e
00000280: 1161 88bd ecc9 6abf 6d8f c8be 964a 13bf
00000290: 5dc0 4fbe bc59 45ba 2afe 5b3e 593a 3b3e
000002a0: 22c8 c53d cea9 503e 8c04 173e 63c9 033e
000002b0: 653d cebe 8eb7 88be e4a2 ab3d 14ec f0b9
000002c0: 1ff7 1dbe 87d7 db3e 16a1 d73e 6614 2bbd
000002d0: 3f1f e63e e2f5 16be cf45 143d 60b6 183e
000002e0: d2b7 f43d 9bf7 c03e a951 533e ed7f 333e
000002f0: 4853 d4bd 6d76 003e 55da 543e e2b8 c93c
00000300: ed41 663d 3b28 0ebe ad1e 0ebe d44e 823d
00000310: 3c0e e8bd b126 6b3d 588a 313e 98ec 2c3e
00000320: bbb2 2e3f 56f2 82be a615 593d 7191 bb3d
00000330: b0d6 be3c b69b 9eba 3b64 47be 0667 0fbd
00000340: cbbf b33d 0017 48be 3554 4bbe 0c74 313d
00000350: 8722 c43e fc13 7d3d aebe d6bd e946 ce3e
00000360: b978 04be 40fe 7ebd ce38 e6bd 0665 9bbc
00000370: c2a6 5a3e b9da 2fbe 3a92 b13e 9e2b 72bd
00000380: 392a 643e f825 073f c060 c5bd 561a 11bd
00000390: f987 b2bc 8663 163e a047 19be f1eb 49be
000003a0: d645 413e 03b1 95bb 3a42 62bb dc62 3c3c
000003b0: da8a b1bd dd90 2d3e 6849 babd 93e8 803e
000003c0: b352 26bd 2c18 45be 8b0c 21be 44c8 1bbf
000003d0: dda6 343d f151 a9bc b31e 6a3e 119a ff3b
000003e0: 13d0 233e e7f2 09be 7bd6 45be 3e2a edbd
000003f0: 0dd4 d63b 2e5a f2bc 4e73 883d 449b 80be
0.19909139 0.4391278 -0.0416248 -0.8485362 -0.19567385 -6.6539906e-05 0.097708374 0.13047306
0.2471164 0.07338037 -0.023239426 -0.037314672 0.5294547 0.12306338 -0.015076443 -0.0069570425
-0.11193944 -0.43673778 0.17739023 -0.18304966 -0.29726678 -0.021391068 -0.03198164 0.050565716
0.21779504 0.25518042 -0.18140163 -0.22721186 0.01103632 0.023341723 0.098478206 -0.16092971
-0.0504478 0.16028906 -0.03977875 0.19146274 -0.11866467 -0.23261707 0.042463128 -0.13682733
0.020524325 0.14979176 0.18025476 -0.015657688 -0.025595821 -0.025122821 0.0726502 -0.092602484
0.027276741 0.16163912 0.03846271 -0.17590465 -0.038980614 -0.0071575865 -0.07325887 0.151985
0.13964076 -0.17010978 0.19489044 0.04260905 -0.10412172 0.2624023 -0.2573147 -0.14539722
0.1726817 -0.5267174 0.2334807 0.14107722 0.010004093 -0.19186136 0.014375601 -0.038243134
-0.6902971 -0.23291981 0.093809105 -0.001253532 -0.071665116 0.20246144 0.16294806 -0.025267703
-0.27662334 0.23829256 -0.0110550355 0.121798605 -0.2962598 -0.14883693 -0.17229842 -0.039916117
0.14572935 0.030261476 0.112170085 0.032363847 0.01483064 0.12898865 0.12481343 0.18282326
-0.06729323 -0.26419857 -0.012895827 0.0758877 0.30226275 -0.06523653 0.10714111 0.26465756
-0.0016804826 4.966973e-07 -0.053544067 0.20356612 0.12981544 0.115416475 0.065199636 0.06603485
-0.18663895 -0.14051096 -0.40190732 0.09378624 -0.27912426 0.06934129 0.10432972 -0.33965608
0.22388011 0.29203227 0.2914798 -0.053385694 0.1896475 0.014097647 0.13609743 -0.13845259
-0.14128606 0.23049164 -0.22680354 -0.5625472 -0.032488562 0.020318331 -0.21163015 0.3102892
-0.079871766 -0.03483275 -0.07293906 0.1972872 -0.18259725 -0.024569362 0.16728716 -0.36250868
-0.30667496 0.089915425 0.21215498 -0.015478803 -0.15835914 0.029641801 0.16398205 -0.0328319
-0.074750684 0.11055428 0.076512985 0.10801103 -0.04206565 -0.2241068 0.00076541794 0.21978113
-0.06659139 -0.9171436 -0.39171925 -0.57535684 -0.20288225 -0.0007528325 0.21483675 0.18283977
0.09657313 0.20377275 0.14747828 0.12869792 -0.40281215 -0.2670254 0.08380678 -0.0004595226
-0.154263 0.42937872 0.42115086 -0.0417675 0.44945714 -0.14742234 0.036199387 0.1491332
0.119491234 0.37688908 0.2063662 0.17529269 -0.10367447 0.12545176 0.20786412 0.024624292
0.056215215 -0.13882534 -0.1387889 0.063626915 -0.1133084 0.057409946 0.1733793 0.16887128
0.6824147 -0.25575513 0.05299916 0.091586 0.02329573 -0.0012100849 -0.19471829 -0.03501036
0.08776816 -0.19540024 -0.19856341 0.04332356 0.38307592 0.061786637 -0.10485588 0.40288475
-0.12936677 -0.06225419 -0.112413034 -0.01896907 0.21352676 -0.1717328 0.34681875 -0.059123628
0.22281732 0.5279231 -0.09637594 -0.035425507 -0.021793352 0.14686403 -0.14968729 -0.19718911
0.18874297 -0.0045682206 -0.0034524337 0.011498179 -0.08669062 0.16949792 -0.090960324 0.2517744
-0.040606212 -0.19247502 -0.15727441 -0.60852456 0.044104446 -0.020668956 0.22863273 0.0078003486
0.15997343 -0.13471566 -0.19320099 -0.11580323 0.00655604 -0.029584017 0.066626176 -0.25118458

linears.2.0.bias f4 [64]
00000000: 1182 ce3e 6d3f 053e 315c 5e3d 3f14 733e
00000010: a4b6 723d cccf 143e 2570 b13d 2145 f73d
00000020: 213f 32be 05a1 d63d 9de8 c03c ae75 ac3e
00000030: 6fb3 1f3e 3881 a6bd be6e 243e d9db e5bd
00000040: 02fc 50bc 6069 313e 8bfd 5cbd ff64 e03d
00000050: 9aa4 1f3c 894a 8abd 0c1f 803e 21e4 243e
00000060: 681f 9dbe 9d84 59be 0e63 49be 3ef4 3b3d
00000070: 9999 b0bd a8bc 8dbe 6547 bfbd 5e83 f7bc
00000080: 31ce 633e 73c0 4c3e 6bc3 e63d e5ca ab3d
00000090: fbf8 41be c865 3c3e 6075 21be 4197 08be
000000a0: 1cba 123e 2830 383e 9171 e93c 25ec 28be
000000b0: aced b43d 87b9 4bbe 1b42 88bd 6bfe 163c
000000c0: 7cbd d53d 6d78 e13e d857 273e e1f5 b1bd
000000d0: 57ff 08bc b53c 323d 7945 9d3e df40 3dbd
000000e0: 0bf5 853d db7d 82be 2f9c 673d d16c ce3e
000000f0: 148e 0abe dc47 853b 93a6 cdbd d51c f23d
0.40333608 0.13012476 0.05428714 0.23738192 0.05925621 0.14532393 0.08663968 0.12073732
-0.17406894 0.10479931 0.023548419 0.33683532 0.15595792 -0.08130115 0.1605787 -0.11223573
-0.012755396 0.17325354 -0.053952735 0.109567635 0.009743834 -0.06752498 0.25023687 0.1610265
-0.30688024 -0.21241994 -0.19666693 0.045887224 -0.086230464 -0.27682996 -0.09339789 -0.030214008
0.22246625 0.19995289 0.11267742 0.083883084 -0.18942635 0.18398201 -0.15767431 -0.13338949
0.14328808 0.1798712 0.028496535 -0.16496332 0.08834395 -0.19894992 -0.066532336 0.009215931
0.10436532 0.4403719 0.16342103 -0.08689476 -0.008361659 0.043514926 0.30717066 -0.046204444
0.06540879 -0.25486645 0.056545433 0.40317395 -0.13530761 0.004067404 -0.10041537 0.118219055

linears.2.3.weight f4 [16, 64]
00000000: cff5 cc3d e031 6abe 657e ea3d 4f52 c1bd
00000010: 4554 84bc 9ebc 72bd 783a 44be 87ed 1abe
00000020: 5ce2 bf3e 8e1b cf3d 9625 913d da6c c4be
00000030: 1515 e9bd 9cb3 f13d ab75 21be 7d8f cd3c
00000040: 22ee f2bc 3a99 82be 10c1 32be 25af 83be
00000050: 44ab 70be 0485 eabc 1e2e 3d3d 3e7f 3bbe
00000060: 21ea ac3e 9807 d43d 1dc5 6b3e 66d2 453d
00000070: a2a6 f83d daa6 193e 426e 85bd 190b 48be
00000080: 3209 f0bc a110 543e 3279 1e3d 1834 d63c
00000090: b0c7 cdbe 27d0 1d3d d6f2 cbbd f53f 22be
000000a0: db7e 1bbe b665 eb3d 193a f83c a683 013d
000000b0: 314a 83bd 9100 2b3e 24ed b5bd b354 b0bd
000000c0: 0327 d5bc 2167 8cbe 618f b5bd c00b fcbd
000000d0: 4cf6 9abd 91de c83d 83f1 74be ecf2 e7be
000000e0: 1cef 8f3c 69a9 6ebd 602e 5bbe ad3a f53d
000000f0: 5b69 0abe 9f73 943c f2e5 dcbb 0b1a 04be
00000100: 2f47 adbe 7155 c5bb cb13 0ebe bf03 9abd
00000110: d71a 443e b9c2 04bd 23cf 0b3e ba70 1f3e
00000120: 0b40 e4be c537 dabc 0768 76bd e6e5 783d
00000130: e5c7 14be 02b4 bb3d 7697 b03e 2a86 053e
00000140: a13d 2dbe a1c9 923b bffb bcbd d0a1 063d
00000150: aaba c23d 9d65 473e 7a63 3bbc e7c8 843b
00000160: 00d1 83be 129a 3c3b 1f4e 57be 9eed b43d
00000170: d203 433d 2330 88bb 9962 3fbc 3d50 ae3d
00000180: bb62 703e 47d3 14bc 0931 b8bd bd5b bb3d
00000190: 058b c23e a22a e4bd 72ce 7bbd d654 293d
000001a0: 2018 1f3e 8a73 783d 410a dfbd 54c4 4f3e
000001b0: 4090 e43d 655d 7237 60fc 593e 3340 f0bd
000001c0: 0ce4 99bd f27e 913c 8f56 b5bd 9ee3 483e
000001d0: 987c 183e ca4b 483e 417a 833d 1155 503c
000001e0: bcb1 8ebc 64a9 7dbd 3845 36bc 7e14 b5be
000001f0: 2360 103e 2473 7fbd d926 973e 1f45 d8bd
00000200: 1c57 523e f253 19bc dacc 273e 53a7 283e
00000210: 2675 633d 12d5 ab3d 31c9 ea3d 408b 053a
00000220: bcdd 9bbe fdab 8fbe bf36 b9be e887 2cbd
00000230: 44c0 bf3d 4eee 42bb b30c 163e 52b7 90be
00000240: 8800 043e 6c9e 0e3e 7350 a53e f35c a5bc
00000250: 6803 63bc 2102 a33d b71e b9bd e95d 9e3e
00000260: 47e9 b3be a5f7 2e3e ff74 2bbe 5575 113d
00000270: 5fa0 2f3e eae8 bf3c b347 81bd 1c17 9fbb
00000280: f1d4 3f3e a250 b1bd 5fd8 b2bc d918 28be
00000290: 584f 973e 5e7f 2b3e 666b 283c 448c 5cbb
000002a0: bd09 083e 0f8c 79bd e91b 32bd ede6 36bd
000002b0: 9fea e7bb 31f8 023b 75c0 f93d 5b0d d7bd
000002c0: 4d89 af3d 44f4 b9bc 54ec 8abc c33b 23bd
000002d0: 66da d93c 9590 0cbe d1d8 1a3e 90d5 e3bc
000002e0: 7f6e 923e 8cec 3b3e 0056 8b3d 9110 9bbd
000002f0: fb4d 66be c1e7 7dbc 9d93 2abe 8990 6a3e
00000300: 3ab4 4abe 45fa 133e 9c65 0c3d 3e57 333e
00000310: f1b3 04be 52f8 cdbe 68be a43e cc48 923d
00000320: 4689 99be af72 68be cdbf 43be c0ff 913d
00000330: 35ba c7bd ad79 c7be f791 7b3e 09d4 dbbe
00000340: bcdb 143d 9059 a7bd 0ec1 c33d 0815 883d
00000350: 1897 71bd 0869 643e 70b7 c2bd 9a07 b8bd
00000360: 701e 12bf 5721 f1bd 86b2 e5bb 6820 573d
00000370: 5db7 dc3c 116e 2dbe 511f f83a 6335 6bbd
00000380: 9466 9b3d 0c0e 9fbe 3a82 2b3e da47 2bbe
00000390: 082c 913e 02c3 183e 2129 883d 1665 b93d
000003a0: 3d9b d93d 46d9 d9be 0628 53be 77d0 5abe
000003b0: 3abe 63be 22e1 373c f8f5 e33d bf7f 4bbe
000003c0: 8de4 b93c 2a8b 0f3f 5fea 74be fea8 10be
000003d0: 234d 983c 28f4 05bd c6ce d03d afa5 6e3d
000003e0: c2c2 52be 3611 a3bd 2c5f c6bd d531 1cbe
000003f0: 178f 49be 94e9 7cbe 29df 8ebe a315 90bd
0.10007822 -0.22870588 0.11449889 -0.09439527 -0.016153464 -0.05926191 -0.19162929 -0.15129672
0.37477386 0.101126775 0.07087247 -0.38364297 -0.11380974 0.11801836 -0.15767543 0.025092835
-0.029654566 -0.25507528 -0.1745646 -0.25719562 -0.23502833 -0.02862788 0.04618656 -0.18310258
0.33772376 0.10353011 0.23024411 0.048296355 0.12141158 0.15005055 -0.06515171 -0.19535483
-0.02930126 0.20709468 0.0386898 0.026147887 -0.40191412 0.038528588 -0.09958427 -0.1584471
-0.1518511 0.11494009 0.03030114 0.03161969 -0.06410635 0.16699435 -0.088831216 -0.08609905
-0.026019579 -0.2742243 -0.08865238 -0.12306929 -0.07566509 0.09808076 -0.23920254 -0.45302522
0.01757007 -0.05826703 -0.2140441 0.11974082 -0.13516752 0.018121539 -0.006741279 -0.1290056
-0.3384337 -0.0060221483 -0.13874738 -0.07520246 0.19150864 -0.032412264 0.13653235 0.15570346
-0.4458011 -0.026637921 -0.060157802 0.060766123 -0.14529379 0.09165193 0.34490556 0.13039461
-0.16918041 0.0044796024 -0.09227704 0.03286916 0.095082596 0.19472356 -0.011437291 0.0040522697
-0.25745392 0.0028778356 -0.21025895 0.088343844 0.047611065 -0.004156129 -0.011681222 0.08511398
0.23475163 -0.009083576 -0.08993728 0.09148357 0.37996688 -0.11140944 -0.06147618 0.04134067
0.15536547 0.06065706 -0.10890628 0.20289737 0.11160326 1.4446069e-05 0.2128768 -0.11730995
-0.075141996 0.017760728 -0.088544 0.19618079 0.14891279 0.19560161 0.064198025 0.012715594
-0.017418735 -0.06192912 -0.0111249015 -0.35367197 0.14099173 -0.062365666 0.29521826 -0.10560059
0.20541042 -0.009358393 0.16386738 0.16470079 0.055531643 0.08390249 0.114641555 0.0005094297
-0.30442607 -0.28060904 -0.3617458 -0.042121798 0.09362844 -0.0029744091 0.14653282 -0.28264862
0.12890828 0.1392762 0.3228794 -0.020185923 -0.013855793 0.079593904 -0.090390615 0.30931023
-0.35138914 0.17086656 -0.16743849 0.035512287 0.1715102 0.023426492 -0.06312504 -0.00485505
0.18733574 -0.086579576 -0.02183169 -0.16415729 0.29552722 0.16747805 0.010279512 -0.003365294
0.13284965 -0.060924586 -0.04348365 -0.04465382 -0.0070775296 0.001998436 0.121949114 -0.10500594
0.0857111 -0.022699483 -0.016958393 -0.039851915 0.026593398 -0.13727029 0.15121771 -0.027811795
0.28599927 0.18351954 0.068035126 -0.07571519 -0.22490685 -0.015497149 -0.16657872 0.22906698
-0.19795313 0.14450939 0.03427659 0.17513749 -0.12959267 -0.40228516 0.32176518 0.07142791
-0.29987544 -0.22699998 -0.19116135 0.071288586 -0.09752313 -0.3896002 0.245674 -0.42935207
0.036342368 -0.081713796 0.09558307 0.066446364 -0.058981985 0.22305691 -0.09507644 -0.08985825
-0.57077694 -0.11773937 -0.007009807 0.05252114 0.026942903 -0.16936518 0.0018930231 -0.05742396
0.075879246 -0.31065404 0.16748896 -0.16726628 0.28353906 0.1491814 0.0664847 0.09052484
0.106253125 -0.4254858 -0.20620736 -0.21368586 -0.22240534 0.011223109 0.11130899 -0.1987295
0.02269199 0.5607172 -0.2391753 -0.14126965 0.01859147 -0.03270355 0.10195689 0.058263477
-0.20582107 -0.07962267 -0.09686121 -0.15253384 -0.1968349 -0.24698478 -0.27904633 -0.07035377

linears.2.3.bias f4 [16]
00000000: 009f abbe f33c 94bd 5e39 00be 758c 883d
00000010: 7a09 80be 1d67 47be 9a20 8abc 7e0f 9cbe
00000020: ea61 7dbe 8e24 0bbe a6e7 bf3c 775f 10be
00000030: bd2b b0bd 45c8 aa3e a2d5 84bd 526c d7bc
-0.33519745 -0.07238188 -0.12521884 0.06667415 -0.2500723 -0.19472928 -0.016861249 -0.3048057
-0.24744383 -0.13588163 0.023425888 -0.14098917 -0.086020924 0.3335592 -0.0648606 -0.026296768

linears.3.0.weight f4 [64, 20]
00000000: 7c16 4d3e d296 453e c3ea 34be 0f1e bd3e
00000010: 40ed 3cbe 1e4a be3a e4f5 383e 3325 34bc
00000020: 6acb 86bc 541f 8f3e 7844 aabd b5ac cdbd
00000030: f5db 5fbe 8eee 0a3e 1294 253d f459 393c
00000040: acc4 473e 515b 0f3e 825c bc3d d65d 82bc
00000050: 742b 9fbe 3732 73be 553a cf3e daca 0ebe
00000060: bb04 45be f280 0e3b f35e 2dbe 27f2 433e
00000070: f836 d7bc 25ff 4dbd 3906 59bd 61fe 183e
00000080: c77e 00bb 775d 4fbe 5fd6 35be 3057 e6be
00000090: 3d96 57be f016 103e 2e1a a13d 3e44 273d
000000a0: aa29 4d3d d870 6cbe ce72 d8bd bc08 973e
000000b0: 380e 4fbb 73d7 123c 041d 413e b2a3 933d
000000c0: 1197 5b3e 3fe6 9c3d 3550 1dbe 3f31 95be
000000d0: 1127 8c3d b861 03be 332f 6d3e fe56 813e
000000e0: ce42 91bc 8b25 aa3e 716f 123d faa0 d9bd
000000f0: ee41 493e 9751 f23d 2c64 273d 356f 00be
00000100: d3ed fe3c 46bd 313d 5cf8 5bbd 9af7 03be
00000110: 3756 7e3c 81c0 fc3d 7a24 193e 46f4 d6bd
00000120: 9b8a 9a3d 44ec 0d3d 7162 443d 5573 c33d
00000130: 5222 183b 54c3 87be 2175 333e 3e17 343d
00000140: b567 823e 0415 653e fe03 37be 9ead 28be
00000150: 7e7b 6f3c 4c12 613c 2628 493b 3c95 d3bc
00000160: fc72 3dbe 073b d33d 034d e03d a0ca 29be
00000170: 402b c53d 9cf8 423e cb42 703d 0dcc 79bd
00000180: 54cb cbbd 685a a63c d2d8 803d 5f1f b2bd
00000190: c00f ad3e 5a51 983e 385e 353d cb32 bbbe
000001a0: 5de9 8e3d 5276 59be ec89 39be 58bf 6b3d
000001b0: 69fd 54be 4ebe edbd 0f6b 093e 1cb6 f73d
000001c0: e1a8 763d c3b7 863b e6b8 c1bd e680 7bbe
000001d0: b531 3e3c 2958 fa3d d5ed 2d3e 5857 85bd
000001e0: 91d4 7839 158f b53e 3aa0 d63e b908 8d3e
000001f0: 9510 ee3d 08dd 2dbd b9a4 cdbd 715b e0bd
00000200: ee1e 133b e535 543e d8d4 943d f490 d63d
00000210: 44df ad3e a4a6 d83d 2bb5 4a3e ffa3 bfbb
00000220: e0cf 0f3e dc6a 8d3d 5b4b 5bbe ce94 283e
00000230: 9a0b 81bd c598 99bc 3ed4 963e 826b 6a3d
00000240: 4bd0 8dbd 54bc 4c3d dcfb a1bb fd76 c5bd
00000250: 9675 553e ca07 27be 7763 cabd 78cf cdbd
00000260: be46 603e 438d 24be d63f 90bd 5787 693e
00000270: f4fc b03d 6b9c 9c3d 9d75 b63d f6d0 4bbd
00000280: 9c4a 12be e458 2cbe 1dd7 bfbe e13a 5b3e
00000290: b686 473d 5921 fbbb 940c 373e 441c 3dbe
000002a0: bb66 4ebe 2f6c 173e cf18 e33d 458b 2f3d
000002b0: f24c 9ebc 7c58 463d b169 f1be 6b81 493d
000002c0: b4a5 f3bc c0fe 583e f7dd 663e 4406 a8bd
000002d0: 9e23 36be e717 c7bd 2e3a 2fbd b4e8 e2bd
000002e0: 54d7 bfbd 30fa a4bc 968d 073e 48e2 eebd
000002f0: 38f6 7a3d 7c63 63be f7dc 20be deaa 01be
00000300: eff8 a6bc 099b 363d 4928 013e b23f 17be
00000310: 1128 1abe 39fe 903e a401 d63d f968 b43d
00000320: b4e4 fbbd 8e20 713e e00a a13e b94d b93e
00000330: a954 ba3d 0157 6e3d 29a0 c63d 07be 7e3d
00000340: 56bc 3dbd c4d0 2cbe 9ec4 573e 4eb2 92be
00000350: b848 88be 6995 ef3d 8484 f3bc 5944 ce3e
00000360: 9212 333d 331a 2fbe c61b 753d cc83 7a3e
00000370: 3b0b bebe 2e83 f33d e327 a23e 94c8 863e
00000380: 28d8 113e 29ae 3d3e 4048 b83c 55cf 2abe
00000390: b2ca 1abe f769 543d 28d7 143e 8ab8 25be
000003a0: 0dee 6f3e 9eea f9bc 42c6 55bd adcf 3fbd
000003b0: e1bc 1ebe 9e4b 153e 320f 0b3d f09a 80be
000003c0: 1459 0f3e 6dd5 483e 9770 c53e d709 ff3c
000003d0: b39c fcbd e294 873a 1122 00bd 0971 f6bd
000003e0: 7b62 a63c 52eb 463e 8f94 4b3e 19ca 953c
000003f0: 9970 30bc 08ca 16be c370 9f3d 4126 25bd
0.20028108 0.19295815 -0.1766768 0.36936995 -0.18449879 0.0014517938 0.1806255 -0.010995197
-0.016454417 0.2795359 -0.08313841 -0.10042707 -0.2186125 0.13567564 0.040424414 0.01131295
0.19508618 0.13999678 0.09197332 -0.015913885 -0.3108784 -0.23749624 0.4047419 -0.13944569
-0.19240086 0.0021744338 -0.16930752 0.19135343 -0.026271328 -0.050292153 -0.05298445 0.14940788
-0.0019606815 -0.20250498 -0.17757557 -0.44988394 -0.21053405 0.1407125 0.078663215 0.040836565
0.050088562 -0.23089921 -0.10568772 0.2949885 -0.0031594168 0.0089625 0.18858725 0.07208957
0.21444346 0.076611035 -0.15362628 -0.29139134 0.06843389 -0.12830245 0.23162536 0.25261682
-0.01773205 0.33231768 0.03575081 -0.10626407 0.19654056 0.11831968 0.040867016 -0.12542422
0.031119263 0.043393396 -0.05370365 -0.12887421 0.015523485 0.12341405 0.14955321 -0.1049581
0.07545968 0.03464915 0.047945444 0.09543482 0.0023213816 -0.2651621 0.1752515 0.043967478
0.25469747 0.22371298 -0.17872617 -0.1647248 0.014616845 0.0137372725 0.0030694096 -0.025827996
-0.18500894 0.10313993 0.10952189 -0.16581202 0.0962739 0.1904015 0.05865745 -0.060985614
-0.09950891 0.020306781 0.06291355 -0.0869739 0.3380108 0.29749566 0.044279307 -0.3656219
0.06978104 -0.21236542 -0.1811902 0.057555526 -0.20799793 -0.11608563 0.13419746 0.120952815
0.06021965 0.0041112616 -0.09459095 -0.2456089 0.011608531 0.122238465 0.16985257 -0.065108
0.0002373031 0.35460725 0.41919118 0.27545717 0.116242565 -0.04244712 -0.10041184 -0.10954941
0.0022448855 0.20723684 0.07267159 0.10476866 0.339594 0.10578659 0.19795673 -0.0058484073
0.14044142 0.069051474 -0.21415465 0.16463014 -0.06301041 -0.018749604 0.29458803 0.057231434
-0.06924494 0.04998429 -0.004943354 -0.09641836 0.20845637 -0.16311565 -0.09882253 -0.10049337
0.21901986 -0.16069512 -0.07043426 0.22805534 0.08641997 0.07647022 0.08909152 -0.049759828
-0.14286274 -0.16830784 -0.37468806 0.2140918 0.048712455 -0.0076638875 0.17875892 -0.18467814
-0.20156376 0.14787363 0.11088716 0.042857427 -0.0193238 0.04842423 -0.4715095 0.04919569
-0.0297421 0.2119093 0.2254561 -0.0820432 -0.17787024 -0.09721356 -0.042780094 -0.11079541
-0.093672425 -0.02013883 0.13237604 -0.116642535 0.06126997 -0.22205919 -0.15709291 -0.12662837
-0.020382373 0.044581447 0.12613024 -0.14770392 -0.15054347 0.28318956 0.10449532 0.088090844
-0.12299481 0.23547575 0.3145361 0.3619211 0.09098179 0.058188442 0.09698517 0.062192943
-0.04632219 -0.16876513 0.21071097 -0.2865166 -0.2661798 0.116984196 -0.029726274 0.4028652
0.043718882 -0.17099838 0.05984094 0.24464339 -0.37117943 0.11890255 0.31671056 0.26324904
0.14242613 0.18523468 0.022495389 -0.16680653 -0.15116385 0.05185887 0.145352 -0.16183677
0.23430653 -0.030507382 -0.052191027 -0.046828914 -0.15501739 0.14579627 0.03395004 -0.25118208
0.13998824 0.19612665 0.38562462 0.031132622 -0.123345755 0.0010344053 -0.03128249 -0.120332785
0.020310631 0.19425705 0.1988089 0.018284844 -0.010769033 -0.14725506 0.077851795 -0.040319685
