model/final_cleaned1_trained_after_data_argument28_model6555.pth (torch, 80967 bytes, 24 tensors)

linears.0.0.weight f4 [64, 22]
00000000: 0671 023e e481 aebd 1663 40be 42ac f83c
00000010: 9ecd 073e f37c 38bb 551a 3cbe 08f1 223e
00000020: dcf9 553d 734b 19be dd40 bcbd c0e4 43be
00000030: 61d5 8e3d 66cb 33be 013f 26be 1ec0 39bd
00000040: 62d7 4fbd 4abb fb3d 46b3 383e 2a88 6abd
00000050: d1e1 973d d41b 53bd 7f8b 093e a922 8e3a
00000060: f7db 2fbe 3b95 adbe c4e2 153e 9a50 9c3b
00000070: a223 2abe 01ef dc3d bee2 043e 4d91 3ebe
00000080: f613 ddbd 255b 813e 2331 84bd cd6f 68bc
00000090: e464 81bd 9fd2 d23e 56ed b83d f617 613e
000000a0: 3737 9b3d 90ff ea3c b339 a93d d96a a5bd
000000b0: 20c6 39bd 5f89 bdbd 28d7 48be f134 733d
000000c0: 0ca3 31be fd1c a73c e578 e73d 4352 543d
000000d0: dfe4 cc3b d876 dabd 5ca6 3cbe d3e7 253e
000000e0: 3c1b 20be 1ef3 54be 41b2 5abe d54b 403e
000000f0: e201 a03d 065f 473d e905 673e 16d3 00bd
00000100: 1490 533c 23aa 0cbd 3aaf d93e bff5 20be
00000110: aa6b de3e 5ec5 77be 8632 f63b 99b5 a0ba
00000120: ed72 ef3d a1be aebd 468f 42bd e765 9c3d
00000130: 1898 04bd 4201 00bd da22 0e3b efed c7bd
00000140: 8e96 e73d c2c6 3b3e 0b68 10be f45f 7cbe
00000150: 5f63 1ebd f597 073e e39e ef3c 9540 573e
00000160: 4ab3 473e 4816 e73d 231b b1bd 9c31 0abe
00000170: 3251 7d3e 865e 72be 3c24 053e 6fa7 31be
00000180: 8d91 03bd 1cc7 333e 8824 31be 155c 93bd
00000190: c278 403d f2e3 5d3e 8c28 94bc 4486 9dbd
000001a0: eef1 263e f71f c93b 3d5a 803d bad9 a33d
000001b0: 612c 613d d4fe 1bbc e1b0 523d 425d e7be
000001c0: 0c3a 483f 1e41 68bd 2b02 8bbe c4f1 c03d
000001d0: 2ac2 76be c3bb 583e 7972 92bd f184 cc3d
000001e0: 92fa 963c 4188 623e 9098 0dbd ab3f 9ebd
000001f0: fb74 703d 5446 14bf 846b f9bd 321c d0bc
00000200: 56a2 75bc 2dd1 acbe 4d9b d03d 4cb1 4b3d
00000210: 8993 543d bf5c fcbe cdf4 4dbe 30f0 733e
00000220: ae07 dfbc bacb de3c 4335 483e 1248 133e
00000230: ffc1 02bd 0651 a0bd 721e 45be 22f9 7b3d
00000240: 780f 1dbd 8b9c d33d ce29 81be 1f57 aebe
00000250: bb02 f8bb a02d c63d a061 b5bd c118 533d
00000260: 46e8 27be 0490 383e 9250 223e 685e 3a3d
00000270: 9e9e 243d ebf5 9abe a4de 543d 67c3 16be
00000280: dcef f13d 2930 bdbd 74bd 51be 1e3f 823d
00000290: 0357 f83c 6c46 fb3e dc01 8e3e 63dd 97be
000002a0: bb87 77be 6036 f0bd ebc6 c93c 880c 91bd
000002b0: a0b7 973d 25e1 abbd 0a87 233c d94b 1cbd
000002c0: 9bd8 ddbe fe8a 23be 8db2 a0be cdf9 a03e
000002d0: 5058 8d3e a201 353f 83c2 d53b 0c88 fe3c
000002e0: 1a55 1abe 1b27 73bd 33ed d73d c720 0e3d
000002f0: 747c d13d b4b7 453e 1be6 5cbe 1381 ae3e
00000300: 50c5 4d3d 5821 023e 9630 fd3d b728 78bd
00000310: 45e9 be3c adb3 82be 5b01 093e 4e26 20be
00000320: 4212 ec3d 218c ce3d bf66 20bd 4b65 e8bd
00000330: 3164 d03d 81e5 ffbd 23c3 2c3d b24d 77be
00000340: 5ead 07be 8d82 da3b 9861 f43c 52de 683d
00000350: d503 78bd dad8 113e 0e9b 623e 380c 163e
00000360: ac84 2dbd 367a c83d 9ea2 89bd b267 593e
00000370: b3a1 4d3e 719f f4bd cf07 dbbd b9d9 d23c
00000380: 15d2 8c3e e354 32bd ba94 9d3c b7ed 333e
00000390: 606d 193e 93c1 9ebd 83f8 c83c ea39 d4bc
000003a0: e678 803e 2687 f43c a8ec dfbd 4aca 6dbe
000003b0: 964b 2d3e c530 0d3d 4c72 373e 65a2 18be
000003c0: 1680 0a3d 8a7d aabd 7e01 883e 3452 0fbf
000003d0: 98d1 443d 2de7 afbe fb81 f93d 4f3c d43e
000003e0: f598 94bd a96b bdbd 9f15 3cbe c2f6 acbd
000003f0: b62e 26be fc2e 363e 9f26 4f3d 6b74 1b3e
0.12738428 -0.085208684 -0.18787798 0.030355576 0.1326203 -0.0028150647 -0.1836942 0.15912259
0.052240238 -0.14970188 -0.09192059 -0.1913023 0.069742925 -0.17558059 -0.16234972 -0.045349233
-0.050742514 0.12291582 0.18037137 -0.057258762 0.07416118 -0.05154021 0.1343212 0.001084407
-0.17173754 -0.33902916 0.14637285 0.0047703506 -0.16615155 0.10787774 0.1297712 -0.18610115
-0.10794823 0.2526485 -0.064546846 -0.014186812 -0.063180715 0.41176316 0.09029643 0.21981797
0.07578891 0.028686315 0.082629584 -0.0807702 -0.045354962 -0.09254717 -0.19613326 0.05937666
-0.17347354 0.020399565 0.11302356 0.051836263 0.0062528695 -0.10667199 -0.18422836 0.16201715
-0.15635389 -0.20795867 -0.21357061 0.18778928 0.07812859 0.048674606 0.22560848 -0.031451307
0.012912769 -0.034341943 0.425165 -0.15718745 0.43441516 -0.24196383 0.007513347 -0.0012261152
0.11691842 -0.08532453 -0.047499917 0.07636624 -0.03237161 -0.0312512 0.0021688254 -0.09762179
0.11308013 0.18337539 -0.14102189 -0.24645978 -0.038668986 0.13241561 0.029250568 0.2102073
0.19501987 0.11283547 -0.08647754 -0.13495487 0.24738005 -0.2366887 0.13002104 -0.17349027
-0.03212123 0.17556423 -0.17299092 -0.07195298 0.046990164 0.21668985 -0.01808574 -0.07691625
0.16303226 0.0061378437 0.062672116 0.080005124 0.054973964 -0.009521205 0.051438216 -0.45188338
0.7821357 -0.056702726 -0.27150092 0.09421113 -0.24097505 0.21165375 -0.0715074 0.09986294
0.018430028 0.22122289 -0.034569323 -0.077269875 0.05870531 -0.5791981 -0.1217871 -0.02540407
-0.014992317 -0.33753338 0.10185871 0.04972963 0.051898513 -0.4928951 -0.20112915 0.23822093
-0.027225342 0.027196754 0.19551568 0.14382961 -0.03192329 -0.07827954 -0.19249895 0.06151689
-0.03834483 0.103325926 -0.25227207 -0.34050843 -0.007568685 0.09676671 -0.08856511 0.05153728
-0.16397199 0.18023688 0.15851048 0.04550019 0.04019033 -0.30265746 0.05197014 -0.14722978
0.11813328 -0.092377014 -0.20482427 0.06359695 0.030314928 0.49077165 0.27735794 -0.29661092
-0.24172871 -0.11729121 0.024630984 -0.07082468 0.074080706 -0.08392552 0.009980926 -0.03815827
-0.4332932 -0.1597099 -0.31386223 0.31440583 0.2760644 0.70705616 0.0065234317 0.031070732
-0.15071526 -0.059363466 0.10543289 0.034699228 0.10228816 0.19308358 -0.21572153 0.3408285
0.050237 0.12708032 0.12362783 -0.060585704 0.023304591 -0.25527707 0.13379423 -0.15639612
0.1152692 0.10085321 -0.039160486 -0.11347445 0.1017536 -0.12494946 0.042178284 -0.24150732
-0.13249728 0.006668395 0.029831693 0.056852646 -0.06055053 0.14242879 0.22129461 0.14653099
-0.042362854 0.09788935 -0.0672047 0.21230963 0.20081215 -0.119444735 -0.10694849 0.025738584
0.2750403 -0.043537986 0.019235957 0.1757115 0.1498313 -0.07751765 0.024532562 -0.025906522
0.25092238 0.0298496 -0.109338105 -0.23221698 0.16923365 0.03447034 0.17914695 -0.14905699
0.03381356 -0.08324726 0.26563638 -0.55984807 0.048051447 -0.3435606 0.12182995 0.41452262
-0.07255737 -0.0924905 -0.18367623 -0.08445503 -0.16228756 0.1779136 0.05057394 0.15181129

linears.0.0.bias f4 [64]
00000000: 2bda 7a3c 060d 18be a904 2c3e 1bf5 09be
00000010: 4557 1bbe b743 f7be 267d 55be e670 25bd
00000020: b9ed 9d3e 00c0 523d f485 e23d f27b 893d
00000030: e408 ba3d 19fb 713e d4cb b3bc 9e1d dcbd
00000040: 9cfd 81bd 7092 bd3e 61e5 2dba 3617 1bbe
00000050: ea6a 7f3d f1b9 5abe f037 45bf bce1 45bc
00000060: a079 d6bd 3cfc 403c ffc3 303e 26db 39be
00000070: d11c b6be 861d d9bd 5619 88bd 870b b03c
00000080: 6163 c3bd 847e 62bf 45aa 65be 4863 f93d
00000090: 4b40 eabd 90d9 283e 4797 e7bd cba8 b8bd
000000a0: 54e0 04bf b98e 11bb 6956 80be 2c29 693d
000000b0: 97a4 37be baf9 5d3e 7ea3 09be 9b76 c43d
000000c0: 02d8 543d 22db 8e3d fdc1 1fbd ae0e 75be
000000d0: 7c91 ec3e e523 3b3e 0d43 ce3d 9ef4 fabe
000000e0: 113b f0bd b2ee 863d fb69 033c 2c3c 3d3e
000000f0: afd2 16bd 2abe 873e 5eef 4ebe eb33 5c3e
0.015310804 -0.14848718 0.16798653 -0.13472407 -0.1517001 -0.4829385 -0.20848522 -0.04039087
0.3084543 0.051452637 0.11060706 0.06713094 0.09083727 0.23630942 -0.021947779 -0.107478365
-0.063472 0.37025785 -0.00066336064 -0.15145573 0.06235782 -0.21359994 -0.7703848 -0.012077745
-0.10472417 0.011778887 0.17262267 -0.18150005 -0.3556886 -0.10601334 -0.066454574 0.021489872
-0.095404394 -0.884743 -0.22428234 0.121771395 -0.11438044 0.16489244 -0.11308151 -0.0901657
-0.519048 -0.0022210313 -0.25065926 0.05692403 -0.1793388 0.21677294 -0.13441274 0.09592935
0.051963814 0.0697539 -0.03900336 -0.23931381 0.46204746 0.18275411 0.10071383 -0.49014753
-0.11730016 0.06588496 0.008020873 0.18479985 -0.036822017 0.2651227 -0.20208499 0.2150418

linears.0.3.weight f4 [16, 64]
00000000: bc76 3abe 2e14 dcbd db8f 2abe d730 d1bd
00000010: 4669 863e e158 053e d40a 5fbe e6b2 ab3e
00000020: 8718 babe 4e18 18bd 0d17 2b3e e9a4 81be
00000030: 8f22 dabd a954 373e fa3b 053d 72a5 bf3d
00000040: d7bf 693d 68fb 523e 44d7 99be 0024 6f3d
00000050: 813d c93d 2234 79be 64b1 b7be a9c3 113d
00000060: a5c6 693e 3980 923c 84bc dcbd 1999 fcbc
00000070: c21f 3dbe b0b3 91bd 590a 94bd 93bb 3ebc
00000080: e195 533a eb15 dc3d 23e8 183c 0703 403e
00000090: 12dc 8abc e7fc c2bd 3e58 423e 5512 f0bc
000000a0: 6996 52bd 5338 183e e955 cbbe 14f9 c2be
000000b0: 5585 8d39 0638 cebc 14b0 2fbe af87 ef3d
000000c0: a7c1 b2bd bacf a03e 747d 8f3d 3548 ca3d
000000d0: 7609 ea3e 6990 2cbe 8796 953e 999f 08bf
000000e0: 1d50 493e cd6a 223e aebb 753a e36e 7a3c
000000f0: 77bf 72bd 24fd 83be db46 7d3e 81df 9abd
00000100: 0376 c63d 64a3 243e 01c0 a1bd 6bba d9bd
00000110: 0532 bdbd 8e7a 8bbd bef5 453d e07a 23be
00000120: b67e 093e 1339 27be 1a95 833d a518 653d
00000130: ef46 163e d072 c1bd 494e b13d 875a 1dbe
00000140: 24c0 10be a1c6 8dbd bdbc 0d3e 78c9 213e
00000150: edfd 38be 871e b1bd ee1d 283e 6334 16bd
00000160: fc59 4fbd 5ab3 7f3d 85e9 b73d 974a 903d
00000170: d2ee febd d5f5 913d d58f 403d d009 a9bd
00000180: e14a 003c ec25 0e3e 3e04 4d3c 57b7 7cbd
00000190: d9c3 ccbd 9c90 2c3e 282d 7b3c 0894 053d
000001a0: 0071 0abe bde9 fdbd 18cf 273e b83a a83d
000001b0: 05d8 6ebd 4344 093d 9ec8 553e 7566 af3d
000001c0: 65bf 953c 129c 80bd dcb2 58bd 210c 41bd
000001d0: 2706 e4bd 3ab1 aebb a65e 28bd fd46 ea3c
000001e0: b5be 0f3e 44b0 d5bd a85d 923d 0c85 38bc
000001f0: 5c7c 043d 75aa 223e dcb4 4e3c 0b94 c53d
00000200: 614f 983b 2c21 60bd 4643 29be 173c 673d
00000210: 4651 aabd 7b01 dc3e d9d7 da3d b07c 043e
00000220: 2f21 73be 4af2 7d3e 0acc 1b3d 70c0 a0bd
00000230: 7037 583c 5291 473e 6fe0 ccbe 4f20 d13d
00000240: d970 6fbe 9382 92be 03e8 a2be e9f1 2dbe
00000250: 290b 783d 9e6c 8c3d 530c 86be d0af ab3d
00000260: 6c31 883d 63b3 4b3e b769 8c3c 0c85 8e3e
00000270: 370d 7b3e 27dc 7ebe df89 233d e240 d7bc
00000280: 488d 1b3e 03cb 4c3d 99bf 8bbe ac86 a63d
00000290: cecf 433e 7c2c 6abd a9c7 0cbb f81b 50be
000002a0: b9d3 88be 623e a1bd 22f7 813e 0dd7 043e
000002b0: f1b7 273e e6ef 993c c79f cebc 6f4a d43d
000002c0: bfa3 4fbd 6fcc 26be b3e6 6fbd 1fee 103e
000002d0: 131e bf3d 22dd 4abe 78da f63d 3267 87bd
000002e0: c05c 23be ff86 13be afaf 7a3e 9f4e 7abd
000002f0: ee56 343e 0ab0 f43b 9ed3 4bbd c345 52bc
00000300: ec02 21be dbee 13be 3596 f93d cf8d 84be
00000310: 102f a43d 29b4 04be 16e2 6fbe 90a7 413e
00000320: 483a 20bd 80e5 8abc 37c7 ad3d 6ad8 4ebe
00000330: 1102 a5bd 6f77 a3bc 8232 8c3d 4604 e4bd
00000340: 85f7 4e3e e51c 0a3e cd33 d7bd fbb4 1abe
00000350: 033b fe3c ffac 29bd 90a4 56be 039b 89be
00000360: 15e6 163e 7e35 22be 0d7e 1f3e 8468 39be
00000370: c53f 94be 625d 4f3e f1d5 43bc 1bdc ad3d
00000380: 11db b4bd cc45 c6bc 761c 353e 0929 503e
00000390: e52c e2bd 79fa 52bd d60b 983d 5eec c1bc
000003a0: 145e ed3d 69fc 74bd 36fb d0be de8b a9be
000003b0: d6f1 d1bd 24ac 7b3d f82c 7ebe e90e 0b3e
000003c0: c74d c4bd 4087 ab3e b4e4 95bd 8169 8c3c
000003d0: 6517 223e edb9 67be 621a fe3c cdd4 86be
000003e0: e67b 763d 292e fa3d 0f21 b3bd 51b0 9ebc
000003f0: 0bdf 21be b500 aa3d c585 0f3e 83a9 aa3d
-0.18209356 -0.107460365 -0.16656439 -0.102143936 0.26252192 0.13022186 -0.21781474 0.33534926
-0.36346838 -0.037132554 0.16708012 -0.2532113 -0.10651123 0.17903389 0.0325279 0.09357728
0.05706772 0.20603716 -0.30047047 0.05838394 0.09826184 -0.24336293 -0.35877526 0.035586987
0.22829683 0.017883407 -0.10778144 -0.030834721 -0.18469146 -0.07114351 -0.07228536 -0.011641401
0.0008071345 0.10746368 0.009332689 0.18751155 -0.01695064 -0.095208935 0.18978974 -0.029305616
-0.051412974 0.14865236 -0.39713982 -0.38080657 0.00026992956 -0.025173198 -0.17157012 0.116958015
-0.087283425 0.31408483 0.0700635 0.09877054 0.45710343 -0.16851963 0.29216406 -0.53368527
0.19659467 0.15861054 0.0009373975 0.0152852265 -0.059264626 -0.25779068 0.2473406 -0.07562161
0.09690478 0.16077954 -0.0789795 -0.106312595 -0.09238056 -0.06810485 0.04833006 -0.15964842
0.13427243 -0.16330366 0.06424923 0.055931706 0.14675497 -0.09445727 0.0865751 -0.15366565
-0.14135796 -0.06922651 0.13841529 0.1579951 -0.18065615 -0.08648401 0.16417667 -0.036671054
-0.050622925 0.062426902 0.08980087 0.07045477 -0.12447895 0.07126967 0.04701217 -0.08253825
0.0078303525 0.13881654 0.012513218 -0.061698284 -0.099982925 0.16852039 0.01533059 0.032611877
-0.13519669 -0.12398098 0.16387594 0.08214325 -0.05831148 0.033512365 0.2087731 0.08564464
0.01827974 -0.06279768 -0.05290495 -0.047130708 -0.11133986 -0.0053311856 -0.04110589 0.028598303
0.14037593 -0.104340106 0.0714677 -0.01126219 0.03234516 0.15885337 0.012616362 0.096473776
0.0046481346 -0.054719135 -0.16529569 0.05645379 -0.08316283 0.4296988 0.10685701 0.1293819
-0.23743127 0.24799457 0.038036384 -0.078492045 0.013196811 0.19489029 -0.4001498 0.102112405
-0.23382892 -0.28615245 -0.31817636 -0.16986813 0.06055752 0.068566546 -0.26181278 0.08383143
0.066500515 0.1989265 0.017140253 0.27835882 0.2451676 -0.24888669 0.039926406 -0.026276056
0.15190613 0.049998295 -0.27294615 0.08131155 0.1912224 -0.05717133 -0.0021481311 -0.20323169
-0.26724032 -0.07873227 0.2538386 0.1297266 0.16378762 0.01879115 -0.025222672 0.103657596
-0.05069327 -0.16288923 -0.05856962 0.14153336 0.09331908 -0.19810918 0.12053388 -0.0661148
-0.1595335 -0.14406966 0.2448108 -0.061110135 0.17611286 0.0074672746 -0.04976236 -0.012834015
-0.15723771 -0.14446585 0.12186853 -0.2588944 0.08016789 -0.1295935 -0.23426089 0.18911576
-0.03911808 -0.016955137 0.08485263 -0.20199743 -0.08057035 -0.019954411 0.06845571 -0.111336276
0.20211609 0.13487585 -0.10507927 -0.15108101 0.031033998 -0.041424748 -0.20961213 -0.26876077
0.14736207 -0.15840718 0.15575428 -0.18106276 -0.28954902 0.20250466 -0.011952863 0.084892474
-0.08830846 -0.024203204 0.17686638 0.20328154 -0.11043719 -0.0515084 0.074241325 -0.023672279
0.115902096 -0.05981103 -0.4081666 -0.33114523 -0.10251205 0.061443463 -0.24821842 0.13579907
-0.09585147 0.33501625 -0.07319012 0.017140152 0.15829237 -0.22629519 0.03101844 -0.2633423
0.060176753 0.122158356 -0.0874654 -0.019371184 -0.1580774 0.08300916 0.14015873 0.08333113

linears.0.3.bias f4 [16]
00000000: bff5 3b3d ced3 c1bc a670 813d 0279 743e
00000010: 5aa8 e83c 884e 873e 9b29 06be b6d9 273e
00000020: 0dd6 26bf bee4 da3d c05b 0d3e 1aae 45be
00000030: 1967 acbe 59d4 9ebe ab5d 31bf e47a b73d
0.04588866 -0.023660567 0.06320314 0.23874286 0.028400589 0.26427102 -0.13101809 0.16391644
-0.65170366 0.1068816 0.13804531 -0.19304696 -0.33672407 -0.31021383 -0.6928355 0.089589864

linears.1.0.weight f4 [64, 22]
00000000: 8f37 1bbe 304c 833e d159 19be cb4f 013d
00000010: f0d0 df3c c0cb 81be b92a a93b 1358 713b
00000020: 4c91 4d3e ba8f 40be e456 c5bd bea8 0a3e
00000030: e22d 813d 38f4 e7bc eb81 2d3e c818 913e
00000040: c924 f2bd 9f17 b5bd d731 35be 15ee 27be
00000050: 9c22 a2bc dd4b 043e bb31 2abe 80c9 d83d
00000060: c205 afbd 6a69 11bc 15e4 f93d b17b 4bbd
00000070: a4d0 00be 3e18 453d 819f 4e3e 146b 0cbe
00000080: 605c 903c b371 16be b8be 31be b5ca f23d
00000090: ae8b 93be e462 6bbe 7b05 9a3d 6f3a dfbd
000000a0: 2ce7 cbbd 9f2e 0bbe 6ca7 4cbb 5a18 4f3d
000000b0: 214c 833d 31a7 26bf 08f2 633b c754 26bc
000000c0: a59d e4bd ec29 023e 4641 d33b c885 443e
000000d0: 5989 b43c eb35 e33d 8598 36be fa89 553e
000000e0: 379a 56bd d3f3 3f3a 6f9d 73bf 344c ca3d
000000f0: 1bc0 d63d 26a3 90bd f0c2 c2bd 264c 0e3c
00000100: 0420 063d 1a49 a83d e2a2 3cbe 275e a8bb
00000110: a75e 44be 33b9 2fbe 212d 193e a8cc 8a3e
00000120: 2c46 75bd cfde 03bd 7eaa 1c3d 41b5 8f3d
00000130: 044b 043e d164 323e 58f4 933d a6c2 453e
00000140: c6e9 0f3e e888 1b3e a0d7 18be 2074 d6bd
00000150: 242f 4d3b 93a3 1f3e da68 223d 76b3 0dbd
00000160: 9c8b 2a3d da64 743b d3a1 b3bc 1bea 84bd
00000170: f022 d03d fa05 c5bf 9a6c 57bc fd22 08be
00000180: ab8b 453e e34a 803c e7e9 be3b ce4a 063b
00000190: 3949 ba3c 4d0a 083c d361 6bbd d14e 1abd
000001a0: 5e33 b13c 4e74 123e 2551 913d 23e4 82bb
000001b0: f023 d0bb bc28 9fbe 32bd 863e 3891 c9bd
000001c0: 2202 363b b8de 36be 90d3 24be 2abb 56be
000001d0: 4389 733d 3546 23be b167 023d fec8 ca3d
000001e0: 79a3 16be 4ff7 663c bd7b 4d3e 692f a7bb
000001f0: 8d23 46be e34d 203d a97b 2fbe cd1a aabc
00000200: 9816 893d 49de a8bc 0b13 893c c7b6 793e
00000210: 3410 c23e 9aea ae3e 9df8 1bbe 8531 a23d
00000220: b65a 0c3e 42ae 453d 0a0c f23d 65de 823d
00000230: 2647 243e 1b2d 31bd cc13 093e b4ad c9bd
00000240: 04ae 2a3e eeec 25be 7da2 d83d de21 e6bd
00000250: 427b 313e 8be3 0f3e d9df 41be 1b28 073e
00000260: 23c6 3cbd 8b50 7cbd 9b44 973e 6959 cb3e
00000270: a2d9 8abe 85c8 ddbe 2810 8fbc 707c 013c
00000280: 11d8 173e d9ea cc3d 7f8a 763e 4242 853e
00000290: ebc2 fd3d e697 8c3e 4bcc c4be a9cc 3abd
000002a0: 3a6a dc3d c023 853d 0575 4ebd 5c3a 43bd
000002b0: efc7 413e 4d32 e6bd cef2 1bbe a123 f93d
000002c0: 71f3 ec3b 78f6 dcbd cec2 3cbd d445 3e3e
000002d0: d3c0 a1bd b073 d83d 3d89 07be 5336 a83d
000002e0: 408d b3bd f55b bcbd 4480 1f3e 4276 91bc
000002f0: 42dc 85be 45df bcbc cf92 0e3e a789 d33d
00000300: 99cb 05be 099c 4c3e ff37 493e 3cc0 dc3c
00000310: b446 c83d 7636 0b3d 594d 7bbe 0465 efbe
00000320: ccb5 95be 7898 0b3f 0ffb 383e 8ead 003a
00000330: c43e a9bd dd57 5ebd d351 13be 6739 81bb
00000340: 7ea2 283e 3238 c7bd efe0 bcbe c71b 48be
00000350: 84aa c93d 2216 d3bb 0c27 36be cf8a e6bd
00000360: 24cf 1abe 4b03 5b3e af8d 0bbe 75cf a53e
00000370: 569c b9bc 7baa ba3d be6f 4f3f 323c e9be
00000380: ad94 fbbe f765 c13d b806 c43d 4db6 4c3e
00000390: 7ec0 66be d1bb 993d fa08 2fbe 4e5c 34be
000003a0: f625 22be 0919 6fbd 229e e7bd f5b6 32bd
000003b0: 8d4b f1bd 0c03 323e c9fa 07be a4b5 86be
000003c0: e5d0 863e 8d05 c9bd 6254 283e f85f ca3d
000003d0: e102 f9bd 7897 623e b24c 4bbe 087b 283e
000003e0: 9276 98ba 43bc 52be 3850 103e c3ef 123d
000003f0: 87cd 493d 9fc8 77bd a57f 37be d4b9 443e
-0.15157913 0.25644064 -0.14975668 0.031570237 0.027321309 -0.2535076 0.0051625636 0.0036826178
0.20074958 -0.18804827 -0.09635714 0.13540933 0.063075796 -0.028314695 0.16944091 0.2833922
-0.118234225 -0.08842396 -0.17694794 -0.16399415 -0.019791894 0.12919565 -0.16620533 0.10585308
-0.0854602 -0.00887523 0.12201706 -0.04967851 -0.1257959 0.048118822 0.20178033 -0.13712722
0.017622173 -0.1469181 -0.1735791 0.118550695 -0.28817505 -0.22986943 0.075205766 -0.10899817
-0.09956202 -0.13592003 -0.003122772 0.050560333 0.06411005 -0.65098864 0.0034781713 -0.010152048
-0.11162881 0.12711304 0.00644699 0.19191658 0.022038149 0.110942684 -0.17831619 0.20853415
-0.052393164 0.00073224044 -0.951621 0.09877816 0.1048586 -0.07062368 -0.095098376 0.008685147
0.032745376 0.08217068 -0.1842151 -0.005138177 -0.19176732 -0.17160492 0.14958622 0.27109265
-0.059881374 -0.03219491 0.03824853 0.07016993 0.12919241 0.17421271 0.07224339 0.19312534
0.14054021 0.15188944 -0.14926004 -0.10471368 0.0031308616 0.15589742 0.039650775 -0.034594975
0.041637048 0.0037291558 -0.02192775 -0.064899646 0.10162914 -1.5392449 -0.013148451 -0.13294597
0.1929156 0.015660709 0.005826223 0.0020491364 0.022739993 0.008303237 -0.05746634 -0.03767282
0.02163094 0.14302179 0.07095555 -0.003994481 -0.0063519403 -0.31085765 0.2631622 -0.098421514
0.0027772267 -0.17858398 -0.1609633 -0.20969835 0.059457075 -0.1594475 0.03183717 0.099016175
-0.14710797 0.014097049 0.20066734 -0.0051020873 -0.19349499 0.03913678 -0.17137016 -0.020764733
0.066937625 -0.020613806 0.016732713 0.2438613 0.37902987 0.34163362 -0.15231557 0.07919601
0.13706478 0.04826189 0.118187025 0.06390075 0.16042766 -0.043255907 0.13386458 -0.09847584
0.16667944 -0.16203663 0.10577867 -0.112369284 0.17332175 0.14051645 -0.18933047 0.13198893
-0.046087395 -0.06160025 0.2954453 0.39716652 -0.27119166 -0.43317047 -0.017463759 0.007903203
0.14828517 0.10005731 0.2407627 0.26027113 0.12390693 0.2745964 -0.38437113 -0.045605335
0.107624486 0.065009594 -0.050404567 -0.047663078 0.18923925 -0.11240063 -0.15229341 0.12164999
0.007231169 -0.10789198 -0.046084218 0.18581325 -0.078981064 0.10568941 -0.13235946 0.082134865
-0.08767176 -0.09197227 0.15576273 -0.017756585 -0.26144606 -0.023055682 0.1392319 0.103289895
-0.13065948 0.19981398 0.19650267 0.026947133 0.097791106 0.033987485 -0.24541225 -0.46756756
-0.29240263 0.54529524 0.18064521 0.0004908674 -0.08263925 -0.05428301 -0.14386682 -0.0039436105
0.16468236 -0.09727515 -0.3689036 -0.19541846 0.098469764 -0.0064418474 -0.17788333 -0.112569444
-0.1511808 0.21387975 -0.13628267 0.3238484 -0.022657555 0.09114548 0.8102988 -0.45553738
-0.49136868 0.094432764 0.09571594 0.19991417 -0.22534367 0.07506526 -0.17093268 -0.17613336
-0.15834793 -0.058373485 -0.11309458 -0.043631513 -0.11781988 0.17383975 -0.1327926 -0.26310456
0.2633125 -0.09815512 0.1643844 0.09881586 -0.12158752 0.22128093 -0.19853476 0.16453183
-0.0011632016 -0.20579629 0.14093101 0.035873186 0.04926827 -0.06049406 -0.17919786 0.19211513

linears.1.0.bias f4 [64]
00000000: 2850 c73c 4cb1 44bd b447 16bf ea77 90bd
00000010: cba1 9abf b51d 243e 14c6 14be 6d05 64bd
00000020: 804a 3e3e dc8b 03bd 1960 7cbe 150c 3ebe
00000030: e16e 8dbe 70a5 8f3e abd8 d4bd fc03 80be
00000040: f6ac 8cbe 49ed c73d 8d4c 33be 8de9 e03d
00000050: 17c4 183e 5afe 41be 48af 503e 3488 87bd
00000060: 7a28 69be 048b 5e3d 52de c13c e12c 1ebe
00000070: ab79 78be ef24 8dbe 4f3a 75be abfb df3d
00000080: 0cc2 76be 0ca4 c5be 617c cf3c a12d 9bbe
00000090: d9d9 cd3d 4b0d c0be 1cc6 69be e367 143e
000000a0: c30e e43e c9e9 71bc 9d55 00bf e87d 3fbe
000000b0: aeaa a3be 05d4 eabc bcd0 7bbe ad16 57be
000000c0: 7b1d 38be 5feb 76be ef32 3dbe d558 30bc
000000d0: bc18 acbb 0171 943c c4ed 1abe c4c6 573e
000000e0: 880f 29bd eec3 8cbe c923 09be 717e cbbb
000000f0: d572 f53d 7408 443e 4c7d 823e 8e3f 0c3e
0.024330214 -0.048020646 -0.5870316 -0.07054122 -1.2080625 0.16026957 -0.14528686 -0.055669237
0.18583107 -0.032115802 -0.24646033 -0.18559296 -0.27623656 0.28055906 -0.10392889 -0.2500304
-0.2747571 0.097620554 -0.1750967 0.10982046 0.14918552 -0.18944684 0.20379364 -0.066177756
-0.22769347 0.054331794 0.02366558 -0.15446807 -0.24265163 -0.2756724 -0.23948024 0.10936674
-0.2409746 -0.3860172 0.025327863 -0.3030825 0.10051317 -0.37510142 -0.22829479 0.14492755
0.44542512 -0.014765211 -0.50130635 -0.18700373 -0.31966156 -0.028665552 -0.24591345 -0.21004744
-0.17979996 -0.24113224 -0.18476461 -0.010763367 -0.005251972 0.01812029 -0.15129763 0.21071917
-0.041274577 -0.27493232 -0.13392557 -0.0062101413 0.11984793 0.1914385 0.2548622 0.13696119

linears.1.3.weight f4 [16, 64]
00000000: aa35 17be 55ff 163e fa93 063f 31fc eb3d
00000010: 618f 36bf 5d10 873c 178d 0c3e 8dbc 6dbd
00000020: 1a18 0f3d feee b8be 7282 0dbf f617 4d3d
00000030: 8053 66bd a4a4 733e a8c5 2abd 17b2 253e
00000040: 1fe5 433c 7e11 573d 864e 513d 43d1 a93b
00000050: b362 2cbe 5225 22bf 95c5 903e eae4 8f3e
00000060: cb05 413e ff35 d43d 1c58 923e 6560 7c3e
00000070: 95ea f9be ba75 14be bfb6 823c 19bd 383e
00000080: b94b 9c3e aada dc3e b705 8a3e 5133 8a3e
00000090: 30eb b83e 7650 083f 42ee 413d aebb 713d
000000a0: 5887 9fbe 2185 743e c985 463f 5029 223e
000000b0: cf00 a83e ca13 313e 8755 dc3d 8c99 833e
000000c0: 46f0 7abd ca3d 093f 8d04 b8bd 17c0 b23d
000000d0: 3122 843e abe7 d23d 6838 89bc c09d bd3d
000000e0: 8a67 013e 7164 323d dee5 043e 39a8 1f3d
000000f0: c194 6a3e 98f8 0a3e 52f7 4c3e e80c 8e3e
00000100: e019 4c3d 5625 053e 2fb8 6bbe f85a 23be
00000110: f790 823e 5f1c 40bd da5b c13b 2414 c8bc
00000120: 66ad bbbc fc96 0d3e 5f51 063e 4f8f 903c
00000130: 39e9 11be 4404 843d c0f7 6cbd dc3f 943d
00000140: 6d01 3f3d 8209 7dbc 3fef 24bb b6ec 8ebe
00000150: e619 f53d eb89 09be 504f 27bd d645 3ebe
00000160: d0bf 9dbd 6811 4d3d 77b9 36be f689 503d
00000170: 3cf7 f93d d729 cd3d e59d 753e ce7f 24be
00000180: 6dce 823d fb7d 4dbe 5243 89bd caa6 2d3e
00000190: cea6 6ebd 9e03 39bb 0b25 0f3d 805c 213e
000001a0: eca3 543a f837 8bbd f4ed efbd 9c09 9a3d
000001b0: ddbf 6fbd 0df5 93bd d0d3 9ebd 82b3 803c
000001c0: ce52 02be f722 abbd 89ee 96bc 869b 9fbd
000001d0: ca4e 92bd 63a7 65bd 91a8 553d c8a0 703d
000001e0: cba8 e2bc 7d73 19bd 567e ce3d 658c 6ebd
000001f0: 4ae6 acbd 460a e1bd dbaf 293d c257 123d
00000200: 8ab4 08bd 7588 a43d c93a 843e 02d3 d6bc
00000210: 4649 34be 6c88 823b 1d15 48be 0d7f 843d
00000220: 5e51 06be 1359 223e b159 22be fc01 8a3d
00000230: 5cf4 0bbe b736 a9bd 61a1 cf3c 786b 223e
00000240: 1787 52bd db55 d1bd dff6 15bd b244 183b
00000250: c75c 253e 729e 943e fc0c 8fbd ebe2 f63d
00000260: b076 5c3e a88c d93d 7e53 0d3e 30a0 553e
00000270: 6220 913b d593 dcbc e24d 22be d92b 4bbe
00000280: 5b41 b4bd 04eb d03d 007e d3bc 8b9a 903e
00000290: 7b94 34bd 43d6 043f 8296 883c 8e36 74bd
000002a0: 018f 35be 51cb bc3d 0975 973e 0c80 d43d
000002b0: c5f5 da3d 5fb5 b53d 5326 ca3d 2092 0c3d
000002c0: e754 ccbd a7a9 db3d 188e 05be 7849 11be
000002d0: 254a 0c3e bcfa 063d 40c7 3b3e a8b9 c53d
000002e0: b75d 26bd 04ce b8bc 7b63 e3bd b49f 61be
000002f0: d4f2 30bd 912f 3b3e bac2 9ebd 11b5 e03c
00000300: ddf6 ba3d fea3 f03c 1d67 483d 310c b03d
00000310: 0f5e f6be c43a b33c fe2a 3e3e 8cec 5abe
00000320: cc45 8f3c 52c0 c0bc 70bd f8be 6c9c 063d
00000330: 5dd7 123e a6d7 283e 3986 653d 6aff fb3d
00000340: 3729 aabd d6d8 873e d72a 0d3c 23c7 223e
00000350: b9f1 95be 605f ddbe 2a6e 8a3e b17b a03e
00000360: 8ddd 6fbd 38b2 d73d b9bf 693c 230f 323d
00000370: 59ea aebe 313f f1bd cd42 693e a45a 973e
00000380: d81f 603e fb41 c33e 876f 953e 4246 433d
00000390: b488 a93e 6e41 b73d a7de 093e ad8c 343e
000003a0: bc0f fabc 0a0f 4e3e 324c b73e 9c3b 0b3e
000003b0: 2859 c63d c600 9cbc 9361 c2bd 308f 853e
000003c0: 2eb1 383d 178f d33e 38a7 a53d 219c 2e3e
000003d0: 137e 4f3e a531 6f3e ccd6 573c e951 a53d
000003e0: 32c3 fabc d382 02bd 1b7e 473d ab30 0b3e
000003f0: 8563 043e ba88 133e d46a a43e 2b8e 253e
-0.14766565 0.14745839 0.52569544 0.11522711 -0.7131253 0.016487295 0.13725697 -0.058041144
0.034935094 -0.36119837 -0.5527717 0.05007168 -0.056231976 0.23793274 -0.041692406 0.16181217
0.011956482 0.052506916 0.051100276 0.0051824166 -0.16834526 -0.63338196 0.28275743 0.28104335
0.18849866 0.103618614 0.28582847 0.24646147 -0.48811784 -0.14498034 0.01595628 0.18040885
0.30526522 0.43135577 0.26957485 0.26992276 0.36116934 0.53247774 0.04734636 0.059016876
-0.31157947 0.2387891 0.7754789 0.15836072 0.32813117 0.17292705 0.107585005 0.25703084
-0.0612643 0.5360991 -0.08985243 0.087280445 0.25807336 0.102980934 -0.01675053 0.09258604
0.12637153 0.04355282 0.12978312 0.03897879 0.22908308 0.13571393 0.2001622 0.27744222
0.049829364 0.13002524 -0.23019479 -0.1595267 0.25501224 -0.046902057 0.005900842 -0.024423666
-0.022909831 0.13827127 0.13116978 0.01764646 -0.14249124 0.06446126 -0.05785346 0.07238743
0.04663222 -0.015444161 -0.0025167016 -0.2791497 0.1196783 -0.13431518 -0.040847123 -0.18581328
-0.07702601 0.050065428 -0.17844187 0.05091282 0.12205359 0.10017746 0.23986013 -0.16064379
0.06387029 -0.20067589 -0.067022935 0.16958156 -0.058264546 -0.0028230916 0.034947436 0.15757942
0.00081115845 -0.067977846 -0.11715308 0.07521364 -0.058532584 -0.07224474 -0.07755244 0.015710596
-0.127269 -0.083562784 -0.01842429 -0.077933356 -0.07143934 -0.056067836 0.05216271 0.058747083
-0.027668377 -0.037463654 0.100826904 -0.05823936 -0.08442362 -0.10988288 0.041427474 0.035728224
-0.0333753 0.080338396 0.258261 -0.026223663 -0.17606077 0.003983548 -0.19539304 0.064695455
-0.13116977 0.15854292 -0.15854527 0.0673866 -0.13667434 -0.08262389 0.025345506 0.15861309
-0.051398363 -0.10221454 -0.036612388 0.0023234305 0.16148673 0.29027134 -0.069848984 0.12055
0.2152965 0.10622531 0.13801381 0.20861888 0.004428909 -0.02692596 -0.15850022 -0.19840945
-0.08801528 0.10201076 -0.025816917 0.28242907 -0.044086915 0.5188944 0.01667333 -0.05962234
-0.17730333 0.09218467 0.29581478 0.103759855 0.10691408 0.088724844 0.09870591 0.034319043
-0.09977131 0.10725718 -0.13042486 -0.14188182 0.13700159 0.032953963 0.18337727 0.09654552
-0.040616717 -0.022559173 -0.11102959 -0.22033578 -0.04320033 0.18279864 -0.07751985 0.02743009
0.09129117 0.029375073 0.04892646 0.08596075 -0.48118636 0.021878608 0.18571088 -0.21379298
0.017489336 -0.023529205 -0.4858203 0.03286402 0.14339967 0.16488513 0.056036208 0.12304576
-0.08308642 0.2653262 0.008616171 0.15896277 -0.29285982 -0.43236828 0.27037174 0.3134437
-0.058560897 0.105320394 0.014266902 0.043471467 -0.34163168 -0.11779631 0.22779389 0.2956134
0.21887147 0.38136277 0.2918665 0.047674425 0.3311211 0.089480266 0.13463841 0.17631789
-0.03052508 0.20122924 0.3580032 0.13596958 0.09684974 -0.019043338 -0.09491267 0.26085806
0.045090847 0.41320106 0.08088535 0.17051746 0.20262937 0.23358782 0.01317377 0.08072264
-0.030610655 -0.031863045 0.048704248 0.13592784 0.12928589 0.14407626 0.32112753 0.16167514

linears.1.3.bias f4 [16]
00000000: 8daf 9a3e 968b 5cbd 1256 64be 3094 b33e
00000010: a1ac 8e3e ab94 713e 7469 24be 051f f83e
00000020: c253 9dbe a23b 6d3b 80fd 22be a456 acbe
00000030: aabc 9ebc e892 2cbe 6687 cabe dab4 693e
0.3021206 -0.053844057 -0.22298458 0.35073996 0.2786608 0.23591869 -0.16055852 0.48461166
-0.30727965 0.0036198874 -0.15917015 -0.33659852 -0.019377071 -0.16852915 -0.39556426 0.22822896

linears.2.0.weight f4 [64, 22]
00000000: 20a4 f83d 7a99 ce3e ae05 e9be d827 a3bc
00000010: 8e97 0bbe c085 813d b3a3 0fbe 1e05 f43d
00000020: 0a6c 913d abf8 48be 650c c4bb 747b 29be
00000030: 40b7 16bc 4b87 de3d 3060 58be dc2d a73e
00000040: fea5 eabd 8ec8 49be 47b0 6abd 5463 d03d
00000050: 253e eabd a050 17be 7238 abbd 9f42 203d
00000060: 83b1 133c 683c 13be 8ada 363e d8cd 18be
00000070: d0c2 f73a 99af 36be d8b0 5abe 9691 31be
00000080: 5ae9 4d3e f11d debc 50e6 bcbd 80c1 173e
00000090: 8b64 433e a6ce 333d 7620 623e ee2f c4bc
000000a0: 554e 33be 4a2c c03b 1103 1a3e 0b55 163e
000000b0: f397 553d 5c02 4bbe ac8b 9ebe 612b 30be
000000c0: 9bf2 2d3e c651 363e 4652 aabc b61a 213e
000000d0: 2b2d 37be ae63 b93d 7e0a 1fbd 34ea 9e3d
000000e0: 3568 973d 1bbc d03d eece 2b3d 9529 203e
000000f0: ee59 463e 6fd8 c339 3f4d fabd d65b 123e
00000100: 3425 3a3e 6b72 afbd 9363 42be dd74 963c
00000110: 9d1c 08bf 67c9 0b3e ea7d 4a3b 1653 c43b
00000120: 1707 533c bbd4 bd3a f250 1fbe 4784 5dbd
00000130: 6e71 47be 38b6 113d c53b d93c 60bc 2abe
00000140: 6f2d 2cbe 5e6f aebd 6f0a 79bd 20fa 0cbe
00000150: e9e0 4b3d 48dc 253e be45 ccbc 4dc1 643e
00000160: ea1e b8be 2161 51bf 5969 3bbf ebf2 11bf
00000170: c609 9abd c693 6fbb f56f bfbd 99cf 4d3e
00000180: f02d 553e a349 61bd 22cb b7bd cc50 0cbf
00000190: 675c 55bb d77f 93be 0a1d a4be be82 e8bc
000001a0: 5365 263e 8dd7 313e e687 78be d905 55be
000001b0: ef33 a83e fa11 1d3f 2650 5a3e de8d e53d
000001c0: c134 3d3e 482b 003f 60fc d23d eed9 a5bb
000001d0: 0bce 8cbe b269 a9bd 02ce 2e3e 6dd3 e3b9
000001e0: e940 823d d619 3b3f 9003 4bbb d5f5 6cbe
000001f0: 5b41 10bd f9a7 2b3e 1c1e 063d 1009 3f3e
00000200: 50c1 ba3e 603f f2bd ee21 f13d 23d8 3a3e
00000210: 98c4 603c 1c4d 1f3d bff7 17be 35b2 36be
00000220: 1be8 2a3e 3bdf 93be 050a 243d b571 c2bd
00000230: 9e4c e1bc d1cb e53c 3c20 18be da8a b2be
00000240: a4f7 bfbe 199c f83c dc6f 93be 2186 e9bc
00000250: 15e1 e93d 17ab 043e 2357 423e 1ec3 d4bd
00000260: 40e8 143e 68eb 923d 7310 17bd 17f3 a5be
00000270: 82e3 163e 8b22 8b3e d418 083e f274 5bbd
00000280: 4454 253e 3a21 af3d 851a 8f3b a037 bcbc
00000290: a89f 55be 3ee5 9bbd 9fe2 ae3e 66c9 34be
000002a0: 0baf acbe 3612 2d3e fd11 b73d 8640 6b3d
000002b0: 1b64 2a3e e327 17be 7026 5b3c 1329 a7bc
000002c0: a9d6 9ebd 5a11 373c 3c83 04be e517 2ebd
000002d0: f65f 6cbc f9a5 f23e bc8c b43d c630 a7bc
000002e0: 394e 48be 191b d93d 6058 c13d 697c 9bbe
000002f0: 5e50 eb3b b601 593e 6e36 89bd 56c6 54bd
00000300: 627b 1a3e d502 013e fbb9 193e e857 4d3e
00000310: 49a9 27bd 41f6 98bd d0a4 1cbd 0ca1 5bbc
00000320: 24fb 8f3c a224 17bc 3f1c 0abc ac96 bb3f
00000330: a871 463d e68a 573c f12c bc3d f9c3 b4bc
00000340: d407 46bd d414 853c 1626 49ba f48c 3b3b
00000350: f2b3 9cbe 0f11 d73b 27d9 bb3d a489 463e
00000360: 2eb9 443d 84ec a93d 281c da3d 8634 313e
00000370: 44ab 403e 118c dfbd ef17 6f3e ed88 fa3c
00000380: 0a87 12be 6b75 b63d 712b 47be 9660 01be
00000390: 3f26 58bb 69ce b53d 2a8f 453e 63f0 a03d
000003a0: 769e 613e 4a98 27be 4d19 103d 3c0f 053e
000003b0: bba8 483e 12e8 3abe 939d 5dbe 8a15 09be
000003c0: ecea 6d3e ee24 e9bd 4cf9 88be ed2e 453e
000003d0: 159d 0bbe 7bf7 13bf d20c bcbd 38ad e5bd
000003e0: da19 3bbe 6599 483e a9ec 82be 8ddc e3bd
000003f0: 6c3e cd3c a97c 2c3e 0317 94bd 2a93 213e
0.12140679 0.40351468 -0.45512146 -0.01991646 -0.13632032 0.06324339 -0.1402729 0.119150385
0.07100685 -0.1962611 -0.005982923 -0.16551 -0.009198964 0.10865649 -0.21130443 0.32652175
-0.11457442 -0.19705412 -0.057297017 0.10175195 -0.114376344 -0.1477685 -0.083603755 0.039126035
0.00901449 -0.14378512 0.17856804 -0.14922273 0.0018902663 -0.17840423 -0.21356523 -0.17340693
0.20108548 -0.027113887 -0.09223616 0.14819908 0.19081323 0.043898247 0.22082695 -0.023948636
-0.1751035 0.0058646547 0.15040232 0.14680879 0.052146863 -0.19825119 -0.30965936 -0.17204048
0.16987078 0.17804632 -0.020791184 0.15732846 -0.17888324 0.090522155 -0.038828366 0.077595145
0.07392923 0.10192128 0.04194539 0.15640862 0.19370243 0.00037354554 -0.12221765 0.14292845
0.18178254 -0.08566745 -0.18983297 0.018366272 -0.5316866 0.13651048 0.0030897805 0.00599135
0.012880108 0.0014482954 -0.15558222 -0.054081228 -0.19476864 0.035574168 0.026517758 -0.16673422
-0.16814207 -0.08517335 -0.060800966 -0.1376729 0.049775038 0.16197312 -0.0249356 0.22339363
-0.35961086 -0.8178883 -0.7320762 -0.5701129 -0.075213954 -0.0036556586 -0.09347526 0.20098723
0.20818305 -0.055001866 -0.089742914 -0.54810786 -0.0032556297 -0.28808472 -0.32053405 -0.028382655
0.1624959 0.17367382 -0.24270591 -0.20803012 0.32852122 0.61355555 0.21319637 0.112087
0.18477155 0.5006604 0.10302043 -0.0050613796 -0.27500948 -0.08272113 0.17070773 -0.00043454338
0.06360037 0.730863 -0.0030977465 -0.23140652 -0.035218578 0.16763295 0.03274356 0.18655801
0.3647561 -0.11828494 0.1177405 0.18246512 0.013718747 0.038891897 -0.14840601 -0.17841418
0.16690104 -0.2888125 0.040048618 -0.09494344 -0.027502354 0.028051289 -0.14856046 -0.3487156
-0.37493622 0.03034787 -0.2879628 -0.02850634 0.11419884 0.1295589 0.18978553 -0.10388778
0.14541721 0.071738064 -0.03688092 -0.32412025 0.14735225 0.27174792 0.13290721 -0.053578325
0.16145426 0.08551259 0.004367175 -0.022975743 -0.20861685 -0.07612084 0.34157273 -0.17654952
-0.33727297 0.16901478 0.08938978 0.05743458 0.1663975 -0.1476131 0.013375863 -0.020405328
-0.07755787 0.0111735705 -0.12940687 -0.042503256 -0.014427176 0.47392252 0.088159055 -0.020409
-0.1956109 0.106008716 0.09440684 -0.30368355 0.0071812114 0.21192059 -0.06699835 -0.05194696
0.1508613 0.12598737 0.15012352 0.20053065 -0.040932927 -0.07468844 -0.038243115 -0.013405096
0.017575808 -0.009225043 -0.008429586 1.4655356 0.048448235 0.013155675 0.091882594 -0.022066103
-0.04834731 0.016245283 -0.0007673217 0.002861795 -0.30606037 0.006563313 0.09172278 0.19388443
0.048028164 0.08297065 0.10649902 0.17305192 0.18815333 -0.109153874 0.23348974 0.03058287
-0.14309326 0.089091145 -0.19450165 -0.12634501 -0.003298178 0.0887726 0.19292894 0.0785835
0.22033104 -0.16366687 0.03518038 0.12994093 0.19595616 -0.1825259 -0.21642141 -0.13387123
0.23234147 -0.11383997 -0.26752698 0.19256182 -0.13634141 -0.577995 -0.09182133 -0.112146795
-0.1827158 0.19589765 -0.25571182 -0.11126051 0.02505418 0.16844429 -0.07230952 0.15778795

linears.2.0.bias f4 [64]
00000000: cd34 33be b7e6 8a3d 8cb6 433e baf7 cc3e
00000010: da78 17be de75 2ebe c868 3cbc 032a 2abe
00000020: 45da e9bd 19e0 8e3f 0bb6 19be 385f 0dbd
00000030: 0b35 75be 607b d3bd bd4f 603d 5312 823e
00000040: cf3b 1a3d ef29 de3d ae22 433d 8e0c fdbd
00000050: 8b1e 75be b827 273e 896b 0a3e 92da 32be
00000060: 2123 e73c 0556 4cbd 133b 2ebd f561 c7bd
00000070: 5826 70be ec5e 803e b9da 513e 4041 2cbe
00000080: e5d7 1bbd 95a4 92be 5615 acbe 09c6 13bf
00000090: 08ea 2d3d 4335 2ebd 21be adbe d328 013e
000000a0: 6b90 87be e475 1ebe 2f68 b9be 4bab 5cbe
000000b0: 9641 503c 0f7f 40bf 4e66 543c e27a a23e
000000c0: e009 fcbd 89fa c13d 1ea2 1bbe dec9 93bd
000000d0: 6412 5fbd f599 7fbe 0fcd 083e ef18 90be
000000e0: 62cf 07bf 3f54 3d3e f316 efbb eb08 8cbe
000000f0: fa9d 88be a91b 8fbe 5fc3 1a3e b1f7 4abe
-0.1750061 0.067822866 0.19112605 0.4003275 -0.14792195 -0.1703715 -0.011499591 -0.16617589
-0.11418585 1.1162139 -0.1501085 -0.034514636 -0.23946016 -0.10326266 0.054763544 0.25404605
0.037654694 0.10847842 0.047640495 -0.1235591 -0.23937432 0.16323745 0.13517584 -0.1746619
0.028214993 -0.049886722 -0.042536806 -0.09735481 -0.23452127 0.2507242 0.20493592 -0.16821766
-0.03804769 -0.2864119 -0.33610028 -0.5772405 0.042459518 -0.042531263 -0.3393412 0.1261323
-0.2647737 -0.15474659 -0.36212298 -0.21549718 0.012710949 -0.75193876 0.012963844 0.31734377
-0.12306571 0.09471614 -0.15198562 -0.072162375 -0.054460898 -0.24961074 0.13359474 -0.28144023
-0.53050816 0.18489169 -0.007296437 -0.27350554 -0.26683027 -0.2795079 0.1511359 -0.1982105

linears.2.3.weight f4 [16, 64]
00000000: e111 c3be dd83 003d cb84 f0bd 2d2d 813e
00000010: 42c5 9cbe d267 17be 49a6 85be 3dfc 0cbe
00000020: b1f2 803e c367 6abf 2fd3 93bd 134a 0e3e
00000030: 9931 1fbf 6875 75be 46c5 a0bd b794 323e
00000040: 1aaa b4bb f931 c2bb d3fc 03be db79 59be
00000050: 1a12 b23e 280e 6d3d b772 8bbe e8b5 2bbe
00000060: f38a 10bd 8e2f 53bd 5632 323e f433 253e
00000070: 33a0 1a3e b336 1fbd f845 95bc c982 10be
00000080: f7d8 0bbd e60d 49be d77b 92bd a6a7 8a3e
00000090: 9b28 a9bc 92b2 a0bc 8c4a 6ebd 9751 df3c
000000a0: ce90 b0bd 5a54 513e 5cf5 9cbe cd18 14be
000000b0: 5875 863e d7ae 313f 0abc 01bd b629 f43e
000000c0: dd90 41be 3fc1 a63d 7241 98be 2ef7 95be
000000d0: 0174 0c3d 251f 37be 7a62 193b aaca 83be
000000e0: 1d01 41be e230 8c3e 92f9 8e3e a23e 48be
000000f0: 873e 5ebd df32 66be 7706 03bd bda5 a5be
00000100: 35d9 363e c4b5 b6bd 716e 27bc cd80 eb3c
00000110: 28d9 af3e b3e6 71bd 0367 f73c 5dab 273e
00000120: 8a55 39be 345c ac3e e948 7a3d 8657 aabd
00000130: 417b 8f3e 9e39 74bc 3949 0abd e035 e43d
00000140: eb1f 403c 2cd4 8dbd 442d e2bd 3556 e43b
00000150: ac24 c1bd f179 bcbd b739 3ebd 7711 713d
00000160: c5f3 21bd b03c 25bd 1480 6b3d 6899 943e
00000170: 12cc 753d f2c2 523d 0d7a f8bd 2615 80bd
00000180: 0616 5d3d 0925 afbd 650e 9cbd 910c d03d
00000190: 2bc2 c5bd 3c06 cdbd 0c06 bc3d dc42 063d
000001a0: 0cae 1f3e e881 28bb c2c7 553e 04bd 9f3d
000001b0: 42b8 d4bc f244 61be e105 043e 692d 0dbe
000001c0: cc8e fa3d 9670 153e 15f4 a53c 3272 603c
000001d0: 5d62 183e 42a3 013e 80fc 8bbd 7612 993c
000001e0: e0b6 e13d 890b 2ebd 0f00 d03c 7a3b 073e
000001f0: 0312 3bbd 2bdc 07bd 08ca 953d 9d78 c83d
00000200: 6b83 db3c addd 89bd 6437 6f3b 5811 083e
00000210: aefe 3b3e f982 8cbe 933d 58be 67b2 65bd
00000220: 148d 503e b0d6 66bd fa5c ed3c bac1 813d
00000230: 790f 86be 8937 a7be 9618 1abe 48e5 983e
00000240: a757 cabc cf21 213d f0dd 15be 2834 dcbd
00000250: 69cd 283e ad61 2abe 3aa5 eabd 8750 acbc
00000260: d0f6 8d3d 490f 423d c63e 173f 1e6b 713e
00000270: 6a86 ae3d b3c6 95bd a8a3 ebbd 8cc9 84be
00000280: bd84 5abe 679c cabe 1b51 92be e8c3 463e
00000290: 3559 f33c 842f 78bc 3db4 02be d69c 75be
000002a0: 4abf f3bd 2fa2 ce3d e1f7 91bd e146 003e
000002b0: 3a0c 16be 9c62 933e 7842 dabd 0642 fcbd
000002c0: 2bf5 ecbd 82e8 afbd b705 0e3c 6d2b 81be
000002d0: 11fb 14be 32f1 4abd 369e 683b 1c8e 07be
000002e0: 8a27 b63e 0272 423e 609d 2dbd 0b30 f4bd
000002f0: 58f9 acbd 8dff b33c 5e5a 533d 366b c53d
00000300: f468 82be e894 9f3a 3946 6d3c df42 7fbc
00000310: f47f f1be 798b ef3d df60 7fbd dcad 9a3d
00000320: b038 18bd b28f 91be 6ac0 843d 99f2 483c
00000330: 62c8 9bbe 27e9 e33d 3e05 5f3d dfdd 8ebe
00000340: a910 ca3d e18c 473e a47d 783a 66af 9dbd
00000350: c7db 293e 23cc 8c3d c833 f53c c000 6bbd
00000360: 5ab2 343d 1db8 8a3d caec 45be 3fb9 0dbe
00000370: 0f97 513d 09d8 293e 7d74 513e b42f a4bc
00000380: 91b7 7e3e 4bcd bfbd 95b5 663d 51c1 963d
00000390: b5ef 42bd ee62 0a3e a15b ad3d 5416 5c3e
000003a0: 75a4 64bd 3eb8 8e3d a2b0 243c 6c2c 22be
000003b0: 400f 5d3e 1907 a43e 8ad9 803e 7aa9 f23e
000003c0: 165d 84be 4c27 0c3e 7d46 853d 018c 90bd
000003d0: f54c 283c 52fa 24be 3a65 fb3d cbcf 13be
000003e0: 4528 75be 1c27 923d f00d 2c3e a456 5b3d
000003f0: 9d30 413e 7239 5dbe 23cb 993a 3575 8cbe
-0.38099578 0.031375755 -0.11744078 0.2522978 -0.30619246 -0.14785698 -0.26103428 -0.13768096
0.2518516 -0.9156458 -0.072180144 0.13895445 -0.62185055 -0.23970568 -0.07850127 0.17439543
-0.0055134417 -0.0059263674 -0.12889414 -0.2123789 0.34779435 0.05787483 -0.27235958 -0.1676861
-0.035288762 -0.051559024 0.17402014 0.161331 0.15100174 -0.038870525 -0.01822184 -0.1411239
-0.03414246 -0.19634208 -0.07152527 0.2708103 -0.020649245 -0.019616399 -0.058176562 0.027260585
-0.08621369 0.20442334 -0.30655944 -0.14462586 0.262614 0.6940741 -0.03167347 0.47688073
-0.18902917 0.081423275 -0.2973743 -0.29290146 0.034290317 -0.17882974 0.0023404644 -0.25740558
-0.18848081 0.27381045 0.27924782 -0.19555143 -0.05425885 -0.22480343 -0.031988587 -0.3235301
0.17856295 -0.08921388 -0.010219202 0.02874794 0.34345365 -0.059057903 0.030200487 0.16373964
-0.18099037 0.33664095 0.06110469 -0.08317475 0.28023723 -0.014906315 -0.033761237 0.11143088
0.01172636 -0.06925234 -0.1104379 0.0069682845 -0.09430823 -0.09202946 -0.04644176 0.058854546
-0.039539117 -0.04034108 0.05749519 0.2902329 0.06000907 0.051455446 -0.12132654 -0.06254034
0.05397608 -0.08551986 -0.07619933 0.10158647 -0.09656175 -0.10010955 0.09180841 0.032778606
0.15593737 -0.0025712196 0.20876983 0.07799724 -0.025966767 -0.21998957 0.12892868 -0.13786854
0.122342676 0.1459373 0.020257989 0.013699101 0.14881273 0.12659934 -0.0683527 0.01868556
0.11021209 -0.04249147 0.025390653 0.13206282 -0.045671474 -0.033168953 0.07313925 0.0978863
0.026796063 -0.067317344 0.0036501521 0.13287866 0.18358871 -0.27443674 -0.21117239 -0.05607834
0.20366317 -0.056357086 0.028974999 0.063357785 -0.2618368 -0.32659557 -0.15048441 0.29862428
-0.024699999 0.039338883 -0.14635444 -0.107521355 0.16484608 -0.16638823 -0.11457296 -0.021034492
0.069318414 0.04737786 0.5908016 0.23576018 0.08521731 -0.073132895 -0.11505824 -0.25935018
-0.21339698 -0.3957245 -0.28577504 0.1941067 0.029705623 -0.015148047 -0.12764068 -0.2398561
-0.1190172 0.10089528 -0.07127357 0.12527038 -0.14653102 0.2878617 -0.10657209 -0.123172805
-0.115701996 -0.08589269 0.008668355 -0.25228444 -0.14548899 -0.049546428 0.0035494692 -0.13237804
0.3557704 0.18988803 -0.042386413 -0.11923226 -0.08445996 0.021972442 0.051599853 0.096395895
-0.25470698 0.0012175115 0.014482074 -0.015579908 -0.47167933 0.11696524 -0.062348243 0.07552692
-0.037163436 -0.28429943 0.064820126 0.012264871 -0.30426317 0.11128455 0.05444836 -0.2790365
0.09866459 0.19487335 0.0009479171 -0.0769947 0.16587745 0.068748735 0.029931918 -0.057373762
0.0441154 0.06773398 -0.19328609 -0.13840197 0.05116945 0.16586317 0.20454593 -0.020042278
0.24874713 -0.093653284 0.056325514 0.07361091 -0.047591884 0.13514301 0.084647425 0.21492893
-0.0558209 0.06968735 0.010051878 -0.15837258 0.21587849 0.32036665 0.2516597 0.47394925
-0.2585227 0.13686866 0.06507585 -0.070579536 0.010272254 -0.16111115 0.12275167 -0.14434735
-0.23941143 0.07136366 0.16802192 0.053549424 0.18866201 -0.21603945 0.0011733513 -0.27433172

linears.2.3.bias f4 [16]
00000000: 726e 933e 6b22 aabd d830 a1be 8c0b b83e
00000010: 977d 263c 4bfe 263e 79bd f1bd 8d4d ae3e
00000020: 49c9 e5bc 33ae 64bd f4bc 75ba 2132 173e
00000030: 0360 2f3e 6f30 bbbe 1877 fdbd 84d8 9b3e
0.287952 -0.08307346 -0.31482577 0.3594631 0.010161779 0.16307943 -0.11803717 0.34043542
-0.028050082 -0.05583019 -0.00093741645 0.14765216 0.1712647 -0.3656039 -0.12376231 0.30438626

linears.3.0.weight f4 [64, 22]
00000000: 38db 59ba 7361 aa3e de8b a8bd 8f4e e5be
00000010: cb7b eebd e571 033b b118 19bd 3957 43be
00000020: 51f5 283e 79c8 2f3d 261a 1b3e 9ac2 17be
00000030: 7a39 d53e a9b4 08be 19b3 3ebe 5b0e 4c3a
00000040: e3d2 5fbd 9df0 dcbd b5bc 55be 9254 0fbe
00000050: 6f8d dbbc abb6 493d 918f d6bc 082f 273e
00000060: 1406 503e abb9 aabe 82af 023e c514 6a3d
00000070: 3b35 af3d a8fb ed3d 7d63 32be 43f3 a43d
00000080: 7f65 fc3d 3772 253e a21a 0a3e 5646 8a3d
00000090: 68ee 873d 64f4 1c3e 882d 063e 5628 c43d
000000a0: 44a4 5abd 2c8a 5ebe e68a 28be bf1b 323e
000000b0: c317 9bbe a867 adbe 55a1 c6be ada7 c43e
000000c0: 0933 7b3d 09d3 d53d 313d 023e c8d7 373c
000000d0: 8bbc 8fbc 90c1 a1bd 5bd9 dc3c 27fe 673e
000000e0: e3ee fb3d 2c8c 39be 34eb fa3d d136 0ebf
000000f0: 981d 34bd e2b7 c1bd 9130 823e 43ab 883e
00000100: 3793 76be 1186 ff3c acba e4bd 3a12 9ebe
00000110: c2d8 48be fc61 65be 6810 62be 7e40 e9bb
00000120: 721b b7bd 9372 52be ba0f 2fbd 0b8d b83d
00000130: e266 08be 169c a0be 1bcb 61be 5e07 483e
00000140: 9c09 6d3d 82b5 fcbd faba 233e 9759 efbc
00000150: aef3 4cbe 6028 563c d948 3ebd 2135 3cbe
00000160: 40c5 a6be 5940 7a3e 60d0 b5be 1e68 403e
00000170: 2dce 253d 9c36 ea3e e026 c6bd 3b34 423c
00000180: fdd7 f9bc 967c e13c bcc3 923d ba11 d2bd
00000190: 7c46 113d 6b81 823d 1491 283f e513 27be
000001a0: e904 2e3e 45bc d43d 5edc 60be b54d 09be
000001b0: 1c13 6d3e 4130 213e a214 a4bc 25e9 cabe
000001c0: e834 07bf 37cb fd3d 884e 12bf 2d8a 583c
000001d0: 3aba 96bc a84e 5abd b5e5 423e 5d66 f9bd
000001e0: a1a2 81bc 98b5 cf3d 0a4d e33e a83d 643e
000001f0: ea72 023f 2a9c ec3e cca0 f0bd ff61 563e
00000200: 14cb 2bbe 8878 19bd 5071 edbd ba91 c1bd
00000210: 0969 81be 5b08 2b3e b007 e5be 5221 91bd
00000220: e574 d63d e7d5 99bc 0e1c 7e3e c4c2 02be
00000230: f429 953c 81c4 4d3d 201a f53d 7520 45be
00000240: 00c5 003e de2d 08bd ee97 3abd 9d4f 0abd
00000250: f777 0ebd 765a 193d a0ee cd3d 3f40 89bd
00000260: 5ff0 383e 940a f9bd 9840 0fbe 059e e03e
00000270: 6469 15bf a623 c93e 8227 1b3c f5a3 833b
00000280: 0d4c 1a3e 62b2 15be dbce 15be 209b ddbc
00000290: c119 e3bd 5ee1 b3bd 54c9 83be b4e6 13be
000002a0: d5d9 c4bd 9a21 2ebe df6e 1e3e 16be e23c
000002b0: 7e95 fcbb 537d 1ebe 4542 a53d 8d48 fc3d
000002c0: 9119 783e 5d86 1a3e 1697 ce3e 6e1c 0bbf
000002d0: de80 04be 5ca4 a939 aeeb 9ebd 0638 4d3d
000002e0: e94e f7bc 16db 9abd 7674 0ebe 78f5 153f
000002f0: 3cc1 c93c 0638 8abe 9c54 0c3e d9a6 80be
00000300: 04ce bb3d 7fe2 c2bd 8bb7 323e ce7a f1bd
00000310: 3bd2 73b9 4a51 563e cd14 633e 0b17 b1be
00000320: 1062 28be 944c bebc d590 16be 181c a9be
00000330: 89e6 3b3e a74f 593c 7d33 3fba b4f2 84bb
00000340: 200f 42be fe07 0cbe eed0 a93d 65fd 013e
00000350: 5ce7 6a3d d7af 193d 2658 9c3d 52d0 8c3b
00000360: bf23 0d3e d0f3 03be 0ad9 f6bb 8dee 6bbe
00000370: 57a9 debd af24 a03e c483 0b3d d907 013e
00000380: f738 0fbe 7c35 6fbe 79a5 fdbd 4fb4 1d3d
00000390: 8bf4 063d ca66 66be 4e60 4fbe 8808 82bd
000003a0: af80 adbe a008 a4bc 8706 c23d b2ad f43d
000003b0: 8f56 243e 5b1f bbba 3607 a03d 1723 d63d
000003c0: 7ef4 4f3d 37ba f7bd 621e 0fbe 3b23 403e
000003d0: 5b22 1abd 2757 cfbd 5645 1c3c 9f28 3cbd
000003e0: 29aa 183e 4180 58bd 9374 7dbd 41f6 12bd
000003f0: cc6a d23d 0664 ab3e 322d a0be 373e 073c
-0.0008310559 0.33277473 -0.082298025 -0.44786498 -0.116447054 0.00200569 -0.037377063 -0.19076242
0.16499831 0.042915795 0.15146694 -0.14820328 0.41645414 -0.13350166 -0.18623008 0.00077841216
-0.054644477 -0.10788081 -0.20872767 -0.13997105 -0.02680084 0.04924647 -0.026191505 0.16326535
0.20314819 -0.33344778 0.12762263 0.057148714 0.08555075 0.11620265 -0.17420764 0.08054211
0.12324046 0.16156851 0.13486722 0.06751697 0.06637269 0.15327603 0.13103306 0.09578006
-0.053379312 -0.21732396 -0.16459236 0.17393397 -0.30291566 -0.33868146 -0.38794962 0.38409176
0.061327968 0.104406424 0.12718655 0.01122088 -0.017545959 -0.07898247 0.026959112 0.22655545
0.123014234 -0.18119878 0.12251893 -0.55552393 -0.043973535 -0.09458901 0.25427678 0.26693162
-0.24079596 0.031191858 -0.11168417 -0.3087328 -0.19613937 -0.2240066 -0.22076571 -0.007118284
-0.08940782 -0.20551519 -0.042739607 0.09011277 -0.13320497 -0.31369084 -0.22050135 0.1953406
0.057870492 -0.12339307 0.15989295 -0.029217524 -0.20014831 0.01307115 -0.04645619 -0.18379642
-0.32572365 0.24438609 -0.3551054 0.18789718 0.040479828 0.4574479 -0.096753836 0.011853273
-0.030498499 0.027525228 0.071662396 -0.10257287 0.03546761 0.06372341 0.6584637 -0.16316183
0.1699406 0.10387472 -0.21959063 -0.13408549 0.23151821 0.15741064 -0.02002937 -0.39631
-0.52815104 0.12392276 -0.5715108 0.013216537 -0.018399347 -0.05329767 0.19032939 -0.12177727
-0.015824618 0.10142058 0.44394714 0.22289145 0.50956595 0.46212894 -0.117494196 0.2093582
-0.16776687 -0.037468463 -0.11593878 -0.09451623 -0.25275448 0.16702406 -0.44732428 -0.070864335
0.104715146 -0.018778754 0.2481539 -0.1276961 0.018208481 0.05023623 0.119678736 -0.19250663
0.1257515 -0.033246867 -0.045555048 -0.03376733 -0.034782376 0.037439786 0.1005528 -0.06701707
0.18060444 -0.12160221 -0.13989484 0.4387056 -0.5836394 0.3928501 0.009469869 0.004017348
0.15068074 -0.14618829 -0.1462969 -0.027051508 -0.110888965 -0.0878322 -0.2573954 -0.14443475
-0.09611861 -0.17005005 0.15471981 0.02767853 -0.0077082505 -0.15477495 0.080692805 0.123185255
0.24228503 0.15090318 0.40349644 -0.54340255 -0.12939784 0.0003235665 -0.07759796 0.050102256
-0.030188994 -0.075613186 -0.13911614 0.5857768 0.024628274 -0.26995867 0.13704151 -0.25127295
0.09170154 -0.09515857 0.17452829 -0.11791001 -0.00023252603 0.20929447 0.22175904 -0.34587893
-0.16443658 -0.023229875 -0.14703687 -0.33029246 0.18349661 0.0132636195 -0.0007293744 -0.004057253
-0.18951082 -0.13674924 0.08291803 0.12694319 0.057349548 0.03752121 0.076340005 0.0042972947
0.13783167 -0.12885976 -0.0075331973 -0.23040219 -0.10872143 0.31277987 0.03406121 0.1260065
-0.13986574 -0.23360246 -0.12385077 0.038502034 0.032948058 -0.22500148 -0.20251581 -0.063492835
-0.3388724 -0.020023644 0.09473901 0.11947192 0.16048644 -0.0014276312 0.078138754 0.104559116
0.050770275 -0.120960645 -0.13976434 0.1876344 -0.03763042 -0.10124045 0.009538015 -0.045937177
0.14908661 -0.052856687 -0.061878752 -0.035879377 0.10274276 0.3347475 -0.3128448 0.008254579
