model/final_cleaned1_trained_after_data_argument28_model899.pth (torch, 80967 bytes, 24 tensors)

linears.0.0.weight f4 [64, 22]
0	0xbd6d7e8e	-0.05798202
1	0x3e739fc7	0.23791419
2	0xbe4de211	-0.20105769
3	0x3e5fab62	0.21842721
4	0xbe3e806f	-0.18603681
5	0x3cf59a19	0.029980706
6	0xbd5a3fef	-0.053283628
7	0x3c2403a8	0.010010637
8	0xbe31fe9e	-0.17382285
9	0x3e11b2b6	0.14228329
10	0x3c9a39c5	0.018826375
11	0x3e204d16	0.15654406
12	0xbd9c0bac	-0.07619414
13	0xbe31d517	-0.17366444
14	0xbbc5715d	-0.006025477
15	0xbd59a5eb	-0.053136747
16	0x3de45b04	0.11150172
17	0xbe326004	-0.1741944
18	0x3e2de4f5	0.16981871
19	0x3d558b47	0.05213478
20	0xbe5d83d3	-0.21632318
21	0x3d09a792	0.033607073
22	0x3e209246	0.15680799
23	0x3dd73183	0.105074905
24	0x3e31c866	0.17361602
25	0xbe1e5cf9	-0.15465154
26	0x3e02d02d	0.12774725
27	0x3d923182	0.07138349
28	0x3da8b05e	0.08236764
29	0xbe585730	-0.2112701
30	0x3e40415e	0.18774936
31	0xbd0007e9	-0.031257544
32	0xbd8d174f	-0.068892114
33	0xbe62ac16	-0.22135958
34	0x3be37901	0.006941915
35	0xbd7320dd	-0.059357513
36	0xbe2f7ae2	-0.1713672
37	0x3ddfc408	0.10926062
38	0xbda834e9	-0.08213217
39	0xbe0a0f8a	-0.1348249
40	0x3e5ed718	0.21761739
41	0xbe4483ec	-0.19190949
42	0x3e2ebe58	0.17064798
43	0xbc21851d	-0.009858397
44	0x3a9a86e0	0.0011789463
45	0xbc75ec62	-0.015009971
46	0xbce46138	-0.027878389
47	0x3db711a2	0.0893891
48	0xbd8aa6b2	-0.06770076
49	0x3e91df64	0.28490746
50	0x3d1273be	0.03575491
51	0xbe04bb9c	-0.12962192
52	0x3e47ad54	0.19499713
53	0xbe049f23	-0.12951331
54	0xbc0de35c	-0.008660164
55	0x3e354d0b	0.17705171
56	0x3d9a380d	0.07530222
57	0x3d377329	0.04478756
58	0xbe58e2fb	-0.21180336
59	0xbd190e73	-0.037367295
60	0x3e1b5640	0.1516962
61	0xbc36bc16	-0.011153242
62	0xbd76f6b7	-0.06029388
63	0x3e2a7fe6	0.16650352
64	0x3e00938e	0.12556288
65	0x3e0bd444	0.13655192
66	0x3d80d884	0.06291297
67	0x3e0fa35a	0.14027157
68	0x3e8717b7	0.2638528
69	0xbc74ef96	-0.0149497
70	0x3e1a1c8d	0.15049954
71	0x3dbbf010	0.09176648
72	0xbe526de1	-0.20549728
73	0x3e569527	0.20955335
74	0x3e307f6d	0.17236109
75	0x3e1cdda4	0.15318924
76	0xbd8c21cd	-0.068423845
77	0xbe713617	-0.2355579
78	0xbbe816a1	-0.0070827757
79	0xbbc57956	-0.0060264273
80	0x3ddc8241	0.107670315
81	0xbdb1e518	-0.08686274
82	0x3e1106fa	0.14162818
83	0xbd4657a4	-0.048423424
84	0x3cb1a9c0	0.021687388
85	0x3d58395f	0.05278909
86	0xbdab151e	-0.08353637
87	0xbe5359db	-0.20639746
88	0x3d64c8b5	0.05585547
89	0x3e159923	0.14609198
90	0xbe657877	-0.22409235
91	0xbdbef57a	-0.09324165
92	0x3db5b087	0.088715605
93	0xbe1a9767	-0.15096818
94	0x3dc7b458	0.09751195
95	0xbdc513d2	-0.09622921
96	0xbcd2b32b	-0.0257202
97	0xbc75b4a1	-0.014996679
98	0xbcd20425	-0.025636742
99	0xbd96eb59	-0.07369108
100	0xbe2553d3	-0.16145258
101	0x3e13eec3	0.14446549
102	0xbd813c93	-0.06310382
103	0x3bafb815	0.0053625205
104	0xbdc78c8f	-0.09743606
105	0xbc8535d2	-0.016261015
106	0x3d4db077	0.050217118
107	0x3d0b2548	0.0339711
108	0xbe0004d2	-0.12501839
109	0xbe2d6a1c	-0.16935009
110	0xbe8e2975	-0.27766004
111	0xbe4ac35d	-0.19801088
112	0xbeba2293	-0.36354503
113	0xbca125e2	-0.019671384
114	0x3dfb8227	0.12280684
115	0x3bc0f422	0.005888478
116	0x3b7f26f3	0.0038933128
117	0x3e465ce0	0.19371367
118	0xbc403da5	-0.011733447
119	0x3df84eed	0.12124429
120	0xbdf6cb00	-0.12050438
121	0x3d28091e	0.04102432
122	0x3cf54f02	0.0299449
123	0x3dd75f31	0.10516203
124	0x3e24b45b	0.16084425
125	0xbdadc3ca	-0.084846094
126	0x3e44384f	0.19162105
127	0x3dee7927	0.11644202
128	0xbdcbbeb9	-0.09948487
129	0x3e8189bb	0.25300393
130	0xbd17c5ab	-0.037053745
131	0xbe037c16	-0.12840304
132	0xbd9c7ac2	-0.07640602
133	0xbe31b5c6	-0.17354497
134	0xbd733c25	-0.05938353
135	0xbdc80f4e	-0.09768544
136	0x3c490e4e	0.012271477
137	0x3e6547f2	0.22390726
138	0x3d950737	0.07276767
139	0xbd814315	-0.06311623
140	0x3da7ddf6	0.081966326
141	0xbe241833	-0.16024856
142	0x3e475535	0.19466098
143	0xbc80514c	-0.015663765
144	0x3ce50643	0.027957087
145	0x3e3603bd	0.17774864
146	0x3e1fb4d7	0.15596329
147	0xbca3d755	-0.02000014
148	0x3e516fae	0.20452759
149	0xbd8bc7ce	-0.06825219
150	0x3d381d1a	0.04494963
151	0x3e67b838	0.22628868
152	0xbdd42754	-0.10359064
153	0xbe29c9dc	-0.1658091
154	0xbe8e9554	-0.27848303
155	0xbde03a6e	-0.109486446
156	0x3e22daa6	0.1590372
157	0x3cd477b6	0.025935989
158	0xbe0fbd86	-0.14037141
159	0x3d68e227	0.0568563
160	0xbd203429	-0.039112244
161	0x3e23a923	0.1598249
162	0x3d3f65ef	0.04672807
163	0xbe1ff69f	-0.15621422
164	0x3dbde0ae	0.0927137
165	0xbdc1bc33	-0.09459724
166	0xbd68cfc4	-0.056838766
167	0x3e3827af	0.17983888
168	0x3dade5d4	0.08491102
169	0xbc8a0808	-0.016849533
170	0xbdb84354	-0.08997217
171	0x3e14e524	0.14540535
172	0x3e402db7	0.18767439
173	0x3e37e264	0.17957455
174	0xbe80d27e	-0.25160593
175	0xbe51a9e9	-0.20474972
176	0xbd3722ce	-0.044710927
177	0x3e001202	0.1250687
178	0x3e7c44ff	0.24635695
179	0xbe73c497	-0.23805462
180	0xbe1bde6d	-0.15221567
181	0xbd3e0e62	-0.046400435
182	0x3e362178	0.17786205
183	0xbe4ae6f2	-0.19814661
184	0xbde978cf	-0.113999955
185	0x3d0596a7	0.032614376
186	0x3d3ebe98	0.046568483
187	0xbe9c4d96	-0.30527943
188	0x3df1a97c	0.11799905
189	0x3e4e2f5a	0.2013525
190	0xbe374665	-0.17897947
191	0x3d41b8a0	0.047295213
192	0x3db4f7b1	0.08836306
193	0x3e325763	0.17416148
194	0x3e15d06a	0.14630285
195	0x3d32abe9	0.043620978
196	0x3dc2f984	0.095202476
197	0xbe550ac0	-0.20804882
198	0xbceb3635	-0.028712371
199	0xbd267c8d	-0.040646125
200	0x3ca1e069	0.019760327
201	0x3dfd9396	0.123816654
202	0xbd07ebca	-0.03318385
203	0xbe7f915d	-0.24957795
204	0x3dc7060b	0.097179495
205	0x3e2393e3	0.15974383
206	0x3dfd046c	0.12354359
207	0x3e3925a9	0.18080772
208	0xbd34f673	-0.044180345
209	0x3e536da2	0.2064729
210	0xbd5a0daa	-0.053235687
211	0xbdef0394	-0.11670604
212	0xbe0912f2	-0.13386133
213	0x3c930023	0.017944401
214	0x3e3947fa	0.18093863
215	0xbd97febe	-0.07421635
216	0x3e2fc56a	0.17165151
217	0xbbd56815	-0.0065126517
218	0x3e2c3b1a	0.1681942
219	0xbe0cac38	-0.13737571
220	0xbe11b5fd	-0.1422958
221	0x3db9c38d	0.090705015
222	0xbe0dd254	-0.13849765
223	0xbd959fbd	-0.07305858
224	0x3e0c3317	0.13691364
225	0xbe0ad44a	-0.13557544
226	0xbda8749f	-0.08225369
227	0xbd9ba6a6	-0.07600145
228	0xbd9cd928	-0.07658607
229	0x3e3259ee	0.17417118
230	0xbb1ef627	-0.0024255605
231	0x3ccee6c8	0.02525653
232	0xbbe65cac	-0.0070300903
233	0x3e455b6c	0.19273156
234	0x3ddbac55	0.10726229
235	0xbe6cd3c6	-0.2312766
236	0xbe285985	-0.16440399
237	0x3d55f0bc	0.052231535
238	0xbd3e8d34	-0.04652138
239	0x3d039ccf	0.032131966
240	0xbe7631df	-0.24042462
241	0x3caebd4a	0.021330494
242	0x3d8d53d5	0.06900755
243	0x3e2b948d	0.16755886
244	0xbcb94459	-0.022615599
245	0xbe2426e6	-0.16030464
246	0xbe667b1e	-0.22507903
247	0xbe5b1600	-0.21395111
248	0xbe5351ef	-0.20636724
249	0x3e032325	0.12806375
250	0x3e224ad6	0.1584886
251	0x3d59d64a	0.053182878
252	0x3dc0b60d	0.094097234
253	0x3d80bedc	0.062864035
254	0xbc308514	-0.010773916
255	0xbd68ec8b	-0.05686621

linears.0.0.bias f4 [64]
0	0xbd087c65	-0.033321757
1	0xba8a955a	-0.0010573075
2	0xbe2f9b68	-0.17149127
3	0x3dd11282	0.10208608
4	0xbe4e0e84	-0.20122725
5	0xbd33bb76	-0.04387995
6	0xbe4ee65a	-0.2020506
7	0x3de51478	0.11185545
8	0x3d31f9e2	0.043451197
9	0xbcda5bc9	-0.026655095
10	0xbd8edaf9	-0.069753595
11	0xbda29978	-0.07939428
12	0x3dfb7fde	0.12280248
13	0x3e14d782	0.14535335
14	0x3d56c124	0.052430287
15	0x3e5614c3	0.20906357
16	0xbca8e559	-0.020617174
17	0x3e484208	0.19556439
18	0xbd6e9b8c	-0.05825381
19	0x3cfff1f3	0.0312433
20	0x3e6aae91	0.22918154
21	0x3dc328eb	0.09529289
22	0xbd69e50a	-0.057103194
23	0x3e683b24	0.2267881
24	0x3e2b3c28	0.16722167
25	0x3df62397	0.12018507
26	0x3cee2ab5	0.029073099
27	0x3e10c0cf	0.1413605
28	0xbdd72760	-0.10505557
29	0x3d7bbc74	0.06145902
30	0xbe13dd1c	-0.14439815
31	0xbdebf610	-0.11521542
32	0xbe09b798	-0.13448942
33	0x3e886e3c	0.26646602
34	0xbd0559f7	-0.0325565
35	0x3e0a8572	0.13527468
36	0x3e166ef8	0.14690769
37	0xbde3afa7	-0.111174874
38	0xbdad7ad2	-0.08470692
39	0x3e139ebf	0.14416026
40	0xbde81f60	-0.11334109
41	0x3e1bb1ae	0.15204498
42	0xbde22cf8	-0.11043733
43	0xbdacfed6	-0.084470436
44	0xbcfdbd2a	-0.03097399
45	0x3d43ee98	0.047834963
46	0xbe228cd7	-0.15874039
47	0x3e6707fd	0.22561641
48	0x3db83ca8	0.08995944
49	0xbe7d3fc7	-0.2473136
50	0x3e2f00de	0.17090175
51	0xbcc58aed	-0.024114097
52	0xbe056805	-0.13027962
53	0xbd7d1ec6	-0.061796926
54	0x3e4a2370	0.19740081
55	0x3dd13654	0.102154404
56	0xbdde63da	-0.10858889
57	0x3e4e34dd	0.20137353
58	0xbe6ae3ce	-0.22938463
59	0xbe4ba5d1	-0.19887473
60	0x3e0bfdc4	0.13671023
61	0xbde67ab1	-0.1125387
62	0x3e61bf81	0.22045709
63	0xbe739ff5	-0.23791488

linears.0.3.weight f4 [16, 64]
0	0xbafeefca	-0.0019450125
1	0x3dc29461	0.09500957
2	0xbe0d37a4	-0.13790756
3	0x3dc0a7ac	0.09406981
4	0xbd8076ba	-0.06272645
5	0xbc978f47	-0.018500937
6	0xbc12341b	-0.008923556
7	0x3e29a816	0.16568026
8	0x3d45a9fb	0.04825781
9	0x3ce807c8	0.028324023
10	0x3d459304	0.04823591
11	0xbdc7086e	-0.09718405
12	0xbd66f44d	-0.056385327
13	0x3e1fd122	0.15607122
14	0xbdcd8a26	-0.10036115
15	0xbdd8d4ad	-0.1058744
16	0x3db29a68	0.08720857
17	0x3ddc545c	0.10758278
18	0x3e077753	0.13229112
19	0xbd82ea8a	-0.06392391
20	0x3dd8495c	0.10560867
21	0xbe282555	-0.16420491
22	0xbdeb5488	-0.114907324
23	0x3d7237f3	0.05913539
24	0xbd646a62	-0.055765517
25	0xbc457014	-0.012050647
26	0x3d42c3eb	0.047550123
27	0xbcee3e32	-0.029082391
28	0x3d99c142	0.07507564
29	0xb865f0ac	-5.4821998e-05
30	0xbdcf55a6	-0.10123758
31	0xbd852c97	-0.065026455
32	0xbca4fb32	-0.02013931
33	0x3e0e9bd7	0.13926636
34	0xbbebd569	-0.0071970713
35	0xbc6bd817	-0.014394782
36	0xbd53fab2	-0.051752754
37	0xbdef7ab3	-0.11693325
38	0xbdb134f8	-0.08652681
39	0xbd54d054	-0.05195649
40	0xbc18d3e3	-0.0093278615
41	0xbb94f7f6	-0.004546161
42	0x3c2f0081	0.0106812725
43	0xbc944ffc	-0.018104546
44	0xbd941409	-0.07230384
45	0x3de3b5c5	0.11118654
46	0xbd86d8ce	-0.06584321
47	0x3cd33a45	0.025784621
48	0xbd4eccbf	-0.05048823
49	0x3c9b9922	0.018993918
50	0xbc8e858d	-0.017397666
51	0x3db2acfd	0.08724401
52	0x3dae0c5b	0.0849845
53	0x3df52b40	0.1197114
54	0x3de5c091	0.1121837
55	0x3db2e6c7	0.087354235
56	0xbd9b01b5	-0.07568685
57	0x3d9bf693	0.0761539
58	0xbbf439a7	-0.0074531618
59	0x3d948fff	0.072540276
60	0xbbded477	-0.00680023
61	0xbe002269	-0.12513126
62	0xbc6a5020	-0.01430133
63	0x3d8b8d92	0.06814112
64	0x3ad26d18	0.0016054241
65	0xbe16ec2c	-0.1473853
66	0x3df242c9	0.118291445
67	0xbe4707ca	-0.19436565
68	0x3e07d25d	0.13263841
69	0x3e884208	0.26612878
70	0x3e0182de	0.12647578
71	0xbe3317a7	-0.17489491
72	0xbd8391eb	-0.06424316
73	0xbd8f5cb4	-0.070001036
74	0xbda21450	-0.079140306
75	0xbd316aff	-0.04331493
76	0x3cbfc6a0	0.023410141
77	0xbe123c4d	-0.14280815
78	0xbd936734	-0.07197419
79	0xbe078e75	-0.13237937
80	0xbdacdaa4	-0.0844014
81	0xbd84edbf	-0.06490659
82	0x3e060ccd	0.1309082
83	0x3e09f8b6	0.13473782
84	0xbe07b197	-0.13251339
85	0xbdb843b9	-0.08997292
86	0x3e278120	0.16357851
87	0xbd82c0ca	-0.06384428
88	0x3c0a4896	0.008440157
89	0x3caa7e61	0.020812215
90	0x3e4fe9f7	0.20304094
91	0x3e8519c1	0.2599621
92	0x3d17d1a4	0.037065163
93	0x3d35809b	0.0443121
94	0xbe25b3c6	-0.1618186
95	0xbd199c87	-0.03750279
96	0x3d3d83a5	0.046268124
97	0x3e13bc6e	0.14427349
98	0xbde36717	-0.11103647
99	0x3d943028	0.072357476
100	0xbd082259	-0.03323588
101	0x3dffde66	0.12493591
102	0xbe17da8c	-0.14829463
103	0x3d8be851	0.0683142
104	0xbd18fd9a	-0.03735123
105	0x3d0d99bb	0.034570437
106	0x3dc3f202	0.09567644
107	0x3cb0c8d1	0.021580132
108	0xbc9dd036	-0.019264322
109	0x3c67c4f1	0.014146076
110	0x3d24bfcb	0.04022197
111	0xbe01bfc4	-0.12670809
112	0xbb9bd456	-0.004755537
113	0x3d713486	0.05888798
114	0xbd60582c	-0.054771587
115	0xbe1938f0	-0.14963126
116	0x3c523b7c	0.012831565
117	0xbd1848a5	-0.037178654
118	0xbe2214bb	-0.1582822
119	0xbe5fceb1	-0.2185619
120	0xbde26d10	-0.11055958
121	0xbdd621d3	-0.1045567
122	0xbccde7d6	-0.025134962
123	0xbdabd2de	-0.08389829
124	0x3d94e1f6	0.07269661
125	0x3db070e5	0.08615283
126	0x3dd68d6d	0.104761936
127	0x3a87423d	0.0010319423
128	0x3e001699	0.1250862
129	0x3d17f605	0.037099857
130	0x3c7cc7ad	0.015428466
131	0x3e0d30d5	0.13788159
132	0xbd5787ff	-0.05261993
133	0xbd40d7c8	-0.047080785
134	0x3dfc1408	0.12308508
135	0x3e3873b3	0.18012886
136	0xbcf37f98	-0.029723927
137	0x3d4ca6f1	0.049963895
138	0x3d690fbf	0.056899782
139	0xbdfbc73c	-0.1229386
140	0xbd8381a6	-0.06421213
141	0x3cc8a393	0.02449206
142	0x3e0c1a63	0.1368194
143	0xbe5822fb	-0.21107094
144	0x3c56cfa4	0.013111029
145	0x3cecae70	0.028891772
146	0x3d9e0fd5	0.077178635
147	0xbd4f48f2	-0.050606675
148	0x3cc6af6a	0.024253566
149	0xbe441a9e	-0.19150779
150	0xbcde0389	-0.027101295
151	0x3df50f09	0.11965758
152	0x3b719905	0.0036864888
153	0x3d98afd2	0.0745541
154	0xbdf3233c	-0.11871955
155	0xbd2cd95a	-0.04219947
156	0xbdcd2028	-0.10015899
157	0xbdbade10	-0.09124386
158	0xbd04742f	-0.032337364
159	0xbcd5b0d5	-0.026085297
160	0xbe05010e	-0.12988684
161	0x3bc8ea53	0.0061314492
162	0x3cad9130	0.021187395
163	0xbc92c155	-0.017914454
164	0xbdd75734	-0.105146796
165	0xbdc1b1be	-0.0945773
166	0xbdce6d8c	-0.10079488
167	0x3e049d34	0.12950593
168	0xbcd4bcce	-0.025968935
169	0x3d63c886	0.055611156
170	0x3c7cb8c0	0.015424907
171	0xbd83df2d	-0.06439052
172	0xbdb9e243	-0.09076359
173	0xbe003c8e	-0.125231
174	0xbdd53e16	-0.104122326
175	0x3d46e80d	0.048561145
176	0xbd7d9826	-0.06191268
177	0x3c03b4f9	0.008038753
178	0x3ce16c83	0.027517563
179	0x3dd2e406	0.10297398
180	0x3c3ad79f	0.011403947
181	0x3de6c2e1	0.11267639
182	0x3e21a179	0.15784253
183	0x3d03b1bf	0.032151934
184	0x3c4eb0bc	0.012615379
185	0xbe14498a	-0.14481178
186	0x3d8fdfcd	0.070251085
187	0xbdd11baa	-0.102103546
188	0xbaabfd70	-0.0013121795
189	0x3e268b26	0.16264018
190	0xbdc45dce	-0.09588204
191	0xbd607b69	-0.054805193
192	0x3d98ba7b	0.07457443
193	0x3e2b14b5	0.16707118
194	0xbce532a1	-0.027978243
195	0x3cc79fee	0.024368253
196	0xbd9e1ee6	-0.07720737
197	0xbdd18508	-0.10230452
198	0x3daa5a5c	0.08318016
199	0x3db9b7c9	0.09068257
200	0x3d3eee25	0.04661383
201	0xbdcdc1c9	-0.10046727
202	0x3d033e71	0.03204197
203	0x3d9c246a	0.07624133
204	0x3d25912d	0.040421654
205	0x3dad20d1	0.08453525
206	0xbdb9a02a	-0.09063752
207	0xbd398632	-0.045293994
208	0x3da4cd6a	0.08046992
209	0x3e2ed9b5	0.17075236
210	0xbd0ce711	-0.03440005
211	0x3cb165d6	0.021655004
212	0x3e12577d	0.14291187
213	0xbd840b32	-0.06447448
214	0xbdca6a80	-0.098835945
215	0x3e19ffa6	0.15038928
216	0xbbb6bc7b	-0.005576668
217	0xbd4f4d0e	-0.050610594
218	0x3cec8849	0.02887358
219	0xbdb950bb	-0.09048601
220	0x3cd250d6	0.025673311
221	0x3dc9d1ba	0.09854455
222	0x3dd955b7	0.10612052
223	0x3c539c76	0.012915721
224	0x3b96849a	0.004593444
225	0xbde12912	-0.10994162
226	0x3db51f38	0.08843845
227	0x3d5960e9	0.053070936
228	0x3d9a8c7b	0.07546326
229	0x3cb65761	0.022258462
230	0x3cb2f740	0.021846414
231	0x3da87d5f	0.08227038
232	0xbd39f808	-0.045402557
233	0x3d94755b	0.07248946
234	0x3d891c37	0.06694835
235	0xbdee161c	-0.11625311
236	0xbddde3e1	-0.1083448
237	0x3d2634ec	0.040577814
238	0xbbe79f6a	-0.007068564
239	0x3d47bd4c	0.048764512
240	0x3dcc0b5e	0.099631056
241	0xbe028845	-0.12747295
242	0xbb9323dc	-0.0044903588
243	0xbc06a423	-0.008217844
244	0x3d41d666	0.047323607
245	0x3d50d7dc	0.05098711
246	0x3ddf6791	0.109084256
247	0x3daf857b	0.08570381
248	0x3d9e7724	0.07737568
249	0x39f5be2b	0.00046871728
250	0xbd817a7f	-0.063221924
251	0xbd430d77	-0.047620263
252	0xbc30242f	-0.010750814
253	0x3dc7d327	0.09757071
254	0x3d7f42d2	0.062319584
255	0xbd019911	-0.031640116

linears.0.3.bias f4 [16]
0	0x3daaad9b	0.08333894
1	0x3ca138e5	0.01968045
2	0x3cca2baf	0.024679033
3	0x3e07981f	0.13241623
4	0xbdb5ecbb	-0.088830434
5	0xbc859c58	-0.016309902
6	0xbe2b4f24	-0.16729409
7	0x3dcfdc6c	0.10149464
8	0x3db9fe76	0.09081738
9	0xbd5a3cd1	-0.053280655
10	0x3c481aeb	0.012213449
11	0x3e12d13c	0.14337629
12	0x3e5a0939	0.2129258
13	0xbe6fdeef	-0.23424886
14	0x3da80df1	0.08205784
15	0xbdf0edc8	-0.11764103

linears.1.0.weight f4 [64, 22]
0	0xbd8b4e0e	-0.06801997
1	0xbe9bd317	-0.30434486
2	0xbd933034	-0.071869284
3	0x3c5bcf1c	0.013416078
4	0x3ca9eb23	0.020742005
5	0xbde320c7	-0.11090236
6	0xbd6d164e	-0.0578826
7	0x3e32aff2	0.1744993
8	0x3da99445	0.08280233
9	0x3e105a12	0.14096859
10	0xbe18a4a0	-0.1490655
11	0x3d61a677	0.055090394
12	0xbe81b17e	-0.25330728
13	0x3e00a4d3	0.12562875
14	0xbdc66d85	-0.09688858
15	0x3e3ede79	0.18639554
16	0xbe12c969	-0.14334644
17	0xbda36523	-0.07978275
18	0xbc5aea65	-0.013361548
19	0x3dfd1b20	0.12358689
20	0xbc0fa840	-0.008768141
21	0x3d8db110	0.069185376
22	0x3d66976e	0.05629676
23	0xbd162223	-0.03665365
24	0xbe54033d	-0.2070436
25	0x3e048351	0.12940718
26	0x3e2e6b9d	0.17033239
27	0xbe3a20f7	-0.18176638
28	0x3c0d4635	0.008622696
29	0xbe2656da	-0.16244069
30	0x3c92a271	0.017899724
31	0xbc42ef3a	-0.011897856
32	0xbe2c79fc	-0.16843408
33	0xbe526de0	-0.20549726
34	0xbd6a5320	-0.05720818
35	0xbdca38b0	-0.098740935
36	0xbe1620ed	-0.14660998
37	0x3d6bfdc8	0.05761507
38	0xbdb4021b	-0.08789464
39	0xbda0f513	-0.07859244
40	0x3e1a711a	0.15082207
41	0xbe37e061	-0.17956688
42	0xbe14809d	-0.14502187
43	0xbe2f5926	-0.17123851
44	0xbd990d6c	-0.07473263
45	0xbe28fbcc	-0.16502303
46	0xbe02ab32	-0.12760618
47	0x3e12437e	0.14283559
48	0xbe522e09	-0.20525374
49	0x3db54895	0.088517345
50	0xbe19de53	-0.15026216
51	0xbc3dcb59	-0.011584126
52	0xbdfacfef	-0.122466914
53	0xbe4c60c0	-0.19958782
54	0xbcf9fa21	-0.030514779
55	0xbe1f2775	-0.15542395
56	0x3e023346	0.12714872
57	0x3cfa08ff	0.030521868
58	0x3e441b50	0.19151044
59	0x3e91b5e8	0.28459096
60	0x3d838637	0.06422084
61	0x3e56f8db	0.20993368
62	0xbe06f7ae	-0.1318042
63	0xbe1a5e23	-0.15074973
64	0x3e03e6e4	0.12881047
65	0xbd976931	-0.073931105
66	0x3e2d3b49	0.16917147
67	0xbe22be6f	-0.15892957
68	0x3d84cbbe	0.06484173
69	0x3c17aaaf	0.009257003
70	0xbd2384c1	-0.039921526
71	0x3ba23738	0.0049504302
72	0xbca2b163	-0.019859975
73	0x3dd880e0	0.10571456
74	0xbe0de82a	-0.13858095
75	0x3e526e31	0.20549847
76	0x3cac9582	0.021067385
77	0xbe099199	-0.13434447
78	0x3b76d362	0.0037662615
79	0xbe2a801d	-0.16650434
80	0x3d9793f7	0.07401269
81	0x3c0186da	0.007905686
82	0xbc880d6d	-0.016607964
83	0x3d7e1688	0.062033206
84	0x3e0cb4b3	0.13740806
85	0xbe515311	-0.20441844
86	0xbe2b2235	-0.16712268
87	0xbe50fdcb	-0.20409314
88	0x3e6ebd15	0.23314317
89	0x3dc987a4	0.098403245
90	0xbeaf971d	-0.34294978
91	0xbe427cc1	-0.18992902
92	0x3e79698a	0.24356666
93	0x3da71380	0.08158016
94	0x3e279d71	0.16368653
95	0x3dd39ee0	0.103330374
96	0x3e068bd8	0.13139284
97	0x3e2d489f	0.16922234
98	0x3ceb64e6	0.028734636
99	0x3e56362f	0.20919107
100	0xbe239369	-0.15974201
101	0x3cc75a2b	0.024334988
102	0x3d69d35a	0.057086326
103	0xbdbfb5ee	-0.09360872
104	0xbbdb11fa	-0.0066854926
105	0x3e08c95b	0.13358061
106	0x3d40b44a	0.047046937
107	0xbe4f30b0	-0.20233417
108	0xbe095019	-0.13409461
109	0xbe3e2555	-0.18568929
110	0xbe063ee0	-0.13109922
111	0x3d4cc200	0.0499897
112	0x3dcf3899	0.10118217
113	0xbc9ea082	-0.019363645
114	0xbe3f6ef1	-0.18694665
115	0x3e156a4b	0.14591329
116	0x3e3da3f2	0.18519571
117	0xbe19b1a1	-0.15009166
118	0xbe130d32	-0.14360502
119	0x3e20f066	0.15716705
120	0x3cd3a939	0.025837528
121	0x3df0c57b	0.117564164
122	0x3e4d82b5	0.20069392
123	0x3db8f742	0.09031536
124	0x3e71c5ba	0.23610583
125	0xbe46adb5	-0.19402201
126	0x3d55a138	0.052155703
127	0x3df21063	0.11819532
128	0x3de460f1	0.111513026
129	0xbe1edf0d	-0.15514775
130	0xbe1aa2f1	-0.1510122
131	0x3e058e21	0.13042499
132	0x3ce775ee	0.028254475
133	0x3e5f9e90	0.2183783
134	0xbe0bf50a	-0.13667694
135	0x3e403930	0.18771815
136	0x3c96c5b3	0.018404817
137	0xbe0a59b7	-0.13510786
138	0x3ca71555	0.020395914
139	0xbe0ad13e	-0.13556382
140	0x3dc58064	0.09643629
141	0x3e258c4f	0.16166805
142	0x3e29c374	0.16578466
143	0xbe471442	-0.19441321
144	0x3e20ef46	0.15716276
145	0xbe040bbc	-0.12895101
146	0xbe33be90	-0.17553163
147	0x3d959121	0.07303072
148	0x3e184f84	0.14874083
149	0x3e3cbd93	0.18431692
150	0xbe337a6a	-0.17527166
151	0xbddddab8	-0.10832733
152	0x3e492c6e	0.19645855
153	0xbce2dd10	-0.027693301
154	0xbe51b2d1	-0.2047837
155	0xbe1ecc72	-0.15507677
156	0xbdc798fd	-0.09745977
157	0xbd5233e3	-0.051319014
158	0xbdd9f12d	-0.10641704
159	0xbe39b7e9	-0.18136562
160	0xbe470858	-0.19436777
161	0xbc3d797b	-0.011564608
162	0x3e072fce	0.1320183
163	0xbcc19ab7	-0.023633344
164	0xbd1b147a	-0.037861325
165	0x3e6caa54	0.2311185
166	0xbd41b1dd	-0.047288764
167	0x3ddb752e	0.107157096
168	0xbd9e9417	-0.0774309
169	0x3d34e057	0.04415926
170	0xbdb9c751	-0.0907122
171	0x3e51d897	0.20492779
172	0x3ba6e2bf	0.005092948
173	0xbc998e6e	-0.018744674
174	0xbe2ac569	-0.16676868
175	0xbde7bbd4	-0.11315122
176	0xbe12a278	-0.1431979
177	0xbe3e93b8	-0.18611038
178	0xbe0425a1	-0.1290498
179	0x3e2b998e	0.16757795
180	0x3c8d1f14	0.017226733
181	0xbd8a42c5	-0.067510165
182	0xbd80218f	-0.06256401
183	0xbe528b73	-0.20561008
184	0x3def6110	0.11688435
185	0xbd98baab	-0.07457479
186	0xbe126610	-0.14296746
187	0x3c4591df	0.012058704
188	0xbdeaa4d5	-0.114572205
189	0x3e4c6af9	0.19962682
190	0xbd6e0b6d	-0.058116365
191	0xbd22d277	-0.039751496
192	0x3e4dd558	0.20100915
193	0xbe4c6ce5	-0.19963415
194	0x3d87b45d	0.066261984
195	0x3dbc1a2d	0.0918468
196	0xbd474c1e	-0.048656575
197	0x3e439b71	0.19102265
198	0xbe65ebd8	-0.22453249
199	0x3da34c88	0.079735816
200	0xbbf16815	-0.007367144
201	0xbd556745	-0.05210044
202	0x3ddc7fe9	0.107665844
203	0x3d958423	0.07300594
204	0xbdd8a590	-0.105784535
205	0xbda758e6	-0.08171253
206	0x3e395931	0.1810043
207	0xbc9dd8ef	-0.019268481
208	0x3e0943ac	0.13404721
209	0xbe1dbe24	-0.15404564
210	0xbc02ba6e	-0.007979019
211	0xbc6eb5f5	-0.014569749
212	0xbe660027	-0.22460996
213	0x3ce1c53c	0.027559869
214	0xbe44a1b0	-0.19202304
215	0xbe1cd3e5	-0.15315206
216	0x3c93800b	0.018005392
217	0x3e2c5cd0	0.1683228
218	0xbe37d000	-0.1795044
219	0xbe312d2a	-0.17302385
220	0xbe9ffc00	-0.31246948
221	0xbe4c992b	-0.19980304
222	0xbea51818	-0.32244945
223	0xbdda7b3e	-0.10668038
224	0x3e080b1b	0.13285486
225	0xba80b5e9	-0.0009819838
226	0x3d54fd3c	0.051999316
227	0x3d9f90d8	0.07791299
228	0xbd8bf317	-0.06833475
229	0xbd85941a	-0.06522389
230	0xbda1c869	-0.07899553
231	0x3c7598cf	0.014990046
232	0xbd5b5346	-0.053546213
233	0x3dc6849b	0.09693261
234	0xbe376463	-0.17909388
235	0xbd588b94	-0.052867487
236	0xbe350939	-0.176793
237	0x3da12684	0.078686744
238	0x3da74363	0.0816715
239	0x3e217831	0.15768506
240	0xbc92a071	-0.01789877
241	0xbde9d6d0	-0.11417925
242	0xbe38188e	-0.17978117
243	0x3e6d6990	0.231848
244	0xbdf581be	-0.11987637
245	0xbe5e4ee8	-0.21709788
246	0xbe58e4a0	-0.21180964
247	0xbe8efec1	-0.27928737
248	0x3e06ef73	0.1317728
249	0x3d8a76b5	0.06760923
250	0xbdbb83a6	-0.09155969
251	0x3de3aa5d	0.111164786
252	0xbe0fe61a	-0.1405262
253	0xbe2747e9	-0.16336025
254	0x3dd757d7	0.10514801
255	0x3e4a7242	0.19770148

linears.1.0.bias f4 [64]
0	0xbdec6eeb	-0.115445934
1	0xbd21843f	-0.03943276
2	0xbd9838f5	-0.07432739
3	0x3e2cecf3	0.16887264
4	0xbd7d0ee0	-0.061781764
5	0x3dceac52	0.10091461
6	0xbe0b1c51	-0.1358502
7	0xbcb5d886	-0.022197973
8	0x3af6efe8	0.0018839808
9	0x3e55be94	0.20873481
10	0x3c8e6599	0.01738243
11	0xbde41bec	-0.11138138
12	0xbce116c0	-0.027476668
13	0xbcb58a75	-0.022160748
14	0x3e65e18b	0.22449319
15	0xbdba50ee	-0.09097467
16	0xbddd9233	-0.10818901
17	0xbdda1eb6	-0.10650389
18	0xbcbcd957	-0.023052854
19	0x3dc31491	0.09525407
20	0x3c8aa243	0.016923076
21	0xbd34d03d	-0.044143904
22	0x3d14f4f7	0.03636643
23	0x3e92c2f8	0.28664374
24	0x3cf4f5a1	0.029902281
25	0x3e207063	0.15667872
26	0x3db93e38	0.090450704
27	0xbe4232fc	-0.18964761
28	0x3dadadca	0.08480413
29	0x3df80274	0.12109843
30	0xbe21b7a0	-0.15792704
31	0xbd79a325	-0.060946602
32	0xbdded365	-0.10880164
33	0x3dbb974e	0.091597185
34	0x3d1a6470	0.03769344
35	0x3d755d2b	0.059903305
36	0xbdd68344	-0.10474256
37	0x3c52c50f	0.012864365
38	0xbe2cf901	-0.16891862
39	0xbd65eec2	-0.0561359
40	0xbe29d57e	-0.16585347
41	0x3e065d2c	0.1312148
42	0x3de5af21	0.11215044
43	0x3d874d4a	0.066065386
44	0x3e79f719	0.24410667
45	0x3dd3bb27	0.10338431
46	0xbe41913a	-0.18903056
47	0x3e4d8e89	0.20073904
48	0xbdfd2fcd	-0.12362633
49	0x3e6a364a	0.22872272
50	0xbe083444	-0.13301188
51	0xbd27a3da	-0.040927745
52	0xbe46662f	-0.19374917
53	0xbda20ac8	-0.079122126
54	0x3cf937bf	0.03042209
55	0xbe3b785d	-0.18307634
56	0x3d9a839b	0.07544633
57	0xbe6441ee	-0.22290775
58	0x3e073f1c	0.13207668
59	0xbd25b709	-0.04045776
60	0x3cbcfdd1	0.023070248
61	0x3e360532	0.1777542
62	0x3dddcc74	0.10830012
63	0xbe010166	-0.1259819

linears.1.3.weight f4 [16, 64]
0	0xbd237b3c	-0.039912447
1	0x3e07bf07	0.13256465
2	0xbd4c7674	-0.049917653
3	0xbdde71c1	-0.108615406
4	0x3cceb8c9	0.025234597
5	0x3d75c7e5	0.060005087
6	0x3dc3a11c	0.095522135
7	0x3d4ed6e8	0.05049792
8	0xbda83152	-0.08212532
9	0x3d28b86d	0.041191507
10	0xbd701033	-0.0586092
11	0x3e21a4f4	0.15785581
12	0x3d1a30c7	0.037644174
13	0x3d7c9701	0.061667446
14	0x3e05c6c5	0.13064106
15	0x3e10a117	0.14123951
16	0x3d60b691	0.05486161
17	0xbd0c70b2	-0.034287162
18	0xbe0321a1	-0.12805797
19	0x3df14a2d	0.11781726
20	0x3e307183	0.17230801
21	0x3cb1edb7	0.021719797
22	0xbbc5685b	-0.006024403
23	0x3e1e4552	0.15456131
24	0x3d2a1761	0.041526202
25	0x3d4cf7bf	0.050040957
26	0xbdc16dc8	-0.09444767
27	0xbd3c7543	-0.046010267
28	0xbdb814d7	-0.0898835
29	0x3e3818ab	0.1797816
30	0x3e051c1e	0.12999007
31	0x3aab16cc	0.0013053059
32	0xbe2beb68	-0.16789019
33	0x3c87610a	0.016525764
34	0xbc2b6c97	-0.010462902
35	0xbdb107e4	-0.08644083
36	0xbdb80197	-0.08984678
37	0xbe4a313d	-0.19745345
38	0x3d216b0a	0.03940872
39	0x3c2e277d	0.010629532
40	0xbddb24e0	-0.10700393
41	0xbd83b6e1	-0.06431366
42	0x3c897bfb	0.016782751
43	0xbe2addae	-0.16686127
44	0x3e36b20f	0.17841361
45	0xbd092631	-0.033483688
46	0xbe0bc9e1	-0.1365123
47	0x3da90a93	0.0825397
48	0xbcb155a4	-0.021647282
49	0xbde93e9c	-0.11388895
50	0x3d2785b2	0.040898986
51	0x3ddab1b4	0.106784254
52	0xbd8ea014	-0.06964126
53	0xbd29a901	-0.04142094
54	0xbda271e5	-0.0793188
55	0x3d0c624a	0.034273423
56	0x3dd3e95e	0.10347246
57	0xbda58dc8	-0.08083683
58	0xbd5ecd22	-0.05439485
59	0x3d67aaca	0.05655936
60	0x3de1fe85	0.11034874
61	0x3d438335	0.04773255
62	0x3cdefbaa	0.027219612
63	0xbdba0dd4	-0.09084669
64	0x3da2545b	0.07926246
65	0xbcf767bb	-0.03020083
66	0x3db2baca	0.087270334
67	0xbda7a653	-0.08186021
68	0x3d588b4d	0.052867223
69	0x3d12a7c2	0.035804518
70	0x3d839cd7	0.06426399
71	0xbda1c900	-0.07899666
72	0x3dcf4398	0.10120314
73	0x3d0250f0	0.03181547
74	0x3c0ec684	0.008714322
75	0xbd99fbbd	-0.075187184
76	0x3e5f8a6f	0.21830152
77	0x3c815d88	0.01579167
78	0x3e2d1b3c	0.1690492
79	0xbe01622d	-0.12635107
80	0xbe00ca91	-0.12577273
81	0x3aae82bf	0.0013314112
82	0x3d137f34	0.036009982
83	0xbdbe67da	-0.09297152
84	0xbd610549	-0.05493668
85	0x3e3e7f0d	0.18603154
86	0x3e4f66e0	0.20254087
87	0x3e01d515	0.1267894
88	0x3cfcf9e0	0.030880868
89	0x3e658cb3	0.22416954
90	0xbdfb3d81	-0.1226759
91	0x3e53ff80	0.20702934
92	0x3e31e454	0.17372257
93	0xbda2033a	-0.07910772
94	0xbe2c0b9f	-0.16801308
95	0x3d44f642	0.048086412
96	0x3dfe3e3e	0.124142155
97	0x3dfefd6c	0.1245068
98	0x3dc4abd9	0.0960309
99	0x3e51389a	0.20431748
100	0x3c8c3e94	0.017119683
101	0x3e3ebc53	0.18626527
102	0x3cb41bab	0.02198585
103	0x3e6eaf15	0.23308976
104	0x3ddefa4e	0.108875856
105	0x3dde9895	0.108689465
106	0x3e200642	0.15627387
107	0x3e5c279a	0.21499482
108	0x3d73d775	0.059531648
109	0x3dad1de4	0.08452967
110	0x3d5c0edc	0.05372511
111	0x3dc27154	0.09494272
112	0xbe07e2fc	-0.13270181
113	0x3e206938	0.15665138
114	0xbcfafee1	-0.030639114
115	0xbc90cdfd	-0.017676348
116	0x3da1d950	0.07902777
117	0x3dcdf71d	0.10056899
118	0x3c398a3c	0.011324462
119	0x3dfe68b4	0.12422314
120	0x3e17ab04	0.14811331
121	0xbc50cffd	-0.012744901
122	0x3dacfa11	0.08446134
123	0x3da3218d	0.07965384
124	0xbdae87af	-0.08521973
125	0x3e3fb313	0.18720655
126	0x3ddaaa5c	0.10677025
127	0x3da1be2e	0.07897602
128	0xbddfba85	-0.10924248
129	0xbd712697	-0.058874693
130	0xbcc134fd	-0.023584837
131	0xbd18221f	-0.037141915
132	0xbda5b28f	-0.08090698
133	0xbcc1caff	-0.023656366
134	0xbcebae40	-0.028769612
135	0x3d6738a9	0.05645052
136	0x3c67607a	0.014122123
137	0x3cb3d172	0.021950457
138	0x3e103bce	0.14085314
139	0xbd3a4a52	-0.045481034
140	0xbcd72893	-0.026264464
141	0x3def5574	0.11686221
142	0x3d6cce38	0.057813853
143	0x3d9a951d	0.07547972
144	0x3d07bda6	0.033139847
145	0x3deb7293	0.11496463
146	0xbde6a4fd	-0.11261938
147	0x3dc77ec4	0.097409755
148	0x3d3dfa85	0.046381492
149	0x3d2f8409	0.042850528
150	0xbdc15455	-0.09439913
151	0x3d35d84f	0.04439574
152	0xbe096fc5	-0.13421543
153	0x3e023551	0.12715651
154	0xbdcd6d93	-0.10030665
155	0xbbff96b2	-0.0077999467
156	0x3c27c2af	0.010239287
157	0x3d85bb08	0.06529814
158	0x3d847673	0.06467905
159	0x3d80393a	0.06260915
160	0x3b7dda5c	0.0038734889
161	0xbdc82341	-0.09772349
162	0xbdfab450	-0.12241423
163	0xbc9e0eb9	-0.01929413
164	0xbdefb6ce	-0.11704789
165	0xbe28ba8a	-0.16477409
166	0xbd5e9fea	-0.054351725
167	0x3dd3bbe2	0.1033857
168	0x3ddc95ec	0.10770783
169	0xbc35c52f	-0.0110943755
170	0xbdc2c1e4	-0.09509638
171	0xbe2cea98	-0.16886365
172	0x3d2dd74e	0.04244166
173	0x3e592f8f	0.21209548
174	0xbdf35020	-0.11880517
175	0x3d89b01b	0.067230426
176	0xbc287d32	-0.010283755
177	0xbdd4548a	-0.10367687
178	0x3de21a8d	0.110402204
179	0x3d72ee67	0.05930939
180	0xbc9e7176	-0.019341212
181	0x3d16501e	0.0366975
182	0x3d0136ba	0.031546332
183	0x3c8c5175	0.017128685
184	0xbac565d3	-0.0015060253
185	0x3d7df819	0.062004182
186	0xbab036aa	-0.0013444026
187	0x3dd745f8	0.10511392
188	0xbd8164a8	-0.06318027
189	0xbdb9c1db	-0.09070178
190	0xbb011574	-0.0019696625
191	0x3d848696	0.06470983
192	0xbde5039c	-0.11182329
193	0xbcbcc51f	-0.023043213
194	0xbca48174	-0.02008126
195	0x3d709c52	0.05874283
196	0xbd8b6d91	-0.068080075
197	0xbdd4ee6d	-0.103970386
198	0xbd035aef	-0.032069143
199	0x3c9978be	0.018734332
200	0x3c305dc5	0.010764544
201	0xbd895a97	-0.06706732
202	0xbc50fc8e	-0.012755526
203	0x3cbe67b6	0.023242813
204	0x3cad6d7b	0.021170368
205	0xbca75a06	-0.020428669
206	0x3e1b91e1	0.15192367
207	0xbcab20cd	-0.020889664
208	0x3dc59123	0.09646823
209	0xbd51c799	-0.05121574
210	0xbd6d464e	-0.057928376
211	0x3cc74c95	0.02432851
212	0x3e43f486	0.19136247
213	0xbbb3f07e	-0.0054913154
214	0x3d698289	0.057009254
215	0x3c9d0408	0.019166961
216	0xbd3c5a60	-0.045984626
217	0x3d1dc4d1	0.038517777
218	0xbc7f3e13	-0.0155787645
219	0xbcdc2039	-0.026870834
220	0xbdca4582	-0.09876539
221	0xbd573ca3	-0.052548062
222	0xbcdae3da	-0.026719976
223	0x3df7036a	0.12061198
224	0xbe424830	-0.1897285
225	0xbdd328ba	-0.10310502
226	0xbd3f5329	-0.046710167
227	0x3d8be37a	0.06830497
228	0xbddb0cf4	-0.1069583
229	0xbe040ea0	-0.12896204
230	0x3df3d20e	0.11905299
231	0x3cc80f18	0.02442126
232	0xbdad1686	-0.08451562
233	0x3df66d31	0.12032545
234	0xbd9a7ca0	-0.075433016
235	0x3cca31b9	0.024681913
236	0x3c4be793	0.012445348
237	0x3d4176ba	0.047232367
238	0x3c5d509b	0.013507987
239	0xbc8e2420	-0.01735121
240	0x3dfa7643	0.12229588
241	0xbd3317b2	-0.04372377
242	0x3d1179a0	0.03551638
243	0xbd823da1	-0.06359411
244	0x3dcee523	0.10102298
245	0x3d80b25f	0.062840216
246	0xbdc64195	-0.096804775
247	0xbb32dafb	-0.0027291167
248	0x3b47913b	0.0030451554
249	0x3e010cb7	0.12602507
250	0xbd435b81	-0.047694687
251	0x3dbff3db	0.093726836
252	0x3d232996	0.03983458
253	0xbdc51203	-0.09622576
254	0xbd8d5409	-0.06900794
255	0x3e1589a4	0.14603287

linears.1.3.bias f4 [16]
0	0x3e260f5b	0.16216795
1	0x3d9a13b3	0.075232886
2	0x3e18d0f0	0.14923453
3	0x3c94c222	0.018158976
4	0xbc819924	-0.015820093
5	0x3e00d34e	0.12580606
6	0x3d196f14	0.037459448
7	0xbe6783b7	-0.22608839
8	0x3daf2a5a	0.08553
9	0xbc85ceb8	-0.016333923
10	0xbd7a2710	-0.06107241
11	0xbe46c93e	-0.19412705
12	0x3d9f8024	0.07788113
13	0x3df2812c	0.11841044
14	0xbd9b4a02	-0.07582475
15	0xbd847798	-0.06468123

linears.2.0.weight f4 [64, 22]
0	0x3e42abba	0.19010821
1	0x3d306f5e	0.043074958
2	0x3deb5f0f	0.1149274
3	0xbe0a8e17	-0.13530765
4	0xbe1746df	-0.14773129
5	0x3e805f9a	0.25072938
6	0xbe04277a	-0.12905684
7	0x3e580937	0.21097265
8	0xbde9b0a6	-0.11410646
9	0x3d8a9e28	0.06768447
10	0xb9e95c1d	-0.00044509853
11	0x3dc15304	0.09439662
12	0x3e3714ef	0.1787908
13	0x3e1e7161	0.15472938
14	0x3e2e6bc4	0.17033297
15	0xbd7d7d45	-0.061887044
16	0x3e4c2115	0.19934495
17	0xbda7162b	-0.08158525
18	0xbe41e571	-0.18935181
19	0x3deeaa83	0.11653616
20	0x3e3e7701	0.18600084
21	0x3d5fae7f	0.05460977
22	0x3e21a23a	0.15784541
23	0x3e7f603e	0.24939057
24	0x3ecfed1a	0.40610582
25	0xbdb00811	-0.085952885
26	0xbe62a96e	-0.22134945
27	0x3d169e51	0.036772076
28	0xbde000a0	-0.10937619
29	0x3c74d85b	0.014944161
30	0x3e14e16e	0.1453912
31	0xbe2525e9	-0.16127743
32	0x3de03c32	0.10948981
33	0x3dd2bdef	0.10290133
34	0xb8df24ba	-0.000106403095
35	0x3e34e669	0.1766602
36	0x3c4f9db7	0.0126718795
37	0xbd20472d	-0.03913038
38	0xbdaafec7	-0.08349376
39	0x3e09e312	0.13465527
40	0x3dcd7f52	0.1003405
41	0xbe363409	-0.17793287
42	0xbe79f0d8	-0.24408281
43	0xba74e4ea	-0.0009341972
44	0x3d815b32	0.06316222
45	0x3d355965	0.044274706
46	0xbdf67e08	-0.12035757
47	0x3e4746bb	0.19460575
48	0x3d860e6b	0.06545719
49	0x3e93b4da	0.28848916
50	0xbde85aff	-0.11345481
51	0x3da2e910	0.079546094
52	0xbe5ef18c	-0.2177183
53	0x3e09e07a	0.13464537
54	0x3dbcb2af	0.09213769
55	0xbc0544d9	-0.00813409
56	0x3de225b4	0.110423476
57	0x3c00dfd1	0.007865862
58	0xbdb245e4	-0.08704737
59	0xbd24f196	-0.040269457
60	0xbc3fe4b3	-0.011712241
61	0xbe166ecd	-0.14690705
62	0xbe369407	-0.17829905
63	0xbe077dd6	-0.13231596
64	0x3e4dcdf0	0.2009809
65	0xbc9f22ce	-0.019425776
66	0x3e098d90	0.13432908
67	0xbe2a4776	-0.16628823
68	0xbe03d418	-0.12873876
69	0xbd535e1c	-0.05160342
70	0x3cd1d4eb	0.025614223
71	0xbce4ef63	-0.02794618
72	0x3d9e2edf	0.07723784
73	0x3e546e11	0.20745112
74	0xbd149703	-0.03627683
75	0xbe03379f	-0.12814187
76	0xba73b9ba	-0.000929739
77	0x3de68aa6	0.11256914
78	0x3da18cff	0.07888221
79	0xbde92d0a	-0.11385544
80	0xbe2e09f4	-0.16995984
81	0xbe7cd555	-0.24690755
82	0x3ddd71d3	0.10812726
83	0xbd9cbc19	-0.07653064
84	0xbd00772d	-0.031363655
85	0x3a707e8a	0.0009174129
86	0x3d98557d	0.074381806
87	0xbe38e31d	-0.18055387
88	0xbe472c32	-0.19450453
89	0xbe8a6741	-0.270319
90	0x3da8f2dc	0.08249447
91	0x3dbde2e3	0.09271791
92	0x3dec063a	0.11524625
93	0x3d5897bd	0.052879084
94	0x3dfeb0cb	0.12436064
95	0x3e429b5d	0.19004579
96	0x3e420830	0.18948436
97	0x3e3bafac	0.18328732
98	0xbdb4ec10	-0.08834088
99	0x3e628f69	0.22125019
100	0x3def5650	0.11686385
101	0x3e1e45f9	0.1545638
102	0x3d05e6e2	0.03269089
103	0xbd84b999	-0.064807124
104	0x3d88cdaf	0.06679856
105	0x3cb54a60	0.022130191
106	0x3e0b2fcd	0.13592453
107	0xbcf8c947	-0.030369414
108	0x3e4dfd62	0.20116189
109	0x3dc6de39	0.09710354
110	0x3cb87130	0.02251491
111	0xbb574795	-0.0032849063
112	0xbd6a03bb	-0.057132464
113	0xbe291ea1	-0.1651559
114	0xbe0e2ee6	-0.13885078
115	0x3e2b5cdd	0.16734643
116	0x3d6abc8c	0.05730872
117	0xbd940b0c	-0.072286695
118	0x3c215e18	0.009849094
119	0xbe0bf7d1	-0.13668753
120	0x3d7d8661	0.06189573
121	0xbc9e0621	-0.019290032
122	0x3d0e2ed1	0.034712616
123	0x3e3efa05	0.18650062
124	0x3d376095	0.044769842
125	0xbc8241fb	-0.015900603
126	0x3dd5d6cd	0.104413606
127	0xbda394a4	-0.07987335
128	0x3e1297cf	0.14315723
129	0x3e570ce2	0.21001008
130	0x3e04f7f3	0.1298521
131	0xbd859a42	-0.06523563
132	0xbe3a2613	-0.18178587
133	0xbe035d71	-0.12828614
134	0x3df8eeaf	0.121549
135	0xbe642868	-0.22281039
136	0x3cc4b2e6	0.024011087
137	0xbe8514b7	-0.25992367
138	0x3e29626a	0.16541448
139	0xbe3ad4f8	-0.18245304
140	0xbdc38231	-0.095463164
141	0x3d4b680f	0.049659785
142	0xbd80c95a	-0.06288405
143	0x3de1df14	0.11028877
144	0x3da4955b	0.080363
145	0xbd853741	-0.065046795
146	0x3e0020d1	0.12512518
147	0xbd153ca2	-0.036434777
148	0xbdde9028	-0.108673394
149	0x3dea3ab1	0.11436976
150	0x3e26f937	0.16306005
151	0xbc728d88	-0.0148042515
152	0x3de0d6e5	0.10978488
153	0x3c9055ae	0.01761898
154	0x3e77c367	0.24195634
155	0x3e33c5c5	0.17555912
156	0xbd744ad7	-0.059641685
157	0x3df4547e	0.11930178
158	0xbbad9457	-0.0052972245
159	0x3e22d121	0.15900089
160	0xbdab39df	-0.083606474
161	0x3e53a941	0.20670034
162	0xbe4ba0db	-0.1988558
163	0xbc52ae5c	-0.012858953
164	0x3d39d099	0.04536495
165	0xbc7fe5dd	-0.0156187685
166	0x3e1f810b	0.1557657
167	0xbe5484b7	-0.20753752
168	0xbe36dfaf	-0.17858766
169	0xbd5b8bc2	-0.05360008
170	0x3dbe4969	0.092913456
171	0xbd968471	-0.0734948
172	0xbe5fcf3c	-0.21856397
173	0xbdf7e75e	-0.12104677
174	0xbe4631f1	-0.19354989
175	0x3d17a7f9	0.037025426
176	0xbdfced24	-0.123499185
177	0x3e055c65	0.13023527
178	0xbda4d2bb	-0.08048006
179	0xbc736ee1	-0.014857979
180	0xbd5a2ae7	-0.05326357
181	0xbaad7f54	-0.0013236799
182	0x3e3b7a49	0.18308367
183	0xbc16e5c9	-0.0092100585
184	0xbe0af764	-0.13570935
185	0x3b8b6c06	0.0042548208
186	0x3e21ec65	0.15812834
187	0x3da7e198	0.081973255
188	0x3c3e2661	0.01160583
189	0x3ca40ae7	0.02002473
190	0x3e078f1f	0.1323819
191	0x3e106f59	0.14104976
192	0x3d844219	0.064579196
193	0x3dc43945	0.09581236
194	0x3e046967	0.12930833
195	0xbdbc3f47	-0.09191757
196	0x3e4ebaef	0.20188497
197	0xbddd28a2	-0.10798766
198	0x3e90dd68	0.2829392
199	0x3e8b529e	0.2721147
200	0x3e969a82	0.29414755
201	0x3db64020	0.088989496
202	0xbd70ba35	-0.05877133
203	0x3b35de77	0.0027751008
204	0x3e10230d	0.14075871
205	0xbbee6f1d	-0.0072764293
206	0x3e1d4cdf	0.15361355
207	0xbcc30ead	-0.023810709
208	0xbda33542	-0.079691425
209	0x3dd6dea2	0.104916826
210	0x3e10fb0a	0.14158264
211	0x3dbe1ad7	0.09282463
212	0x3d379e38	0.044828624
213	0xb99bace4	-0.00029692717
214	0x3e255fe1	0.16149856
215	0x3c3eac4a	0.011637757
216	0x3dea7b69	0.1144932
217	0xbe4293a3	-0.19001631
218	0xbd0fd450	-0.035114586
219	0xbd97d8fc	-0.07414433
220	0xbe06d5f8	-0.1316756
221	0xbe4bc023	-0.19897513
222	0x3e1ccaba	0.15311709
223	0x3e4f35b0	0.20235324
224	0x3e308319	0.1723751
225	0xbc1be241	-0.009514392
226	0xbe47570b	-0.19466798
227	0xbd247d7e	-0.04015874
228	0x3d870f8e	0.06594764
229	0xbe01d037	-0.12677084
230	0xbdfd1c00	-0.12358856
231	0xbd2f658d	-0.042821456
232	0x3d6bf0b9	0.057602618
233	0xbdcd2a15	-0.10017792
234	0xbe26f27e	-0.16303441
235	0x3c3fff00	0.011718512
236	0xbd8bfce7	-0.06835347
237	0x3d86f702	0.06590082
238	0x3e05fa10	0.13083673
239	0xbdb48c92	-0.08815874
240	0xbe622da2	-0.2208772
241	0x3e0eb458	0.13935983
242	0x3e24efa1	0.16107036
243	0xbea9e198	-0.33179927
244	0xbe08119b	-0.13287966
245	0xbce2df99	-0.02769451
246	0xbd904bcb	-0.07045706
247	0x3e268398	0.16261137
248	0xbe620502	-0.22072223
249	0xbd9e2309	-0.07721526
250	0xbda63573	-0.081156634
251	0x3d7e5573	0.06209321
252	0x3e133911	0.14377238
253	0xbe4a364c	-0.19747275
254	0x3c92cb79	0.017919289
255	0xbc255f87	-0.010093576

linears.2.0.bias f4 [64]
0	0xbd022eab	-0.031782787
1	0x3e38ddd0	0.18053365
2	0x3e4a8476	0.19777092
3	0x3e802be2	0.2503348
4	0xbde22693	-0.11042514
5	0xbdca36c7	-0.09873729
6	0xbe1e5587	-0.15462314
7	0x3c08563e	0.008321343
8	0x3e643d5e	0.22289035
9	0x3d89f346	0.06735854
10	0xbe56bf6c	-0.20971459
11	0x3be486f0	0.0069740936
12	0xbe0d4c83	-0.13798718
13	0x3ecd858a	0.40140945
14	0x3e40f742	0.18844321
15	0xbd8c73a7	-0.068579964
16	0x3e1e7f13	0.15478162
17	0x3d89f8b4	0.067368895
18	0xbdcb05e9	-0.09913237
19	0x3c8290f1	0.015938254
20	0x3d558672	0.05213017
21	0xbe26d0eb	-0.16290633
22	0x3daaa6ed	0.0833262
23	0x3ea39b87	0.31954595
24	0x3e293db7	0.16527449
25	0x3dea2b50	0.114340425
26	0xbe217574	-0.15767461
27	0xbdbec64b	-0.09315165
28	0x3e856408	0.2605288
29	0xbc1eb503	-0.009686711
30	0x3e3d0cf5	0.18461974
31	0xbf4b3c2a	-0.7938868
32	0x3ceae2c7	0.028672589
33	0xbe1f6a1c	-0.15567821
34	0x3d612f90	0.054977
35	0x3d831db9	0.064021535
36	0xbe0aa54a	-0.13539615
37	0x3e7af13e	0.24506089
38	0xbd95a84e	-0.07307492
39	0xbe0051d8	-0.12531221
40	0x3d157d0c	0.036496207
41	0x3e43a0c0	0.1910429
42	0x3db0a130	0.08624494
43	0xbd92c957	-0.07167309
44	0xbe452826	-0.19253597
45	0x3e47c277	0.19507776
46	0xbe1f284e	-0.15542719
47	0x3e6cb1dd	0.23114724
48	0x3ca7fe67	0.02050705
49	0xbd4a9ec8	-0.04946783
50	0x3e0905b1	0.13381077
51	0x3e60a6eb	0.21938674
52	0x3cfb0bdb	0.030645302
53	0xbd9f607b	-0.07782074
54	0xbde36542	-0.11103298
55	0xbd0255b8	-0.03182003
56	0x3e672255	0.2257169
57	0x3c96b63b	0.018397441
58	0xbd78068f	-0.06055313
59	0xbd0a908a	-0.03382925
60	0xbe55fd19	-0.2089733
61	0x3c86b119	0.016441869
62	0x3dbff173	0.09372225
63	0xbdd01495	-0.10160176

linears.2.3.weight f4 [16, 64]
0	0xbda89b62	-0.08232762
1	0x3e2643ac	0.16236752
2	0xbdc86bdc	-0.097861975
3	0xbdce517f	-0.10074138
4	0xbd87ae12	-0.06624998
5	0xbd661deb	-0.056180876
6	0xbdd3d9f6	-0.10344307
7	0x3de35cbb	0.11101671
8	0x3dad7915	0.0847036
9	0xbd4c59d4	-0.049890354
10	0x3c125d90	0.00893344
11	0xbd21fc74	-0.0395474
12	0xbc39fff5	-0.011352529
13	0x3d3ec3e7	0.046573546
14	0x3e2debf7	0.16984545
15	0xbda542cd	-0.08069382
16	0xbcb8f2aa	-0.022576649
17	0xbc3849c4	-0.011248056
18	0xbc688584	-0.014191989
19	0xbd439ff8	-0.04775998
20	0x3d4a5113	0.049393725
21	0xbc85492f	-0.016270248
22	0x3d1db159	0.03849921
23	0x3c037e0d	0.008025658
24	0x3d19b109	0.03752235
25	0x3e0a32c0	0.13495922
26	0x3e09f0f0	0.13470817
27	0xbce31c9e	-0.027723607
28	0xbd6bc634	-0.057562068
29	0xbd9b69b1	-0.075885184
30	0x3e216920	0.15762758
31	0x3ded33cc	0.11582145
32	0x3dd279db	0.10277148
33	0xbd9cc03b	-0.076538526
34	0x3d425e5e	0.047453277
35	0x3d19e631	0.037573043
36	0x3e12fcf6	0.1435431
37	0x3d88a43c	0.0667195
38	0xbdfd95f2	-0.123821154
39	0x3d84ddae	0.064875945
40	0xbc6156ce	-0.013753606
41	0xbd9c3074	-0.07626429
42	0x3dab1dc5	0.083552875
43	0xbdf03bc2	-0.11730148
44	0x3d1d299d	0.038369764
45	0x3de5c801	0.11219788
46	0x3d9f2cb4	0.07772198
47	0x3da9a235	0.08282892
48	0x3c4af318	0.01238706
49	0xbdb2e093	-0.087342404
50	0x3d30565a	0.0430511
51	0x3e31a0f1	0.1734655
52	0x3bf2c00b	0.007408147
53	0xbaf40fe5	-0.001862046
54	0x3d6f51b1	0.058427516
55	0xbd303084	-0.043015018
56	0xbd4001cf	-0.046876725
57	0x3e002661	0.1251464
58	0x3dc45665	0.09586791
59	0x3dacaec4	0.084317714
60	0x3d6ac817	0.057319727
61	0xbbbd6b44	-0.0057806093
62	0xbd2a7b8d	-0.041621733
63	0x3e07bbeb	0.13255279
64	0xbe1fd61d	-0.15609021
65	0xbdd98c02	-0.106224075
66	0xbc1f0f99	-0.009708309
67	0x3e2ff89d	0.17184682
68	0xbe4ba910	-0.19888711
69	0xbda2499b	-0.079241954
70	0x3e182c29	0.14860596
71	0x3b9b6b6e	0.004743031
72	0x3c58d412	0.013234155
73	0x3e1bdf7a	0.15221968
74	0xbe526d16	-0.20549425
75	0x3d53d16c	0.051713392
76	0xbe01006c	-0.12597817
77	0x3e57b1d0	0.21063924
78	0xbdfc6e1d	-0.1232569
79	0x3d39468d	0.045233298
80	0x3db5ee78	0.08883375
81	0xbe1d7444	-0.15376383
82	0x3a09572e	0.0005239126
83	0xbdf2f081	-0.11862279
84	0x3bd5b589	0.006521885
85	0xbdaded13	-0.08492484
86	0x3da3986d	0.07988057
87	0x3e61bc0b	0.22044389
88	0x3d17be64	0.037046805
89	0x3e32096d	0.17386408
90	0xbdde567f	-0.108563416
91	0x3d8af01b	0.06784078
92	0x3e8d52ee	0.27602333
93	0x3d110a96	0.035410486
94	0xbd2104ed	-0.03931134
95	0xbef8197a	-0.48456937
96	0xbcc06192	-0.023484025
97	0xbda73b18	-0.08165568
98	0x3cdae939	0.026722537
99	0x3d9a73c6	0.07541613
100	0xbe26197e	-0.16220662
101	0xbdfa9004	-0.122345
102	0x3e128238	0.14307487
103	0xbde0d288	-0.10977656
104	0x3df2d6ac	0.11857352
105	0x3e646742	0.22305015
106	0xbd50f4a5	-0.05101456
107	0x3c990803	0.018680578
108	0xbe027b5b	-0.12742369
109	0x3d932a44	0.07185796
110	0xbca50dbc	-0.02014815
111	0x3e0e1bb1	0.13877751
112	0x3e4d39f2	0.20041636
113	0xbd765fee	-0.06015008
114	0x3e39d6bb	0.1814832
115	0x3dda36bb	0.1065497
116	0xbe03f8f0	-0.12887931
117	0xbdddde1e	-0.10833381
118	0xbe0f904d	-0.1401989
119	0xbc5812f3	-0.013188112
120	0x3e77589d	0.24154897
121	0xbd9c1db0	-0.0762285
122	0x3e163192	0.14667347
123	0xbdf64f4b	-0.12026843
124	0x3dedf66e	0.11619268
125	0xbd04660b	-0.03232388
126	0x3d21fa6a	0.039545454
127	0xbd5e8843	-0.054329168
128	0xbb718905	-0.0036855352
129	0x3e56e5f9	0.20986165
130	0x3c09a6b5	0.008401562
131	0xbd636272	-0.055513807
132	0xbe0392b5	-0.12848933
133	0x3d696b99	0.05698738
134	0xbdb8e62b	-0.09028276
135	0xbcea8c99	-0.028631495
136	0x3cdd61e7	0.027024223
137	0x3e167b65	0.14695509
138	0x3deb4a04	0.11488727
139	0xbc3c83cf	-0.011506035
140	0x3c97fb33	0.018552398
141	0x3e586d9a	0.2113556
142	0x3ba27c14	0.004958639
143	0xbcf139a7	-0.029446436
144	0xbdde8dbd	-0.10866878
145	0x3e06212b	0.1309859
146	0x3d1eb67c	0.03874825
147	0xbdea506d	-0.11441121
148	0x3d438f4c	0.04774408
149	0x3da50f4b	0.080595575
150	0x3ded1db3	0.1157793
151	0x3da84c10	0.08217633
152	0x3dc695ca	0.09696539
153	0x3e1961d6	0.14978728
154	0x3dab77cc	0.08372459
155	0x3a32e9e4	0.00068250136
156	0x3db43fec	0.08801255
157	0x3e1b37c5	0.15157993
158	0xbd9e0aeb	-0.07716926
159	0xbe0a1e37	-0.13488089
160	0xbcb7b1e3	-0.02242369
161	0x3e05af20	0.13055086
162	0x3d8700b3	0.0659193
163	0x3d4b8b9d	0.049693692
164	0xbbe53d6b	-0.006995847
165	0xbd8bff50	-0.06835806
166	0x3d4e039c	0.05029641
167	0xbdcfe41a	-0.10150929
168	0x3cdced1e	0.026968535
169	0xbe4fe25e	-0.20301196
170	0x3d97b0db	0.074067794
171	0xbdc04393	-0.09387889
172	0x3cf803f6	0.030275326
173	0x3dea8654	0.11451402
174	0x3dd0db2a	0.10198052
175	0x3d1abb5a	0.03777633
176	0x3dd76fe7	0.105193906
177	0x3d678719	0.056525324
178	0x3d72b9b4	0.05925913
179	0xbd4782af	-0.048708614
180	0xbd37813f	-0.044800993
181	0x3da4fd7c	0.08056161
182	0xbdef404d	-0.11682186
183	0xbb27fc70	-0.0025632642
184	0x3dfeac36	0.124351904
185	0x3daf31c1	0.08554412
186	0xbd715d27	-0.058926728
187	0x3dd2ef58	0.102995574
188	0xbd09de83	-0.03365947
189	0xbd57d42f	-0.05269259
190	0x3e058342	0.13038352
191	0xbdde7ddb	-0.10863849
192	0x3daf989f	0.08574032
193	0x3d8c05a9	0.06837017
194	0x3c3a4dda	0.0113711
195	0x3cdc309b	0.026878646
196	0x3dab90b6	0.08377211
197	0xbde6db84	-0.11272338
198	0xbd31fd52	-0.043454476
199	0x3d0692c6	0.032854818
200	0x3d92f186	0.07174973
201	0xbd73b44b	-0.059498113
202	0xbd3e9bc7	-0.04653528
203	0x3d4fa086	0.050690196
204	0xbd9e88cf	-0.07740938
205	0xbde412a3	-0.11136367
206	0x3e0aa358	0.13538873
207	0x3e016081	0.1263447
208	0x3cf8eb3c	0.030385606
209	0x3d8b875e	0.068129286
210	0x3e1f3a64	0.15549618
211	0xba50a031	-0.00079584407
212	0xbde4aad5	-0.11165396
213	0xbc6f9600	-0.014623165
214	0x3d24d2a1	0.040239934
215	0x3d267bcf	0.040645417
216	0xbd044f0e	-0.032301955
217	0x3d3ce9a5	0.04612126
218	0x3d751aa7	0.05983987
219	0xbcdb30e8	-0.026756719
220	0xbd2c0264	-0.041994467
221	0x3d9aba7a	0.07555099
222	0xbc1e2276	-0.009651771
223	0x3ddb8c68	0.1072014
224	0xbcf24b2f	-0.029576866
225	0x3d004cfd	0.03132342
226	0x3de3293c	0.11091849
227	0xbe0646ca	-0.13112941
228	0x3e1ac5ad	0.1511447
229	0x3dcd1d0f	0.10015308
230	0xbd0e4fe4	-0.03474416
231	0x3db5023d	0.088383175
232	0x3def9c46	0.11699729
233	0xbd93d816	-0.072189495
234	0x3ce3485d	0.027744466
235	0x3da0d386	0.07852845
236	0xbcf742d2	-0.03018323
237	0xbd270a81	-0.0407815
238	0xbd2ee8d2	-0.042702504
239	0x3c9108b0	0.017704338
240	0x3a118c27	0.00055521954
241	0x3d395ed2	0.045256443
242	0xbb956bfd	-0.0045599923
243	0x3cc9263d	0.024554366
244	0xbd4c41a0	-0.049867272
245	0x3e1cc453	0.15309267
246	0x3d95a4b2	0.07306804
247	0x3d98e171	0.074648745
248	0xbdd1b64e	-0.1023985
249	0x3d09adec	0.03361313
250	0x3dcd8d9a	0.10036774
251	0x3dbbc97e	0.09169291
252	0xbe015e06	-0.12633523
253	0xbdaec64f	-0.08533918
254	0x3b05864e	0.0020374241
255	0xbd1c89aa	-0.038217224

linears.2.3.bias f4 [16]
0	0x3e38c89d	0.18045278
1	0x3e46002b	0.19336002
2	0x3e8918ad	0.2677664
3	0x3e6f21cd	0.23352738
4	0xbdc84f85	-0.09780792
5	0xbd9e3898	-0.07725638
6	0xbca8f2a5	-0.020623514
7	0xbe25b9f6	-0.1618422
8	0x3da60d8d	0.08108053
9	0xbe5c6b1d	-0.21525235
10	0x3dc30426	0.095222756
11	0xbe13d528	-0.14436781
12	0x3e271f22	0.1632047
13	0x3e2feb92	0.17179707
14	0x3cdba6c3	0.026812917
15	0xbe4ee2e7	-0.20203744
