model/final_cleaned1_trained_after_data_argument28_model.pth (torch, 79687 bytes, 24 tensors)

linears.0.0.weight f4 [64, 21]
0.00031318687 -0.2921836 -0.7053682 0.0036648575 -0.2597691 -0.010523648 0.12989919 0.112801395
-0.12101086 0.14833166 -0.22178857 -0.0017588639 -0.36288184 0.22166581 0.24353373 0.12906323
0.15171781 -0.12544043 -0.15780948 0.018902287 0.11233531 -0.13813066 0.14018707 -0.14900628
0.026707403 -0.08097179 0.16995223 -0.025568519 -0.16070771 0.12303366 0.071074754 0.09887143
0.2470327 0.006292074 0.00039000716 -0.28213096 -0.1475727 0.06342004 0.16409451 -0.11513626
-0.0067228395 -0.17107625 -0.0022794893 -0.14127015 -0.027389303 0.03839837 0.24530737 1.3081781
0.02233768 -0.19381233 -0.074948 -0.02806733 -0.016955998 0.042154398 -0.12429152 0.034000844
0.19412994 0.08674206 0.013463766 0.0536453 0.099448115 0.041576743 -0.18980157 0.10219625
0.15846363 -0.25192282 0.049010202 0.12636197 -0.17585343 -0.030309858 -0.063760646 -0.20585148
-0.0072702626 0.20883824 -0.23423007 0.18998927 0.19611928 0.11654852 -0.16773066 -0.12347959
0.01735821 -0.13719237 0.038520798 0.058266617 0.058688965 -0.34389126 0.017259547 -0.038982168
0.05918259 0.38875994 0.21312113 0.016396953 0.10923768 0.022545302 -0.01678779 0.09999268
0.18860784 0.089502946 0.08172542 0.028160835 -0.02542358 0.084640816 0.06385116 -0.04775901
0.14198692 0.055171706 -0.4637582 -0.0033051835 -0.26199815 0.046940677 -0.019596364 0.08958238
-0.038624138 -0.13869208 0.025956402 -0.018216588 0.09898455 -0.13235396 -0.18142086 0.13108626
-0.014374262 -0.26554748 0.087217055 -0.10876188 0.086352214 0.117142014 -0.003440945 -0.462028
-0.33248255 0.09446478 0.16718177 -0.020749867 -0.10962794 -0.05944307 -0.17646894 -0.1956978
-0.057408847 -0.01588624 0.09167959 -0.15981124 -0.068335064 -0.005491023 0.18864577 0.10307036
0.1616527 -0.03002451 -0.0009201236 -0.07301171 0.08551456 0.011250829 -0.040477976 -0.2043059
0.33152115 -0.012027471 -0.14195411 0.08149221 -0.19947192 0.14186765 0.04952924 0.0951811
0.22921526 -0.0013969927 -0.2558624 0.07346383 -0.021376573 0.061401125 0.024795204 0.08820603
-0.20272349 0.23967536 -0.11119257 -0.18429117 0.17982635 -0.19938715 -0.14777401 0.17953171
-0.13918735 -0.039751854 0.01689111 0.076831765 0.097545765 0.19788428 0.30274296 -0.31147823
0.19231674 0.16053239 0.063586414 -0.18376112 -0.18219328 -0.036386658 0.2014929 0.38832656
0.38194174 0.18478505 0.52578896 0.19529596 -0.057980146 0.06009905 0.015085386 -0.079438075
-0.34600604 -0.021617217 0.18291277 -0.12289774 -0.21694918 0.27174285 0.32389605 -0.017602803
-0.17150675 0.055326983 0.07607802 -0.034409724 -0.23289251 0.2895779 0.00035590798 -0.3552423
0.1292628 0.11732818 0.12701793 0.043008648 0.25197962 0.6274484 -0.07325816 0.16245157
0.01642452 0.042864073 -0.14419596 -0.01134129 -0.17444764 0.12420939 -0.19157577 0.18987341
-0.16935238 0.24609347 0.031244686 0.15782604 0.15997048 -0.068290845 0.0038450954 -0.026865203
0.010529655 -0.08093857 0.34906828 -0.17823794 -0.16743645 0.08190236 -0.038884837 -0.02454185
0.052811284 0.03735074 -0.09427635 -0.17960894 0.24061483 0.0721787 0.086368136 -0.13496938
00000000: 3b33 a439 1799 95be 0393 34bf 1b2e 703b
00000010: 7500 85be 616b 2cbc 4b04 053e 6b04 e73d
00000020: 8bd4 f7bd 41e4 173e 8b1c 63be ae89 e6ba
00000030: a6cb b9be 5dfc 623e e860 793e 2729 043e
00000040: ea5b 1b3e 7573 00be cf98 21be f8d8 9a3c
00000050: 0e10 e63d 2072 0dbe 338d 0f3e 1a95 18be
00000060: 7cc9 da3c 8ad4 a5bd f507 2e3e 1275 d1bc
00000070: 9090 24be 12f9 fb3d a48f 913d 1b7d ca3d
00000080: 24f6 7c3e be2d ce3b e079 cc39 7873 90be
00000090: 4c1d 17be 5ee2 813d 6408 283e 8fcc ebbd
000000a0: 444b dcbb 9d2e 2fbe 7c63 15bb 1fa9 10be
000000b0: 885f e0bc 9c47 1d3d db31 7b3e 6172 a73f
000000c0: 83fd b63c bd76 46be 567e 99bd 75ed e5bc
000000d0: 4ee7 8abc 17aa 2c3d 8d8c febd 7844 0b3d
000000e0: 00ca 463e d2a5 b13d 2197 5c3c 2dbb 5b3d
000000f0: 74ab cb3d 604c 2a3d 585b 42be 444c d13d
00000100: 4a44 223e 07fc 80be ecbe 483d 0865 013e
00000110: ec12 34be 614c f8bc f194 82bd bbca 52be
00000120: 623b eebb b1d9 553e 02da 6fbe 8c8c 423e
00000130: 7ed3 483e feb0 ee3d 96c1 2bbe dee2 fcbd
00000140: ce32 8e3c 287c 0cbe fcc7 1d3d faa8 6e3d
00000150: d763 703d 8412 b0be e563 8d3c c4ab 1fbd
00000160: 7269 723d 8b0b c73e 6d3c 5a3e e752 863c
00000170: 01b8 df3d edb0 b83c 8c86 89bc f6c8 cc3d
00000180: 6a22 413e 524d b73d a85f a73d 8db1 e63c
00000190: 1d45 d0bc 2a58 ad3d 66c4 823d f49e 43bd
000001a0: 0565 113e bafb 613d b771 edbe c79b 58bb
000001b0: 9f24 86be de44 403d 8e88 a0bc f876 b73d
000001c0: 5834 1ebd 4c05 0ebe 85a2 d43c f43a 95bc
000001d0: 69b8 ca3d cc87 07be 64c6 39be 7a3b 063e
000001e0: 0682 6bbc d7f5 87be db9e b23d 8cbe debd
000001f0: 6ed9 b03d 27e8 ef3d 7a81 61bb ef8e ecbe
00000200: 273b aabe c076 c13d b331 2b3e a0fb a9bc
00000210: 9d84 e0bd 947a 73bd 46b4 34be 0165 48be
00000220: 8a25 6bbd dc23 82bc 82c2 bb3d 8fa5 23be
00000230: 41f3 8bbd 0aee b3bb 5b2c 413e 8e16 d33d
00000240: 4988 253e f6f5 f5bc 7334 71ba 2a87 95bd
00000250: 4222 af3d 6655 383c 3ccc 25bd 9135 51be
00000260: 24bd a93e df0e 45bc 6b5c 11be 63e5 a63d
00000270: 5e42 4cbe c145 113e 2cdf 4a3d 4fee c23d
00000280: 68b7 6a3e 4c1b b7ba 6600 83be 3474 963d
00000290: ec1d afbc bf7f 7b3d 501f cb3c 5da5 b43d
000002a0: bf96 4fbe 756d 753e eeb8 e3bd d3b6 3cbe
000002b0: 6624 383e 252c 4cbe 1252 17be 29d7 373e
000002c0: 2187 0ebe d7d2 22bd 3a5f 8a3c f959 9d3d
000002d0: 13c6 c73d 2da2 4a3e 2001 9b3e 137a 9fbe
000002e0: aeee 443e 9a62 243e 9839 823d e02b 3cbe
000002f0: e090 3abe 2d0a 15bd 2854 4e3e bdd2 c63e
00000300: de8d c33e 4b38 3d3e 1b9a 063f aafb 473e
00000310: 977c 6dbd 6c2a 763d b228 773c 6eb0 a2bd
00000320: b427 b1be 9716 b1bc 7c4d 3b3e cfb1 fbbd
00000330: ed27 5ebe e121 8b3e b4d5 a53e c133 90bc
00000340: 779f 2fbe 8c9e 623d cbce 9b3d 36f1 0cbd
00000350: 607b 6ebe 8e43 943e 2999 ba39 52e2 b5be
00000360: 785d 043e c249 f03d fd10 023e d629 303d
00000370: 7903 813e 75a0 203f 6008 96bd b459 263e
00000380: b78c 863c 3d92 2f3d 1ba8 13be d1d0 39bc
00000390: 67a2 32be 7e61 fe3d 702c 44be 2d6e 423e
000003a0: b66a 2dbe edff 7b3e dbf4 ff3c 269d 213e
000003b0: 4dcf 233e 12dc 8bbd fffd 7b3b 6a14 dcbc
000003c0: 9384 2c3c 1fc3 a5bd 14b9 b23e 0284 36be
000003d0: 7674 2bbe 6dbc a73d b545 1fbd fd0b c9bc
000003e0: a550 583d 17fd 183d f613 c1bd 68eb 37be
000003f0: bc63 763e 6dd2 933d c7e1 b03d 6a35 0abe

linears.0.0.bias f4 [64]
0.22847378 0.19485553 -0.119593844 -0.1507982 -0.355983 0.057897642 -0.20952383 0.24906099
0.16411945 -0.06416149 0.049195275 -0.058632083 0.022024717 -0.31617332 0.025090074 0.19424245
-0.08753812 0.058840044 -0.008897334 -0.0634883 -0.022639563 0.33155847 -0.0040339013 -0.022935351
0.09637221 -0.26320416 -0.2181063 -0.06748484 0.14288858 -0.079974756 -0.23452199 -0.16436811
0.24156635 -0.03860743 -0.7018481 -0.22959125 -0.010629571 -0.27189803 0.2691241 -0.16913739
-0.20987366 0.09208687 0.19845295 0.19224818 -0.013089724 -0.2337659 -0.09331256 -0.07196307
-0.23135675 0.0068067727 0.07411767 -0.5629753 -0.013029144 -0.08280293 0.04205396 -0.0024640036
0.0034960068 0.10198553 -0.1577094 -0.3233125 0.20414896 -0.18351062 -0.12991807 -0.05448068
00000000: 08f5 693e 3588 473e 9eed f4bd d86a 1abe
00000010: 6743 b6be 1426 6d3d 6a8d 56be d809 7f3e
00000020: ee0e 283e 1967 83bd fc80 493d 3228 70bd
00000030: 2e6d b43c 78e1 a1be b389 cd3c 7ee7 463e
00000040: 3047 b3bd 4202 713d 20c6 11bc 2706 82bd
00000050: 9b76 b9bc 08c2 a93e d12e 84bb ebe2 bbbc
00000060: cb5e c53d b2c2 86be 4257 5fbe 7e35 8abd
00000070: 6251 123e cec9 a3bd 8826 70be 1d50 28be
00000080: 2b5d 773e d322 1ebd 51ac 33bf f819 6bbe
00000090: a727 2ebc 3836 8bbe a2ca 893e 5a32 2dbe
000000a0: 1fe9 56be 0a98 bc3d 4037 4b3e b5dc 443e
000000b0: 4876 56bc 5460 6fbe a81a bfbd 6061 93bd
000000c0: c9e8 6cbe 590b df3b 01cb 973d 261f 10bf
000000d0: 3178 55bc 9594 a9bd c640 2c3d 1f7b 21bb
000000e0: 431d 653b cadd d03d 937e 21be 3789 a5be
000000f0: 6d0c 513e 35ea 3bbe 3e09 05be 2227 5fbd

linears.0.3.weight f4 [16, 64]
-0.1213747 0.03888381 -0.15150362 0.033911627 -0.26897448 -0.047904108 -0.0874869 -0.1637596
-0.065488696 0.092183225 0.13289557 -0.00056013465 0.068177834 0.19826438 0.033409916 -0.083148845
0.0011307141 0.13684104 0.01561785 -0.020897461 -0.11676418 0.043589305 -0.082516804 0.29907465
0.16655082 0.05529281 0.07455637 0.09692694 -0.34137416 0.21565863 0.33298987 0.11643865
-0.03632418 -0.011285592 -0.1464248 -0.255474 0.043576468 0.1468183 -0.013323459 0.07414235
0.061809212 -0.0007751589 -0.14355591 0.12977464 0.07384206 -0.111167334 0.13630505 0.31439513
-0.042797737 -0.17954065 -0.06759323 -0.13674928 -0.063427925 -0.084245265 -0.1962481 0.27159467
-0.33779848 0.31032887 -0.1110251 -0.37697366 -0.1876645 0.017031668 -0.29159075 0.21461758
0.36341274 -0.013965463 -0.46105123 0.0059906747 -0.037345458 0.40220544 -0.20604928 -0.29211527
-0.23445944 -0.506914 0.025424225 -0.043056972 -0.27361172 -0.04741458 -0.26590255 0.13458095
-0.029462637 0.26290333 -0.04164868 0.03307692 0.18118927 0.117251396 -0.33676 -0.20910655
0.098137215 -0.004063421 0.13098618 -0.23318869 0.07399474 0.122389965 0.093254864 -0.29660025
-0.073932916 -0.29517856 0.051336773 0.022223342 0.3856396 0.11876071 0.119680464 -0.28523824
-0.10516471 0.23997 0.10884473 -0.07768689 0.23634583 -0.09962444 -0.4395191 -0.05822592
-0.15945625 -0.07477176 -0.14241183 0.2738213 0.066298366 0.13342266 0.018320097 0.31538376
0.15071182 0.122306444 0.069989674 -0.060330324 -0.23588926 -0.106893286 -0.124966025 0.300095
0.34967604 -0.17894095 0.2644639 -0.025806297 0.14254923 -0.06853041 -0.15104528 -0.14934663
-0.22128578 -0.19417569 0.17945363 -0.048747066 -0.06620682 0.060769923 -0.09927306 -0.07845277
-0.045983814 0.0814372 0.0007821798 -0.24311237 0.13279727 -0.2956782 -0.21472374 -0.3373698
0.012298145 0.18212473 -0.19569191 0.25974956 0.13464548 -0.17579605 0.047738004 -0.10241318
0.012398139 -0.026973054 -0.29142886 -0.090727866 -0.035259433 0.027697153 0.043705445 -0.14109269
0.13421576 -0.12844631 0.010901748 0.029745754 -0.107917786 -0.052645925 0.102891624 0.10062823
0.016072003 0.23180811 -0.194939 -0.24909285 -0.27708378 -0.019036934 -0.18794681 -0.20392618
-0.1836589 -0.032705918 0.1189878 0.12575188 0.16578573 0.049245324 0.19627818 0.12329496
0.2980691 -0.05668362 -0.3239155 0.057022884 0.07225595 0.15176755 -0.045859065 -0.15153103
-0.20085484 -0.34284204 -0.12044177 0.25985146 -0.1486644 0.26826632 -0.21181014 -0.19079252
0.16654101 -0.051204704 -0.016819736 0.02963693 -0.041043118 -0.26646838 -0.24699149 -0.07452319
-0.04402204 -0.076956525 0.12661833 0.117329605 -0.03616075 0.09087041 0.14006989 0.0893956
0.2296992 -0.024967564 -0.5191069 -0.021836553 0.06333209 -0.18221219 -0.018934295 -0.04712627
-0.005681929 0.14727367 -0.051024023 -0.08561554 0.10895893 0.08308946 -0.20038949 0.17404559
0.16582021 0.10447975 -0.15483516 -0.17630301 -0.22028574 0.048371952 -0.063792035 0.06970893
-0.16217847 0.09128291 -0.060090207 -0.07406632 0.044654973 0.056378964 -0.146605 0.024851974
00000000: 4c93 f8bd a144 1f3d c423 1bbe ebe6 0a3d
00000010: 06b7 89be 1937 44bd 552c b3bd 99b0 27be
00000020: f01e 86bd 8fca bc3d c715 083e 00d6 12ba
00000030: d2a0 8b3d d105 4b3e d6d8 083d f149 aabd
00000040: 7834 943a 0f20 0c3e 03e2 7f3c 2731 abbc
00000050: 0f22 efbd b38a 323d 92fe a8bd 5020 993e
00000060: 4c8c 2a3e b77a 623d 03b1 983d a281 c63d
00000070: 98c8 aebe 9ed5 5c3e a67d aa3e 6377 ee3d
00000080: aac8 14bd 34e7 38bc 62f0 15be 7dcd 82be
00000090: 3d7d 323d 8957 163e a34a 5abc f2d7 973d
000000a0: a82b 7d3d 0834 4bba 5200 13be a5e3 043e
000000b0: 823a 973d b3ab e3bd 8d93 0b3e 66f8 a03e
000000c0: ae4c 2fbd 81d9 37be 526e 8abd 0108 0cbe
000000d0: 80e6 81bd c888 acbd 43f5 48be 750e 8b3e
000000e0: ecf3 acbe 6de3 9e3e 2161 e3bd b102 c1be
000000f0: 1f2b 40be ff85 8b3c 624b 95be b6c4 5b3e
00000100: 3c11 ba3e 66cf 64bc e80e ecbe 6c4d c43b
00000110: 8df7 18bd dfed cd3e 95fe 52be 2290 95be
00000120: 2316 70be 1ec5 01bf 7746 d03c 825c 30bd
00000130: d616 8cbe ca35 42bd 6124 88be 97cf 093e
00000140: a15b f1bc 449b 863e ce97 2abd aa7b 073d
00000150: ae89 393e 8021 f03d cf6b acbe 0720 56be
00000160: 2afc c83d 7226 85bb 3e21 063e 04c9 6ebe
00000170: 8e8a 973d 97a7 fa3d 68fc be3d fddb 97be
00000180: 246a 97bd a521 97be 8246 523d ba0d b63c
00000190: 8e72 c53e d138 f33d 081b f53d bf0a 92be
000001a0: 9860 d7bd b2ba 753e fce9 de3d 4e1a 9fbd
000001b0: a404 723e e607 ccbd a608 e1be 4d7e 6ebd
000001c0: 8048 23be f021 99bd 68d4 11be 4e32 8c3e
000001d0: 70c7 873d f39f 083e 0714 963c fb79 a13e
000001e0: 3354 1a3e cd7b fa3d bf56 8f3d ee1c 77bd
000001f0: f48c 71be deea dabd 30ee ffbd 0da6 993e
00000200: bd08 b33e 4c3c 37be d067 873e ba67 d3bc
00000210: 6df8 113e ac59 8cbd 9dab 1abe 53ee 18be
00000220: bd98 62be fed5 46be b1c2 373e 01ab 47bd
00000230: 7197 87bd e2e9 783d ad4f cbbd d9ab a0bd
00000240: 8659 3cbd 8cc8 a63d 330b 4d3a 73f2 78be
00000250: 02fc 073e 2263 97be 8ae0 5bbe bcbb acbe
00000260: 297e 493c e87e 3a3e 7663 48be e5fd 843e
00000270: 81e0 093e e103 34be ed88 433d 00be d1bd
00000280: 9021 4b3c 98f6 dcbc 2a36 95be 88cf b9bd
00000290: 326c 10bd 24e5 e23c 7b04 333d 9a7a 10be
000002a0: db6f 093e 6e87 03be 3f9d 323c 5ead f33c
000002b0: 0004 ddbd 41a3 57bd d8b8 d23d 2c16 ce3d
000002c0: 6fa9 833c 1b5f 6d3e 179e 47be 3212 7fbe
000002d0: eddd 8dbe 58f3 9bbc 2175 40be 06d2 50be
000002e0: 1411 3cbe a4f6 05bd e0af f33d 1ac5 003e
000002f0: bcc3 293e 77b5 493d 26fd 483e 1182 fc3d
00000300: 839c 983e 152d 68bd 41d8 a5be d490 693d
00000310: edfa 933d f468 1b3e b7d6 3bbd f32a 1bbe
00000320: e4ac 4dbe fe88 afbe 2daa f6bd 400b 853e
00000330: 7b3b 18be 345a 893e c2e4 58be 1d5f 43be
00000340: ba89 2a3e 06bc 51bd 8bc9 89bc 26c9 f23c
00000350: d41c 28bd 8b6e 88be 56eb 7cbe 9d9f 98bd
00000360: 7450 34bd 629b 9dbd 3ca8 013e 814a f03d
00000370: 4b1d 14bd 441a ba3d 7b6e 0f3e 0a15 b73d
00000380: 4436 6b3e c788 ccbc 31e4 04bf 92e2 b2bc
00000390: 41b4 813d d595 3abe 181c 9bbc 7a07 41bd
000003a0: 7a2f babb e9ce 163e 91fe 50bd 3357 afbd
000003b0: dc25 df3d cf2a aa3d e732 4dbe 0239 323e
000003c0: c6cc 293e 7bf9 d53d 1c8d 1ebe c788 34be
000003d0: 9692 61be ab21 463d 66a5 82bd 8ec3 8e3d
000003e0: 1d12 26be 89f2 ba3d 2621 76bd 15b0 97bd
000003f0: 22e8 363d a1ed 663d 9f1f 16be 5e96 cb3c

linears.0.3.bias f4 [16]
-0.08263858 -0.017695913 -0.36644244 -0.31876326 -0.019350482 0.042297207 0.24478659 -0.28700024
0.14363624 0.21593677 -0.13644215 -0.17321338 0.030650605 -0.15762138 -0.20236984 -0.17703754
00000000: 6a3e a9bd 05f7 90bc 589e bbbe f034 a3be
00000010: e784 9ebc d63f 2d3d 56a9 7a3e b2f1 92be
00000020: 6115 133e 871e 5d3e 7eb7 0bbe d95e 31be
00000030: fa16 fb3c 8067 21be 0a3a 4fbe 5449 35be

linears.1.0.weight f4 [64, 21]
-0.29028326 0.011402256 0.357685 -0.74114907 0.04156272 -0.052002076 0.17223616 -0.051778086
-0.16077887 -0.136995 0.055517413 0.2531245 -0.23995559 -0.0021478676 0.3411879 0.16216265
0.07191472 -0.08439893 0.17276205 -0.21747965 0.20441362 0.12001966 0.2125915 0.2540144
-0.10751645 0.025559478 -0.0022733887 0.12299535 -0.19151615 -0.0019237301 -0.1375181 0.08522501
0.035849802 0.084449574 0.20014855 0.29306614 -0.20586751 0.19914074 0.24692737 -0.07470134
-0.11296741 0.10143722 -0.3789454 0.30825266 0.07783479 -0.41551834 -0.099210694 -0.017230578
0.18962082 -0.114303775 -0.04903902 0.046513904 -0.0552381 0.10802874 -0.00472877 0.020397825
0.08475002 0.37716043 -0.022372343 0.040889468 -0.22895227 0.18641768 -0.0054255393 -0.30726865
0.5078195 0.32078946 -0.40775636 0.037844833 0.111607835 0.055095367 -0.115224905 0.15215725
0.14966285 -0.12901923 0.17323373 0.11859804 -0.016322194 -0.018514888 0.32249796 -0.21103235
-0.22171988 0.07098507 -0.14911483 0.101548135 0.30050492 0.13635844 0.1241315 0.5534588
-0.24715836 -0.030736806 -0.21434617 0.014529728 0.05213314 -0.0042240606 -0.14150795 0.5940912
-0.013901168 -0.24473748 0.07349143 0.18457018 0.085988656 0.050611783 -0.13898689 -0.10162652
-0.07578798 0.22611332 -0.07515445 -0.064027965 -0.18926063 0.23299296 0.0018450532 -0.11853159
-0.15780169 0.17078191 0.021688594 0.10789795 -0.013862618 -0.011964554 0.06445138 -0.07023574
0.05512768 0.20774318 -0.08970654 -0.019621119 -0.17782453 -0.17360693 -0.09906079 -0.048398823
0.21766791 -0.30201986 0.07474615 -0.0039654137 -0.044213008 -0.20153189 0.16596182 -0.049881388
-0.10067115 -0.2845398 -0.15104714 0.038027555 0.12324141 0.10135247 -0.17106517 -0.08179306
-0.112609856 -0.18534131 -0.13805646 -0.03243772 -0.22006015 0.059140407 -0.2092733 0.08148958
-0.21772416 0.16008629 -0.09683991 0.041903015 0.11525499 -0.020716807 0.17313273 -0.06832698
0.1976151 0.008853704 -0.28823602 -0.1444287 -0.10190029 -0.008132617 0.1467559 -5.3745325e-06
0.18355808 0.024530452 -0.0079882555 -0.007924494 0.03190481 -0.7095919 0.036689356 0.1107377
-0.15222381 0.14435752 0.024661874 0.010182977 0.33747193 -0.1601981 0.24037759 0.07265106
0.09823588 -0.034457207 0.008885693 -0.038322624 -0.036670506 0.20043641 0.035337325 0.12628032
0.17839786 -0.112687215 0.18620816 0.0555044 0.14815913 -0.1890336 0.11987141 0.10319599
0.2426087 -0.065582305 -0.20248285 -0.11556508 -0.27901846 -0.25159535 0.13181607 -0.1646067
0.110014066 -0.16301963 -0.2163265 0.047522288 0.27106646 -0.14058629 0.08629112 -0.06361432
-0.20297465 0.054508336 0.11661746 -0.19606645 -0.21074642 0.32873598 0.0026062056 -0.02887587
0.12113509 0.021469891 -0.0021216902 -0.22241548 0.19081356 0.11097686 -0.1430381 0.2722114
-0.2113047 -0.16632932 -0.091306046 0.22767444 -0.07096929 -0.0050501423 0.13062815 0.12902175
-0.18528326 0.17748727 -0.058580507 -0.12795489 -0.23620008 -0.15860575 -0.16220985 -0.076701604
0.13887177 0.029388718 -0.04448845 -0.17326604 0.4186359 -0.3689997 0.8739642 0.24017386
00000000: 02a0 94be 87d0 3a3c 7d22 b73e f2bb 3dbf
00000010: ac3d 2a3d 2100 55bd ad5e 303e 4215 54bd
00000020: 37a3 24be 6b48 0cbe 3a66 633d 8999 813e
00000030: ebb6 75be 3dc3 0cbb 2eb0 ae3e f70d 263e
00000040: 0648 933d 59d9 acbd 89e8 303e fcb2 5ebe
00000050: ce51 513e decc f53d 96b1 593e 2d0e 823e
00000060: 9631 dcbd 1c62 d13c 22fd 14bb fce4 fb3d
00000070: cf1c 44be ac25 fcba 8bd1 0cbe 738a ae3d
00000080: 3ed7 123d e6f3 ac3d bef3 4c3e c40c 963e
00000090: efce 52be 8deb 4b3e 87da 7c3e 04fd 98bd
000000a0: 755b e7bd 51be cf3d 2205 c2be 4bd3 9d3e
000000b0: d967 9f3d d2be d4be fa2e cbbd 2427 8dbc
000000c0: f62b 423e 1918 eabd 24dd 48bd 5d85 3e3d
000000d0: 5941 62bd 2c3e dd3d ccf3 9abb 5719 a73c
000000e0: 6b91 ad3d 2c1b c13e 3446 b7bc b77b 273d
000000f0: 7772 6abe 47e4 3e3e b9c8 b1bb 5152 9dbe
00000100: 7500 023f 843e a43e 71c5 d0be 2f03 1b3d
00000110: a692 e43d aeab 613d 09fb ebbd 1ccf 1b3e
00000120: 3841 193e 9e1d 04be 2f64 313e 87e3 f23d
00000130: 1fb6 85bc 89ac 97bc 741e a53e dd18 58be
00000140: 890a 63be 9f60 913d 8fb1 18be 78f8 cf3d
00000150: c8db 993e 8ca1 0b3e a838 fe3d 7aaf 0d3f
00000160: 1517 7dbe c1cb fbbc 907d 5bbe 190e 6e3c
00000170: 8f89 553d fd69 8abb 76e7 10be 5c16 183f
00000180: b9c1 63bc 769c 7abe ad82 963d f7ff 3c3e
00000190: d21a b03d 4d4e 4f3d 9452 0ebe 9121 d0bd
000001a0: ba36 9bbd 408a 673e 94ea 99bd 1821 83bd
000001b0: 8acd 41be b595 6e3e b6d5 f13a b1c0 f2bd
000001c0: c496 21be 74e1 2e3e 47ac b13c 9af9 dc3d
000001d0: 0920 63bc fa06 44bc 16ff 833d c1d7 8fbd
000001e0: 90cd 613d a1ba 543e 10b8 b7bd 78bc a0bc
000001f0: a217 36be 04c6 31be 62e0 cabd d83d 46bd
00000200: 56e4 5e3e 59a2 9abe 8214 993d 4df0 81bb
00000210: b318 35bd 605e 4ebe e5f1 293e 6d50 4cbd
00000220: ad2c cebd 33af 91be 1aac 1abe c8c2 1b3d
00000230: fe65 fc3d e291 cf3d b52b 2fbe 1f83 a7bd
00000240: ff9f e6bd 1dca 3dbe ac5e 0dbe 6add 04bd
00000250: 7357 61be 363d 723d bd4b 56be 02e4 a63d
00000260: 15f3 5ebe a9ed 233e 0154 c6bd 7fa2 2b3d
00000270: cf0a ec3d 4bb6 a9bc b549 313e 04ef 8bbd
00000280: 9d5b 4a3e 200f 113c ac93 93be 1ee5 13be
00000290: 19b1 d0bd ab3e 05bc 2e47 163e e256 b4b6
000002a0: a6f6 3b3e 16f4 c83c 2ce1 02bc bdd5 01bc
000002b0: 9eae 023d d1a7 35bf 9447 163d 72ca e23d
000002c0: 8fe0 1bbe 75d2 133e b307 ca3c 80d6 263c
000002d0: 1fc9 ac3e f90a 24be 8b25 763e 14ca 943d
000002e0: e52f c93d 0023 0dbd 4c95 113c 2ff8 1cbd
000002f0: d033 16bd 343f 4d3e dfbd 103d a14f 013e
00000300: eead 363e 8ec8 e6bd 5aad 3e3e 9558 633d
00000310: 07b7 173e 0692 41be 247f f53d 6b58 d33d
00000320: 6a6e 783e 0450 86bd aa57 4fbe 62ad ecbd
00000330: 82db 8ebe 1bd1 80be cbfa 063e a98e 28be
00000340: 0e4f e13d 9eee 26be b284 5dbe bba6 423d
00000350: 39c9 8a3e daf5 0fbe 66b9 b03d 3948 82bd
00000360: 96d8 4fbe 2244 5f3d 23d5 ee3d a5c5 48be
00000370: e9cd 57be 1550 a83e e0cc 2a3b 178d ecbc
00000380: ad15 f83d a0e1 af3c 0e0c 0bbb e2c0 63be
00000390: a164 433e d647 e33d 9478 12be 4b5f 8b3e
000003a0: 4260 58be 3c52 2abe aafe babd 7d23 693e
000003b0: 5958 91bd aa7b a5bb 63c3 053e 471e 043e
000003c0: e5ba 3dbe 39bf 353e 1df2 6fbd 9b06 03be
000003d0: 6fde 71be 8c69 22be 571a 26be bb15 9dbd
000003e0: 6734 0e3e 9cc0 f03c 8539 36bd a76c 31be
000003f0: 7257 d63e 87ed bcbe 1ebc 5f3f 23f0 753e

linears.1.0.bias f4 [64]
-0.41819847 0.020854674 -0.016087003 0.038679395 -0.17821066 -0.19382928 -0.2824329 -0.24594167
0.2056675 -0.245343 0.08919899 0.3030926 -0.019811602 -0.06790477 0.13363712 0.029576063
0.18975796 0.22558615 0.17910814 0.37478724 -0.21786745 -0.07834343 0.20629658 -0.11241313
0.1205111 0.009464031 0.0880739 0.08884482 0.014182584 -0.06344757 0.14973927 0.094473794
-0.07132998 0.0054452787 -0.28309512 0.12733273 0.1992328 -0.14129919 -0.18778908 -0.20345815
-0.11021552 0.27692568 0.13815111 0.31771952 0.11873725 -0.113912314 0.24162635 -0.10440779
0.27792254 0.2692938 -0.0060574617 0.15843818 0.11448011 -0.2540626 -0.035458617 0.10341547
0.09701106 0.056264885 -0.087262094 -0.1922239 -0.28389132 -0.09737238 -0.03347303 0.154261
00000000: 1c1e d6be 6cd7 aa3c e4c8 83bc 496e 1e3d
00000010: db7c 36be 2f7b 46be 0c9b 90be 22d8 7bbe
00000020: 809a 523e 323b 7bbe f6ad b63d f42e 9b3e
00000030: f14b a2bc a811 8bbd 2bd8 083e 8049 f23c
00000040: e94f 423e 0e00 673e 2068 373e 1de4 bf3e
00000050: a518 5fbe 8572 a0bd 693f 533e db38 e6bd
00000060: 86ce f63d 060f 1b3c 1760 b43d 46f4 b53d
00000070: 125e 683c cdf0 81bd 4055 193e 7a7b c13d
00000080: 7415 92bd 4f6e b23b d8f1 90be 8363 023e
00000090: af03 4c3e bcb0 10be c84b 40be 5557 50be
000000a0: adb8 e1bd 34c9 8d3e 7c77 0d3e 22ac a23e
000000b0: 842c f33d dc4a e9bd e66c 773e c0d3 d5bd
000000c0: dd4b 8e3e e1e0 893e ac7d c6bb 9e3d 223e
000000d0: 8c74 ea3d 7e14 82be 0e3d 11bd 7dcb d33d
000000e0: bcad c63d 0276 663d 78b6 b2bd 58d6 44be
000000f0: 345a 91be 2c6b c7bd 041b 09bd 98f6 1d3e

linears.1.3.weight f4 [16, 64]
-0.30266708 -0.08818248 -0.114911444 -0.23621672 0.20567052 -0.06203217 0.023418728 -0.058309123
-0.27516374 -0.091528445 0.08194064 0.13394286 0.05008407 -0.17686512 -0.22436988 0.08624525
0.08241567 -0.056621768 0.028510569 -0.07565771 -0.06426649 0.06135495 -0.07816873 -0.15262428
-0.16744024 -0.027260074 -0.05971363 -0.09390758 -0.011390773 -0.20898665 -0.112414375 -0.112312004
0.0656111 0.078863785 0.04508736 -0.20536906 -0.1566288 0.028978689 0.06500893 -0.11990264
0.10011456 -0.12799054 -0.23546174 -0.104296304 -0.034760714 0.016520882 -0.24259743 0.068997204
0.0625543 0.13445129 0.30667347 -0.24188556 -0.21142492 0.1263174 0.020247214 0.12249067
0.05993231 0.0025386766 -0.058982957 -0.012645003 0.037880976 0.026428668 -0.09730209 -0.091832444
0.51520056 0.03384887 0.24884859 0.35051218 -0.27296865 -0.12631898 0.19524242 -0.00875408
0.0743435 0.18493918 -0.06766423 0.15545213 0.1772713 0.062790364 0.12171472 -0.16525914
-0.3010693 -0.025259385 -0.16719463 0.12607975 0.014428348 0.07087008 0.113027565 0.002200035
0.11296712 -0.008643099 0.13414492 -0.04673704 -0.35053197 0.31841213 0.01789991 -0.17085007
0.13009985 -0.038863506 0.10382623 -0.09735363 -0.15932655 -0.092524245 -0.2416896 -0.13397004
-0.0032779465 -0.12622708 0.10606323 -0.11442193 -0.06885371 -0.046934977 -0.12463397 0.06734904
-0.13111871 -0.3604044 -0.47314686 0.24345446 0.12792504 -0.23520859 -0.19955479 -0.3194668
-0.04551165 0.12309691 -0.044566944 0.18488356 -0.16908641 -0.0067656995 0.113203906 -0.18045141
-0.23980217 0.07880625 0.1952929 0.13878956 0.06694026 0.14158161 -0.20451757 0.13880597
0.26883763 0.09763055 0.19606 0.073467754 -0.45453992 0.20740466 -0.14204834 -0.09736688
-0.36073625 -0.15496409 0.19434991 -0.015453788 0.093643986 -0.017372277 -0.048857655 0.37625498
0.13685119 0.18903948 -0.019162612 -0.19272724 -0.09707001 -0.0055464967 -0.05977406 0.17798702
-0.19413571 0.14201099 0.16972813 0.1824657 -0.05057236 0.16924211 -0.034538258 -0.23059534
-0.096716225 0.16494831 -0.12377284 0.042165846 0.04363762 0.20984921 -0.14912651 0.058243956
0.07620517 -0.087964796 0.05790266 -0.091348566 0.117992535 -0.08694304 0.2322756 0.16358267
0.03315389 0.052684564 -0.0958142 0.012449264 -0.020153437 0.026850902 0.17882782 0.038881924
-0.047649678 -0.1700011 0.3217211 0.3386482 -0.06734973 0.062397204 -0.14634793 -0.0678872
-0.0036737078 0.0061261193 0.20260344 0.14446838 -0.2558556 -0.0050351336 -0.32604384 0.07939229
-0.19448298 -0.34657338 0.32672626 -0.18173966 -0.063911214 -0.14189373 0.13300572 -0.042177226
0.08054929 0.018332202 0.185916 -0.084878616 -0.18180262 -0.029172944 0.07687771 -0.029942777
-0.23317334 0.17429134 -0.09079754 -0.015754934 -0.16935366 0.06556699 0.29032892 -0.12129347
-0.12539391 0.03618686 0.113477096 -0.110604726 0.015293341 0.059338734 -0.038099013 -0.072382614
-0.10435635 0.016983368 -0.054924127 -0.26251337 -0.16203457 0.08166141 -0.105437726 -0.11756237
0.07533775 -0.030360533 -0.1304263 -0.1196555 0.09896271 0.08943363 0.10088634 -0.09745961
00000000: 2ef7 9abe 0499 b4bd b156 ebbd cce2 71be
00000010: 4b9b 523e 7215 7ebd a2d8 bf3c 8cd5 6ebd
00000020: 43e2 8cbe 4473 bbbd 7fd0 a73d 5128 093e
00000030: f424 4d3d 211c 35be 38c1 65be 5aa1 b03d
00000040: 8cc9 a83d 3aec 67bd ff8e e93c 6ef2 9abd
00000050: 269e 83bd 544f 7b3d ed16 a0bd 8a49 1cbe
00000060: 7475 2bbe 8550 dfbc 4796 74bd 9e52 c0bd
00000070: 5da0 3abc 9900 56be 8239 e6bd d603 e6bd
00000080: 1d5f 863d 5683 a13d 86ad 383d 444c 52be
00000090: 4d63 20be b764 ed3c 6723 853d 848f f5bd
000000a0: dd08 cd3d f40f 03be e21c 71be 4d99 d5bd
000000b0: 4061 0ebd cd56 873c 766b 78be 684e 8d3d
000000c0: 781c 803d 99ad 093e 4e04 9d3e d9b0 77be
000000d0: c67f 58be 5959 013e 7cdd a53c 63dc fa3d
000000e0: 957b 753d ed5f 263b 1d98 71bd fd2c 4fbc
000000f0: 1529 1b3d ef80 d83c 5146 c7bd a612 bcbd
00000100: 2fe4 033f 1da5 0a3d 2ad2 7e3e 5576 b33e
00000110: 8cc2 8bbe c359 01be a1ed 473e 466d 0fbc
00000120: 6841 983d b260 3d3e 8b93 8abd d82e 1f3e
00000130: 9c86 353e 3c98 803d 9145 f93d b139 29be
00000140: c125 9abe c5ec cebc 1235 2bbe 0d1b 013e
00000150: e164 6c3c 5524 913d ff7a e73d 762e 103b
00000160: 4e5b e73d c99b 0dbc 495d 093e 576f 3fbd
00000170: ed78 b3be ea06 a33e d5a2 923c 52f3 2ebe
00000180: e538 053e 572f 1fbd d9a2 d43d 5761 c7bd
00000190: 8026 23be 5a7d bdbd 7a7d 77be 712f 09be
000001a0: d1d2 56bb ac41 01be ae37 d93d 0b56 eabd
000001b0: 2d03 8dbd e43e 40bd 1840 ffbd 4bee 893d
000001c0: fc43 06be ed86 b8be 4e40 f2be 204c 793e
000001d0: c8fe 023e 85da 70be 1758 4cbe 2791 a3be
000001e0: 6d6a 3abd 3c1a fc3d d48b 36bd 1e52 3d3e
000001f0: fd24 2dbe cdb2 ddbb 73d7 e73d 41c8 38be
00000200: b38e 75be 2c65 a13d ddfa 473e da1e 0e3e
00000210: fa17 893d c5fa 103e 0e6d 51be 2723 0e3e
00000220: 16a5 893e 87f2 c73d f4c3 483e 4376 963d
00000230: 75b9 e8be e361 543e 1f75 11be 4968 c7bd
00000240: 6cb2 b8be e8ae 1ebe aa03 473e e331 7dbc
00000250: 6bc8 bf3d 4e50 8ebc f71e 48bd 7ea4 c03e
00000260: b822 0c3e 9193 413e e9fa 9cbc 4a5a 45be
00000270: a4cc c6bd 63bf b5bb a5d5 74bd 3b42 363e
00000280: 83cb 46be 546b 113e 36cd 2d3e 4ad8 3a3e
00000290: f724 4fbd ce4d 2d3e fd77 0dbd 2f21 6cbe
000002a0: 2813 c6bd 36e8 283e 9d7c fdbd 18b6 2c3d
000002b0: 5cbd 323d b6e2 563e 9fb4 18be 3791 6e3d
000002c0: 7511 9c3d e326 b4bd 572b 6d3d f514 bbbd
000002d0: 12a6 f13d 310f b2bd a8d9 6d3e 3782 273e
000002e0: 60cc 073d c5cb 573d 3c3a c4bd fff7 4b3c
000002f0: d218 a5bc 6cf6 db3c a41e 373e a742 1f3d
00000300: 4f2c 43bd c514 2ebe a1b8 a43e 4c63 ad3e
00000310: a8ee 89bd 3694 7f3d 3bdc 15be 7208 8bbd
00000320: 97c2 70bb 9dbd c83b 4777 4f3e 85ef 133e
00000330: 81ff 82be c3fd a4bb 38ef a6be 6d98 a23d
00000340: 8c26 47be 1172 b1be aa48 a73e f619 3abe
00000350: e2e3 82bd 974c 11be a732 083e 07c2 2cbd
00000360: 07f7 a43d 6a2d 963c c460 3e3e d7d4 adbd
00000370: 772a 3abe 19fc eebc 1072 9d3d 8e4a f5bc
00000380: fec4 6ebe 6e79 323e 10f4 b9bd 7e10 81bc
00000390: 0c6b 2dbe fc47 863d fea5 943e b668 f8bd
000003a0: 4367 00be ac38 143d ae66 e83d bb84 e2bd
000003b0: ec90 7a3c 2c0d 733d b60d 1cbd 563d 94bd
000003c0: c8b8 d5bd b420 8b3c 1ff8 60bd 2768 86be
000003d0: 64ec 25be 193e a73d bcef d7bd 8ac4 f0bd
000003e0: ae4a 9a3d a7b6 f8bc 798e 05be f10d f5bd
000003f0: f6ac ca3d fb28 b73d 7f9d ce3d e798 c7bd

linears.1.3.bias f4 [16]
-0.0616876 -0.01839565 -0.03131619 -0.05975692 0.016075723 0.035371598 0.23055096 -0.2979609
0.24867333 0.10439521 -0.06174193 0.18910858 0.008692104 -0.005035065 0.11489192 0.06380307
00000000: 23ac 7cbd 79b2 96bc 6845 00bd acc3 74bd
00000010: 3cb1 833c cfe1 103d 8d15 6c3e 558e 98be
00000020: 39a4 7e3e 28cd d53d 1be5 7cbd aea5 413e
00000030: 5469 0e3c 30fd a4bb 744c eb3d 2fab 823d

linears.2.0.weight f4 [64, 21]
0.17795059 0.43709198 0.32625943 -0.21788007 -0.34559697 -0.08903013 0.103983015 -0.015240905
-0.13849056 0.042204246 0.16959144 0.35269615 0.1795496 0.13326992 0.01043037 0.0365835
0.1014888 0.108921506 0.077921 0.23628952 0.19916652 -0.16341625 0.21607816 0.1727061
-0.43933737 -0.13020435 0.3809429 -0.076681964 0.15977512 -0.0583041 0.06561759 0.11565491
-0.4576582 0.17669174 -0.23305362 0.035644 0.072536096 0.0975351 -0.14653921 0.009955418
-0.09609364 -0.009704522 0.06043202 0.0121967485 0.0024161604 -0.04200062 0.002419736 -2.0876894
0.023764895 0.009855276 0.004897994 0.005692359 0.071634814 0.012237056 0.014449036 0.049695674
0.017998803 0.016682902 -0.018451616 0.22423236 -0.022224313 -0.010037044 -0.024335017 0.10236128
0.09526721 0.03943375 -0.06582296 0.06804941 -0.3717484 -0.101796426 0.0033142085 -0.13288575
0.15346815 -0.17417549 -0.06344364 0.085216075 0.114189945 -0.038086988 0.17485285 0.29288337
0.23739973 0.11053987 -0.17083713 0.047270562 0.023095734 0.002266926 0.0059478357 0.004498132
-0.006908885 -1.7772968 -0.20562151 -0.21968302 0.085984975 -0.06874863 0.12579145 0.0046103713
-0.0023170987 0.013307725 0.0033756713 0.0070956014 0.119550124 0.020794015 -0.062345468 0.0030593195
-0.2351228 -0.28721285 0.27385378 -0.05046545 0.17982216 -0.2876067 -0.12544136 -0.041023333
-0.1867262 0.14898679 -0.05595876 0.00033519816 0.123832576 0.25587445 0.045093864 -0.1738481
0.18513897 0.27905038 0.032621283 0.115973 -0.018172577 -0.15249982 0.29493427 -0.1687838
-0.011866493 0.16228838 0.057688374 -0.04329102 -0.0073328908 0.19899422 -0.052457992 0.2122685
-0.0031308043 0.34051374 0.047725372 0.03375235 -0.16402781 -0.13633354 0.10888755 -0.14397259
0.101952165 -0.08793323 0.15192099 0.100554876 -0.37087247 0.10013005 0.0056555416 0.13812508
0.6191128 0.10393838 -0.14410436 0.25323078 -0.0705393 -0.12023383 -0.22944129 0.020793958
0.07755146 -0.10171943 0.20853364 0.25608763 0.041320834 -0.034132365 -0.043559767 -0.16360281
0.07409218 -1.0753568 -0.1293672 -0.099583976 -0.057090964 0.04790515 -0.022292063 0.06044952
0.083036974 0.01754508 -0.09771211 -0.008371958 0.036036618 0.13223417 0.3182435 0.14935999
-0.07562973 0.118589684 -0.07645043 -0.05076249 0.0907976 0.38927552 -0.24753028 -0.19797459
0.4610118 -0.11564604 -0.07611454 0.28731355 0.009747976 -0.16572015 0.14163974 0.10055897
-0.17618799 -0.37890497 0.049132343 0.15194666 0.16874954 -0.1487978 0.31054422 -0.086437404
0.15645835 0.17055032 -0.07954742 -0.20686077 0.31157783 0.45127258 0.17646971 0.17692983
-0.10076279 0.042242985 -0.078616805 -0.21281815 0.2005215 -0.5299586 0.2932907 0.26467836
-0.012038246 -0.12772968 0.13940872 -0.024626868 0.23198906 -0.007837654 0.031267032 -0.3010871
-0.00985293 -0.23263767 -0.095923394 -0.17182527 0.2157754 0.17608209 0.069559455 -0.15384908
-0.12323365 0.20376979 0.0012068782 0.0041496046 -0.19806755 0.093084395 -0.18430637 0.20776716
-0.15368141 -0.07769996 -0.026671275 0.19713266 0.17923583 -0.0075926906 0.102906756 0.27350146
00000000: ae38 363e 85ca df3e 7a0b a73e f41b 5fbe
00000010: 16f2 b0be 6e55 b6bd 0cf5 d43d fdb4 79bc
00000020: 78d0 0dbe 5cde 2c3d 61a9 2d3e 9794 b43e
00000030: dadb 373e e977 083e 25e4 2a3c 95d8 153d
00000040: 5cd9 cf3d 3d12 df3d 0c95 9f3d e1f5 713e
00000050: 4ff2 4b3e 9756 27be 9843 5d3e ded9 303e
00000060: d4f0 e0be 4a54 05be f30a c33e 6f0b 9dbd
00000070: 179c 233e 48d0 6ebd 8462 863d 7bdc ec3d
00000080: 2d52 eabe aeee 343e 9ca5 6ebe 71ff 113d
00000090: ce8d 943d 7cc0 c73d 600e 16be 0d1c 233c
000000a0: becc c4bd b7ff 1ebc 9187 773d dfd4 473c
000000b0: 7258 1e3b d808 2cbd 6f94 1e3b b49c 05c0
000000c0: 99ae c23c 0678 213c 5a7f a03b f886 ba3b
000000d0: 46b5 923d ef7d 483c a6bb 6c3c b18d 4b3d
000000e0: 3a72 933c 95aa 883c d827 97bc 2b9d 653e
000000f0: c30f b6bc 6a72 24bc 3b5a c7bc caa2 d13d
00000100: 741b c33d 4985 213d 30ce 86bd 7d5d 8b3d
00000110: ce55 bebe a57a d0bd 3133 593b 3413 08be
00000120: c126 1d3e 0f5b 32be bdee 81bd c485 ae3d
00000130: 6bdc e93d 1a01 1cbd a00c 333e cff4 953e
00000140: ea18 733e ba62 e23d eeef 2ebe c79e 413d
00000150: 4433 bd3c b590 143b 10e6 c23b 1165 933b
00000160: ee63 e2bb 767e e3bf 728e 52be 96f4 60be
00000170: e418 b03d 15cc 8cbd 79cf 003e 9912 973b
00000180: 77da 17bb a508 5a3c 5e3a 5d3b 3882 e83b
00000190: b2d6 f43d 3658 aa3c f65d 7fbd dd7e 483b
000001a0: 08c4 70be 900d 93be 9036 8c3e dcb4 4ebd
000001b0: 4d23 383e 2f41 93be b373 00be 1508 28bd
000001c0: 2735 3fbe fe8f 183e 0335 65bd 89bd af39
000001d0: ef9b fd3d fa01 833e 58b4 383d 3c05 32be
000001e0: 1295 3d3e b1df 8e3e e59d 053d 4183 ed3d
000001f0: a8de 94bc ea28 1cbe a001 973e a9d5 2cbe
00000200: ae6b 42bc ed2e 263e a54a 6c3d ed51 31bd
00000210: bf48 f0bb 24c5 4b3e 31de 56bd ea5c 593e
00000220: 2e2e 4dbb d157 ae3e ae7b 433d e73f 0a3d
00000230: e8f6 27be 059b 0bbe 7000 df3d 8d6d 13be
00000240: 4ccc d03d 5616 b4bd 2d91 1b3e b7ef cd3d
00000250: ffe2 bdbe fc10 cd3d 1f52 b93b a970 0d3e
00000260: 2d7e 1e3f a5dd d43d 1890 13be 77a7 813e
00000270: e976 90bd 273d f6bd a8f2 6abe 1758 aa3c
00000280: 4dd3 9e3d 4752 d0bd d889 553e eb1d 833e
00000290: 0940 293d 61ce 0bbd ba6b 32bd 7f87 27be
000002a0: a4bd 973d 4ba5 89bf d678 04be aff2 cbbd
000002b0: 37d8 69bd 3138 443d d89d b6bc ea99 773d
000002c0: 4a0f aa3d b3ba 8f3c 491d c8bd 892a 09bc
000002d0: 229b 133d 6568 073e d0f0 a23e d3f1 183e
000002e0: c3e3 9abd 26df f23d 0b92 9cbd 54ec 4fbd
000002f0: 18f4 b93d 1f4f c73e 9478 7dbe dab9 4abe
00000300: bd09 ec3e d5d7 ecbd f1e1 9bbd c31a 933e
00000310: fab5 1f3c 8bb2 29be 020a 113e dcf1 cd3d
00000320: a06a 34be d5ff c1be ff3e 493d e897 1b3e
00000330: aecc 2c3e 735e 18be a7ff 9e3e 1806 b1bd
00000340: 9e36 203e bea4 2e3e c2e9 a2bd 4fd3 53be
00000350: 2187 9f3e 330d e73e 7ab4 343e 182d 353e
00000360: b95c cebd fb06 2d3d d901 a1bd 00ed 59be
00000370: 8255 4d3e 5eab 07bf 332a 963e ec83 873e
00000380: 103c 45bc 92cb 02be 29c1 0e3e 49be c9bc
00000390: 8a8e 6d3e 8169 00bc dc11 003d 1728 9abe
000003a0: 2f6e 21bc 9238 6ebe 7c73 c4bd f7f2 2fbe
000003b0: 3af4 5c3e dd4e 343e 3075 8e3d 9d8a 1dbe
000003c0: ed61 fcbd 07a9 503e 1d30 9e3a 68f9 873b
000003d0: 38d2 4abe 08a3 be3d cfba 3cbe eac0 543e
000003e0: a95e 1dbe 2821 9fbd b87d dabc 25dd 493e
000003f0: 9989 373e 1bcc f8bb c7c0 d23d 6208 8c3e

linears.2.0.bias f4 [64]
-0.24644369 0.2922054 -1.7096959 0.28513825 -1.466391 -0.07605205 0.16576286 0.106785595
-0.42461783 0.055445865 -0.22409002 -0.11647329 0.099446975 -0.2462446 -0.07173014 -0.30490655
0.05976914 0.08639246 0.075710304 -0.031063344 0.04041879 0.18502983 0.16010857 -0.10242517
-0.18014182 0.08755294 -0.068637736 -0.107129514 0.23123766 -0.071546406 0.025466092 -0.013293796
0.092215486 0.41885614 -0.31851888 0.25322697 0.19826122 -0.1416537 -0.15372218 -0.09630925
0.10291929 -0.13117412 0.3433977 0.06276376 -0.107306235 -0.65621823 0.059612863 -0.2926804
0.050542187 -0.09102437 0.11989471 -0.14187966 0.06672348 0.14107184 -0.037613936 0.12272326
0.27554965 -0.8957775 0.07204853 0.008653538 -0.18334156 -0.008103019 0.16533294 0.04565765
00000000: bc5b 7cbe f29b 953e 51d7 dabf a4fd 913e
00000010: b3b2 bbbf 2dc1 9bbd bdbd 293e 68b2 da3d
00000020: 8267 d9be 341b 633d db77 65be 8c89 eebd
00000030: dbaa cb3d 8b27 7cbe 40e7 92bd b61c 9cbe
00000040: 7cd0 743d 88ee b03d 010e 9b3d 8e78 febc
00000050: 2c8e 253d 7678 3d3e 80f3 233e 4ac4 d1bd
00000060: 1977 38be f54e b33d f191 8cbd b866 dbbd
00000070: 91c9 6c3e ec86 92bd 449e d03c 39ce 59bc
00000080: 79db bc3d 5074 d63e e814 a3be f7a6 813e
00000090: fd04 4b3e ab0d 11be 5969 1dbe c93d c5bd
000000a0: 59c7 d23d 8252 06be d3d1 af3e 498a 803d
000000b0: 5fc3 dbbd ebfd 27bf 9e2c 743d 35da 95be
000000c0: 5305 4f3d fc6a babd 5c8b f53d e748 11be
000000d0: 52a6 883d 2375 103e 1211 1abd 5556 fb3d
000000e0: d814 8d3e ad51 65bf 2e8e 933d 92c7 0d3c
000000f0: e4bd 3bbe 86c2 04bc 0a4d 293e 8403 3b3d

linears.2.3.weight f4 [16, 64]
0.14250958 -0.35970694 0.117901035 -0.06700318 0.056075577 0.022139754 -0.052439246 0.027528172
0.121815406 -0.11491426 0.018830942 -0.15059742 -0.052704416 0.12677972 -0.14504789 -0.30249953
0.04704274 0.10550731 -0.12441921 -0.15071425 -0.026356967 -0.25655645 -0.081995144 -0.033491768
0.007536608 -0.21693344 -0.18765344 -0.085000664 -0.07452288 -0.14591837 0.17779267 -0.1526634
0.12737869 -0.008038008 0.2376917 -0.17959556 0.03251215 0.12179326 -0.15263969 0.23184127
0.045183122 -0.114682995 0.07363455 -0.3058117 -0.07950021 0.058696747 -0.1388753 0.16398428
-0.18054552 -0.06944891 -0.18961024 0.094030276 -0.13013051 -0.07520362 0.3033258 -0.10141555
0.28425238 -0.077885665 -0.09232933 -0.3123645 -0.027537854 0.19899222 0.10076841 -0.079315715
0.11627304 0.33773744 -0.26046103 -0.057823017 -0.17928831 -0.035294913 -0.07293966 -0.30808207
-0.1712504 0.36373204 0.08442394 -0.037272967 -0.05862462 0.061506238 0.06727257 0.55524087
-0.11288712 -0.14260647 0.26075023 0.25468788 0.278692 0.06287888 0.19242676 0.06962508
0.030967508 -0.07411435 0.13982624 0.05144222 -0.29764977 0.2539909 -0.18005809 0.07353704
-0.047848456 -0.054222126 -0.11577043 -0.014229491 -0.2933294 -0.0044413568 0.13495414 -0.12990198
0.016016703 0.17784436 0.0862401 0.31156555 0.25584346 -0.26518115 0.26877055 -0.24486771
-0.17863531 -0.26800227 -0.23407954 -0.114032656 -0.25644174 -0.017400097 -0.14159845 0.07458868
-0.6525024 0.019097652 0.04091628 0.1195749 -0.00029751088 -0.087325506 0.039099127 0.025768068
-0.029343423 0.044132918 -0.6090778 0.09458909 -0.58459055 -0.068316184 -0.046633124 0.0067999596
-0.08689537 0.11828642 0.4192326 -0.022610687 -0.09751452 -0.21810116 0.061925724 -0.0519994
-0.09360457 -0.16038682 -0.13252865 -0.042748224 -0.109866396 0.038422387 0.06648709 0.17501664
-0.05978638 -0.07210145 -0.002546689 0.15275641 0.0102259535 -0.06422132 0.18474701 0.076578274
0.2292183 0.114163294 0.015205027 -0.064050935 -0.2726852 0.17566158 0.2497808 0.28756338
-0.082135834 -0.07322165 -0.22452617 -0.100539625 0.03498307 -0.2957033 0.09185883 -0.026401427
0.15995733 0.08686169 0.05737278 0.008037123 -0.35405913 0.2673511 -0.06998644 0.27345687
-0.20953594 -0.25157818 0.1496661 0.025252229 0.08370997 0.033193797 -0.050967798 -0.08422137
0.27139464 0.020424027 0.22081816 -0.011386522 0.30848894 0.0043774005 0.19137152 -0.010626685
0.1804764 0.1467888 0.30827177 -0.13609335 0.030393587 -0.16133581 0.089965254 0.046351597
-0.18152381 -0.0111742895 0.009972736 0.24258822 0.08858604 -0.08092657 -0.15011737 -0.118570454
0.12710987 -0.30668584 -0.15994029 0.041872136 -0.19133271 0.018896196 0.13141684 0.0035248725
-0.11968506 0.09364712 0.07879859 -0.09785519 -0.36095285 0.35454118 0.07935851 -0.16373256
0.06736338 0.058536302 -0.13287574 -0.070096835 -0.085504115 -0.107267216 0.20041049 0.13092643
-0.16549468 0.0021699746 0.069679916 -0.13481666 -0.44935432 0.27314907 0.042620145 0.2527934
-0.6509242 0.15997013 -0.050651517 -0.108918585 0.012749196 -0.021560641 0.10508385 0.12691665
00000000: 08ee 113e 822b b8be 1976 f13d f738 89bd
00000010: 81af 653d 6e5e b53c 89ca 56bd c382 e13c
00000020: 5b7a f93d 2b58 ebbd 5943 9a3c 3636 1abe
00000030: 96e0 57bd 8bd2 013e 6f87 14be 38e1 9abe
00000040: e3af 403d 3714 d83d 80cf febd d654 1abe
00000050: 91ea d7bc 5e5b 83be 12ed a7bd aa2e 09bd
00000060: a6f5 f63b cd23 5ebe 3928 40be d414 aebd
00000070: 749f 98bd a06b 15be 480f 363e cb53 1cbe
00000080: 8f6f 023e d9b1 03bc 7465 733e e6e7 37be
00000090: 762b 053d bf6e f93d 944d 1cbe cc67 6d3e
000000a0: f011 393d ebde eabd b6cd 963d 5a93 9cbe
000000b0: 02d1 a2bd 006c 703d 5435 0ebe 7feb 273e
000000c0: ede0 38be 3b3b 8ebd 3029 42be f292 c03d
000000d0: ef40 05be 5b04 9abd 854d 9b3e f5b2 cfbd
000000e0: 8789 913e 8582 9fbd 2917 bdbd 3dee 9fbe
000000f0: 1197 e1bc 9ec4 4b3e ab5f ce3d 4770 a2bd
00000100: 8f20 ee3d eceb ac3e 265b 85be d4d7 6cbd
00000110: 5b97 37be 6691 10bd 6361 95bd efbc 9dbe
00000120: 445c 2fbe 163b ba3e 75e6 ac3d 8aab 18bd
00000130: 5f20 70bd f7ed 7b3d 34c6 893d 4424 0e3f
00000140: 5d31 e7bd 6e07 12be 0e81 853e 7366 823e
00000150: b8b0 8e3e a4c6 803d 850b 453e 9897 8e3d
00000160: 92af fd3c 44c9 97bd 9c2e 0f3e 14b5 523d
00000170: 8d65 98be 180b 823e 2661 38be 969a 963d
00000180: befc 43bd 0518 5ebd 0c19 edbd d022 69bc
00000190: 452f 96be cd88 91bb 6b31 0a3e 0605 05be
000001a0: 7635 833c d51c 363e a69e b03d 8585 9f3e
000001b0: eafd 823e d3c5 87be 4b9c 893e 9abe 7abe
000001c0: 2dec 36be 9837 89be 8cb2 6fbe f489 e9bd
000001d0: 554c 83be a68a 8ebc 2fff 10be f3c1 983d
000001e0: 660a 27bf ae72 9c3c d497 273d afe3 f43d
000001f0: 3cfb 9bb9 b7d7 b2bd 6826 203d 8e17 d33c
00000200: 9e61 f0bc b8c4 343d 86ec 1bbf edb7 c13d
00000210: baa7 15bf 5be9 8bbd 6002 3fbd 32d2 de3b
00000220: 33f6 b1bd 2740 f23d a8a5 d63e 0c3a b9bc
00000230: b1b5 c7bd e955 5fbe d4a5 7d3d 53fd 54bd
00000240: c1b3 bfbd 713c 24be 97b5 07be c318 2fbd
00000250: a201 e1bd cb60 1d3d 622a 883d 9037 333e
00000260: 90e2 74bd eda9 93bd 5ae6 26bb 2d6c 1c3e
00000270: c28a 273c 7886 83bd 522e 3d3e 12d5 9c3d
00000280: 34b8 6a3e 72ce e93d 811e 793c 232d 83bd
00000290: 659d 8bbe a1e0 333e 8ac6 7f3e 823b 933e
000002a0: d536 a8bd 3cf5 95bd 30ea 65be b8e7 cdbd
000002b0: 684a 0f3d 6c66 97be 7b20 bc3d ce47 d8bc
000002c0: dbcb 233e 8be4 b13d b8ff 6a3d 23ae 033c
000002d0: 3d47 b5be 3ee2 883e 0d55 8fbd 8a02 8c3e
000002e0: 9790 56be dbce 80be 1242 193e c3dd ce3c
000002f0: 2270 ab3d 38f6 073d 9cc3 50bd 417c acbd
00000300: 3df4 8a3e 4a50 a73c 281e 623e 898e 3abc
00000310: 43f2 9d3e 4c70 8f3b e5f6 433e 8c1b 2ebc
00000320: cece 383e ce4f 163e ccd5 9d3e 0e5c 0bbe
00000330: f9fb f83c 3735 25be b43f b83d 2cdb 3d3d
00000340: 61e1 39be 5e14 37bc b064 233c 0c69 783e
00000350: 996c b53d d4bc a5bd 5eb8 19be 11d5 f2bd
00000360: 1729 023e ed05 9dbe 63c7 23be 1e82 2b3d
00000370: b9ec 43be 32cc 9a3c 2392 063e 8c01 673b
00000380: 711d f5bd 10ca bf3d 2861 a13d 4d68 c8bd
00000390: d0ce b8be 6c86 b53e b786 a23d 82a9 27be
000003a0: d0f5 893d c3c3 6f3d 9410 08be ee8e 8fbd
000003b0: c81c afbd eaae dbbd 6838 4d3e 9411 063e
000003c0: 7077 29be 2236 0e3b 58b4 8e3d 610d 0abe
000003d0: c511 e6be 32da 8b3e 7692 2e3d 236e 813e
000003e0: f8a2 26bf 36cf 233e f777 4fbd b510 dfbd
000003f0: 01e2 503c f19f b0bc 3436 d73d 70f6 013e

linears.2.3.bias f4 [16]
-0.47276416 0.15532136 0.045788366 -0.05965996 0.39165333 -0.08378916 0.5350624 -0.16598363
0.33104068 0.047465518 0.03709878 0.13496481 -0.12677887 0.033498265 0.08181913 0.2309951
00000000: 250e f2be 900c 1f3e 958c 3b3d 015e 74bd
00000010: c986 c83e a799 abbd d9f9 083f 9df7 29be
00000020: 2a7e a93e 346b 423d e4f4 173d 3734 0a3e
00000030: 52d2 01be 7a35 093d ca90 a73d fb89 6c3e

linears.3.0.weight f4 [64, 21]
0.08148985 -0.2672436 0.03140617 0.0037742963 0.02428507 0.25358343 -0.03097158 -0.08590677
0.10087111 -0.1740662 -0.070351176 0.22026113 -0.35338673 -0.15377054 -0.059961606 0.23295352
0.06662557 0.13141482 0.090513535 -0.043625705 -0.09720724 0.22620432 0.057699516 0.09423132
-0.017693274 -0.26825544 0.15929121 -0.13811861 -0.17059372 0.105027005 -0.15539391 0.045545302
0.07777497 -0.27946118 0.21953899 0.0934616 0.1564489 -0.0028509053 0.043616086 0.04309843
0.08654291 0.059644375 0.3508755 -0.7214243 0.24120803 -0.04255288 -0.03665978 -0.0025217275
-0.22728758 0.055243596 0.047901496 0.05395727 0.039190885 -0.0065580755 0.1235833 -0.09123456
0.03681508 0.0065951836 -0.14639291 0.0185446 -0.06677145 -0.10257863 -0.04175211 -0.13148949
0.08794225 0.14371195 -0.25173354 0.07634115 -0.1298645 -0.18117675 -0.04448524 -0.23033366
0.12430405 0.21724585 -0.018747477 -0.14952044 -0.19516915 -0.09592728 -0.089777455 -0.03677665
0.1481471 -0.18900506 0.17400542 0.1417618 -0.14923197 0.41298008 -0.42823973 -0.028404038
-0.028968416 -0.17047471 0.015511665 0.081512704 -0.03411653 -0.093436494 0.16880779 -0.420003
-0.010064271 -0.18138734 -0.12795772 -0.21727085 -0.15619503 -0.041536987 -0.049029984 0.010019305
0.059564617 0.2664322 -0.2113252 -0.4083372 0.1444286 0.07288032 -0.05351356 -0.24464336
0.18761402 0.12819362 0.06513871 -0.04038822 -0.2608106 -0.010558519 -0.25596398 -0.01669652
-0.1557869 0.17337182 -0.12678066 -0.09523434 0.077535845 -0.04090295 0.33492604 -0.14705396
-0.1049439 -0.20049556 0.16533408 -0.10395552 -0.21575055 -0.1450029 -0.11625459 -0.17396308
0.13032174 -0.13070354 -0.10183009 0.17770988 0.081284866 0.16550574 -0.13697939 0.0705072
-0.22525859 -0.11413258 0.024571085 -0.30994177 -0.10608402 -0.06239268 -0.07193802 0.043714955
0.08114021 -0.037093755 -0.03872738 -0.021374522 -0.22694817 -0.118698426 -0.0058320924 0.6432002
-0.07159238 0.019799335 -0.1663281 0.08809565 -0.10031633 -0.21404938 0.11046088 0.17409173
0.29721552 0.3121809 -0.22073728 -0.1350093 -0.073044404 -0.43392557 0.15469146 -0.14593229
-0.10986911 -0.17636015 -0.1334177 -0.14824532 0.23158896 -0.1981866 -0.10414775 -0.025187496
-0.23736067 0.23849419 0.0725228 0.15414049 0.11806938 0.09365688 0.20176783 0.01085776
-0.23482203 0.106470965 -0.00108698 0.020642702 0.21958011 0.04987133 -0.10325988 0.19207272
-0.55699706 -0.0017471145 -0.24360773 -0.08471259 0.11970862 0.026157767 -0.0063330997 0.016855689
-0.14810021 0.0867884 -0.16062887 -0.23365918 0.34160635 0.020870598 0.0016150562 -0.0030137084
-0.07370526 0.2174087 0.08544631 -0.14827769 0.20178093 0.21732539 -0.017096622 0.10135491
-0.27001485 -0.13770773 -0.10895804 -0.13723482 -0.020631751 -0.15133621 0.18556905 -0.1261391
0.2593069 -0.08196854 0.13585413 -0.12913483 0.21421766 0.035106212 0.14597672 0.18967105
-0.11730932 -0.18981695 -0.2639091 -0.02327171 -0.18669863 -0.17752226 0.17539248 -0.02608646
0.06755687 -0.08234957 0.08242475 -0.054918103 0.4050506 0.17978318 0.40543005 -0.14106143
00000000: 27e4 a63d 27d4 88be c2a3 003d 2f5a 773b
00000010: 7cf1 c63c b0d5 813e 1cb8 fdbc e3ef afbd
00000020: 8395 ce3d 693e 32be 4714 90bd 228c 613e
00000030: 1bef b4be 0676 1dbe 4d9a 75bd 5e8b 6e3e
00000040: fd72 883d 9b91 063e 295f b93d deb0 32bd
00000050: 9714 c7bd 1ba2 673e 5456 6c3d 5afc c03d
00000060: 7cf1 90bc c758 89be 3c1d 233e f76e 0dbe
00000070: 1fb0 2ebe 6618 d73d 951f 1fbe b68d 3a3d
00000080: 7c48 9f3d 8915 8fbe d4ce 603e cc68 bf3d
00000090: 2434 203e 41d6 3abb c8a6 323d fb87 303d
000000a0: 693d b13d a94d 743d f4a5 b33e 43af 38bf
000000b0: 3dff 763e ee4b 2ebd 9128 16bd 9143 25bb
000000c0: 13be 68be 1c47 623d 5c34 443d 4c02 5d3d
000000d0: 9f86 203d 20e5 d6bb 3e19 fd3d 2fd9 babd
000000e0: 69cb 163d 691c d83b 06e8 15be d8ea 973c
000000f0: 78bf 88bd bf14 d2bd 4304 2bbd 2ea5 06be
00000100: 111b b43d 3a29 133e 38e3 80be c058 9c3d
00000110: 33fb 04be 6686 39be 2836 36bd 96dc 6bbe
00000120: 1f93 fe3d b275 5e3e 4f94 99bc e31b 19be
00000130: 6cda 47be 8675 c4bd 3edd b7bd 1da3 16bd
00000140: e0b3 173e 8b8a 41be 7a2e 323e 012a 113e
00000150: 44d0 18be 2072 d33e 3d42 dbbe 96af e8bc
00000160: 2c4f edbc ec90 2ebe a324 7e3c 22f0 a63d
00000170: c6bd 0bbd a25b bfbd f3db 2c3e a20a d7be
00000180: 9de4 24bc 9abd 39be 5907 03be 407c 5ebe
00000190: 97f1 1fbe b022 2abd aad3 48bd 0328 243c
000001a0: 07fa 733d cd69 883e a265 58be 9311 d1be
000001b0: 17e5 133e 4742 953d 0931 5bbd ca83 7abe
000001c0: e41d 403e 3045 033e 7267 853d 1e6e 25bd
000001d0: f888 85be a3fd 2cbc b60d 83be 24c7 88bc
000001e0: 9a86 1fbe 6288 313e cad2 01be 390a c3bd
000001f0: 1dcb 9e3d da89 27bd 6d7b ab3e 5095 16be
00000200: d4ec d6bd b54e 4dbe 564d 293e a2e6 d4bd
00000210: b6ed 5cbe a47b 14be e316 eebd 6123 32be
00000220: 1073 053e 26d7 05be 4b8c d0bd 94f9 353e
00000230: ae78 a63d 567a 293e 5344 0cbe 1466 903d
00000240: 30aa 66be 58be e9bd 4d49 c93c b0b0 9ebe
00000250: 9442 d9bd 788f 7fbd 3e54 93bd 740e 333d
00000260: d72c a63d 9fef 17bd 9aa0 1ebd 9f19 afbc
00000270: 1a65 68be 2918 f3bd 231b bfbb c5a8 243f
00000280: 079f 92bd 3732 a23c ea51 2abe 7e6b b43d
00000290: a672 cdbd c32f 5bbe 5039 e23d 1a45 323e
000002a0: a22c 983e 2dd6 9f3e f408 62be e13f 0abe
000002b0: 4e98 95bd 7e2b debe 7067 1e3e 466f 15be
000002c0: 0e03 e1bd c197 34be a69e 08be 9fcd 17be
000002d0: a825 6d3e 6ef1 4abe 6a4b d5bd 0256 cebc
000002e0: ad0e 73be d237 743e d586 943d 01d7 1d3e
000002f0: 5cce f13d 2ecf bf3d 3a9c 4e3e bfe4 313c
00000300: 3075 70be 730d da3d ff78 8eba e21a a93c
00000310: 9cd9 603e e145 4c3d ea79 d3bd b6ae 443e
00000320: 5c97 0ebf 6fff e4ba 4e74 79be cb7d adbd
00000330: cb29 f53d d048 d63c e485 cfbb f114 8a3c
00000340: 95a7 17be 1ebe b13d e57b 24be 5a44 6fbe
00000350: 07e7 ae3e d1f8 aa3c 4bb0 d33a a381 45bb
00000360: c9f2 96bd 63a0 5e3e 7afe ae3d 1bd6 17be
00000370: a99f 4e3e 8c8a 5e3e 370e 8cbc 2a93 cf3d
00000380: 633f 8abe 4103 0dbe 6525 dfbd 4987 0cbe
00000390: eb03 a9bc e1f7 1abe d005 3e3e 9c2a 01be
000003a0: e0c3 843e 1fdf a7bd 581d 0b3e ec3b 04be
000003b0: e05b 5b3e 88cb 0f3d ec7a 153e 2139 423e
000003c0: de3f f0bd 605f 42be 181f 87be 50a4 bebc
000003d0: ed2d 3fbe 65c8 35be 169a 333e 46b3 d5bc
000003e0: 425b 8a3d e4a6 a8bd 4fce a83d cef1 60bd
000003f0: cb62 cf3e 1519 383e 8794 cf3e 6872 10be
