model/final_cleaned1_trained_after_data_argument28_model91337.pth (torch, 80967 bytes, 24 tensors)

linears.0.0.weight f4 [64, 22]
-0.22691038 -0.39201567 -0.045556277 -0.13110791 -0.28166518 0.028098071 -0.13958536 -0.095724165
-0.11568529 -0.18271872 0.062706135 0.09920203 0.2015745 0.117048636 0.12078561 0.044269376
-0.088656455 0.18186551 -0.04442866 0.0068161497 0.06004411 -0.07068724 0.089058205 0.059739888
0.11879526 -0.05027996 0.29536337 -0.15460569 0.09220145 -0.13371694 -0.20789762 -0.16482088
-0.033034172 -0.034157425 -0.15108302 -0.14079998 -0.10115057 -0.23336068 0.20565155 -0.034360778
-0.14670263 0.14138287 0.2114359 -0.0518609 -0.07044982 -0.23473746 0.1265502 -0.11666766
-0.041130945 -0.0046454524 -0.1162943 0.080825046 -0.24463801 0.034900043 0.063522846 0.021141415
-0.27829653 0.1797722 0.5022811 0.24084619 0.0007018343 -0.020131305 0.2629414 -0.21017048
0.07056007 0.2165599 0.078125246 -0.11829029 0.41633582 -0.18082866 0.3560768 0.03951196
-0.07392653 0.14714247 -0.046088066 0.04135861 -0.09015569 0.029557193 0.007233135 -0.28003147
-0.414821 -0.13981377 -0.2089271 -0.23081778 0.076359674 0.16305341 0.16223007 -0.15123565
-0.29011834 0.014911347 -0.40197697 -0.34097284 -0.12326492 0.033723533 0.16602677 0.09046849
0.15470399 0.07052952 0.21876016 -0.14298168 0.31835604 0.02689157 -0.3530001 -0.18280677
-0.11202659 -0.12620641 -0.10870837 -0.008693921 -0.17355022 0.27518493 0.03956106 0.21522972
0.8150103 0.30727682 0.0329449 0.012864292 -0.107283235 0.19786233 -0.021416362 -0.26967424
-0.15446362 0.004643823 -0.035471644 0.1643239 0.23995255 -0.253038 0.02570464 0.16447736
-0.09783478 -0.22251733 -0.028044106 -0.17988436 -0.21506813 -0.28759003 -0.0054039257 0.4231887
-0.12120138 0.006098108 -0.09162736 -0.1945547 -0.08726414 -0.026275152 0.026510024 0.17710494
0.13464805 -0.3239746 -0.2272541 -0.37636393 -0.11890081 0.12522618 0.055727445 0.035567887
-0.1283347 -0.10516589 -0.2121897 0.08357035 -0.15380464 -0.24129163 0.16088071 0.061325856
-0.1486154 0.07875224 0.08638581 0.063734755 0.07823896 0.2280179 0.08869127 -0.13436233
-0.4081519 -0.008419799 -0.19160007 -0.13434984 0.086743996 0.15450384 0.13496561 -0.11255112
-0.22939408 0.22640188 0.103924975 -0.080391474 -0.037820652 0.60939366 0.2406929 0.1265001
-0.10789614 0.14171581 0.19032517 0.119318634 -0.011439311 -0.10703427 0.13725793 0.05195617
0.09090868 -0.10199973 0.022243874 -0.038447324 0.07208576 -0.109827824 -0.0010456087 -0.000507011
0.3668926 -0.2522929 -0.35100237 -0.10577244 0.12643024 0.12521023 -0.2718457 0.1853579
-0.12185423 0.26499984 0.22762248 0.04217557 0.2471139 0.3034114 -0.10151575 0.065822594
0.09456447 -0.24151284 0.06008187 -0.13986431 -0.046860483 -0.060638722 0.06600097 0.46027645
-0.036546335 0.01687235 0.012740748 -0.11793106 0.10377241 -0.107443854 0.027243983 0.12134758
0.12233039 -0.08936283 -0.097632706 -0.020476153 0.16633378 -0.07577679 0.0021125 0.014041698
0.053222325 0.27106237 0.19479358 0.22343272 0.05858271 -0.16527298 0.08333842 0.0071780905
0.18111469 -0.18235731 0.10336243 0.18221352 0.079805516 -0.14465855 0.29840514 -0.0102480035
00000000: 325b 68be 47b6 c8be 3899 3abd 2741 06be
00000010: 6b36 90be ed2d e63c 77ef 0ebe 080b c4bd
00000020: 69ec ecbd 9e1a 3bbe 136c 803d 6f2a cb3d
00000030: 8c69 4e3e 32b7 ef3d 725e f73d ce53 353d
00000040: 8491 b5bd f43a 3a3e d4fa 35bd 025a df3b
00000050: d0f0 753d 79c4 90bd 2664 b63d d0b1 743d
00000060: ee4a f33d 5cf2 4dbd de39 973e f450 1ebe
00000070: 1dd4 bc3d 18ed 08be 1de3 54be cec6 28be
00000080: d74e 07bd a8e8 0bbd 82b5 1abe df2d 10be
00000090: 0828 cfbd 1af6 6ebe 5296 523e e3bd 0cbd
000000a0: 3739 16be acc6 103e a782 583e 186c 54bd
000000b0: ff47 90bd 045f 70be 6096 013e 74ef eebd
000000c0: ec78 28bd e138 98bb b52b eebd 9a87 a53d
000000d0: 6382 7abe 59f3 0e3d 4418 823d c330 ad3c
000000e0: e27c 8ebe 3416 383e 7f95 003f 62a0 763e
000000f0: 4dfb 373a 68ea a4bc 41a0 863e ee36 57be
00000100: cc81 903d e1c1 5d3e 2100 a03d 2e42 f2bd
00000110: f829 d53e 262b 39be b34f b63e 4bd7 213d
00000120: cb66 97bd 84ac 163e d7c6 3cbd a567 293d
00000130: 8ca3 b8bd ed21 f23c ef03 ed3b 4960 8fbe
00000140: 6b63 d4be 572b 0fbe fcf0 55be 7f5b 6cbe
00000150: 7662 9c3d 79f7 263e a41f 263e 85dd 1abe
00000160: 648a 94be b94e 743c edcf cdbe fe93 aebe
00000170: 5272 fcbd b021 0a3d ec02 2a3e 8b47 b93d
00000180: b96a 1e3e c871 903d aa02 603e ca69 12be
00000190: 90ff a23e b64b dc3c 6ebc b4be b331 3bbe
000001a0: 326e e5bd 413c 01be 7ea2 debd f370 0ebc
000001b0: 26b7 31be 0ae5 8c3e c70a 223d 2e65 5c3e
000001c0: 84a4 503f 6353 9d3e 3bf1 063d c0c4 523c
000001d0: 50b7 dbbd 6c9c 4a3e 5e71 afbc be12 8abe
000001e0: b62b 1ebe 362b 983b b74a 11bd 8644 283e
000001f0: 1fb6 753e 328e 81be 8a92 d23c c16c 283e
00000200: 9a5d c8bd 95db 63be c1bc e5bc 9b33 38be
00000210: d23a 5cbe 003f 93be 6a13 b1bb 30ac d83e
00000220: 6e38 f8bd a3d2 c73b 20a7 bbbd 5939 47be
00000230: 8bb7 b2bd fd3e d7bc 8d2b d93c ff5a 353e
00000240: 2ee1 093e 00e0 a5be 4cb5 68be c6b2 c0be
00000250: 4582 f3bd 4b3b 003e 7642 643d a2af 113d
00000260: 2c6a 03be 3761 d7bd 4248 59be ef26 ab3d
00000270: f77e 1dbe 2715 77be eabd 243e d230 7b3d
00000280: a32e 18be db48 a13d 0beb b03d 5e87 823d
00000290: bf3b a03d 867d 693e c5a3 b53d 4796 09be
000002a0: 49f9 d0be 32f3 09bc cf32 44be 0193 09be
000002b0: d6a6 b13d 4136 1e3e 6d34 0a3e 3481 e6bd
000002c0: 48e6 6abe e5d5 673e 9ed6 d43d 49a4 a4bd
000002d0: d4e9 1abd 3901 1c3f 3378 763e 3e89 013e
000002e0: a7f8 dcbd f31d 113e 9ae4 423e 545d f43d
000002f0: f36b 3bbc c934 dbbd 588d 0c3e fecf 543d
00000300: 542e ba3d 3ce5 d0bd c938 b63c f17a 1dbd
00000310: b3a1 933d 69ed e0bd ce0c 89ba efe8 04ba
00000320: 59d9 bb3e 892c 81be 95b6 b3be 399f d8bd
00000330: ee76 013e 1c37 003e 5c2f 8bbe 76ce 3d3e
00000340: b68e f9bd 0fae 873e de15 693e 4ac0 2c3d
00000350: 6d0b 7d3e bd58 9b3e 7de7 cfbd ffcd 863d
00000360: 04ab c13d 244f 77be 6818 763d 9738 0fbe
00000370: c7f0 3fbd 4f60 78bd 842b 873d 5ba9 eb3e
00000380: 9cb1 15bd e237 8a3c 92be 503c d785 f1bd
00000390: a186 d43d 860b dcbd c62e df3c 1485 f83d
000003a0: 5b88 fa3d dc03 b7bd a8f3 c7bd 9bbd a7bc
000003b0: 6753 2a3e dd30 9bbd de71 0a3b 260f 663c
000003c0: a7ff 593d b0c8 8a3e f877 473e 8ccb 643e
000003d0: 6cf4 6f3d 523d 29be 55ad aa3d 3036 eb3b
000003e0: 2176 393e e0bb 3abe afaf d33d 2e96 3a3e
000003f0: 1371 a33d 5f21 14be 8fc8 983e 3ee7 27bc

linears.0.0.bias f4 [64]
-0.041116025 0.057537876 -0.14205052 -0.46457854 -0.17204812 -0.48136756 -0.043967064 -0.053560473
-0.32190958 -0.17437695 0.11619772 -0.13567312 -0.15740502 -0.16285552 -0.31414178 -0.35458958
0.2991181 -1.2415541 0.18381844 0.098172404 0.110046126 0.064981595 0.20978284 -0.07973871
0.30938274 -0.13841623 0.09148278 0.052125517 0.25451648 -0.055850513 0.2312456 -0.09486022
0.132751 0.11715477 -0.1203028 -0.39302698 -0.03388451 -0.021826888 0.014279137 0.060730353
0.0103447605 -0.21062501 -0.19432132 0.3079488 0.05069532 0.15934093 -0.26696935 -0.290359
-0.030789644 -0.9157083 -0.16074558 -0.060485587 -0.2058859 -0.2774049 -0.24306828 -0.044328365
-0.095797285 -0.11327215 -0.4078562 -0.18216303 0.16636878 -0.01923046 -0.30036908 0.16610761
00000000: 4769 28bd d6ac 6b3d b175 11be 3ddd edbe
00000010: 622d 30be cf75 f6be cf16 34bd 3a62 5bbd
00000020: 55d1 a4be df8f 32be 12f9 ed3d e5ed 0abe
00000030: c82e 21be 99c3 26be 31d7 a0be c48c b5be
00000040: 0226 993e 3feb 9ebf e73a 3c3e 9d0e c93d
00000050: dd5f e13d 1215 853d 50d1 563e 0c4e a3bd
00000060: 6a67 9e3e fcbc 0dbe 535b bb3d 9181 553d
00000070: fc4f 823e 82c3 64bd a6cb 6c3e 1346 c2bd
00000080: e1ef 073e d7ee ef3d 5061 f6bd d53a c9be
00000090: 7cca 0abd 4dce b2bc 0bf3 693c 64c0 783d
000000a0: 127d 293c 15ae 57be 2bfc 46be 77ab 9d3e
000000b0: e5a5 4f3d 452a 233e 35b0 88be efa9 94be
000000c0: 903a fcbc dc6b 6abf 7d9a 24be bcbf 77bd
000000d0: c1d3 52be 0408 8ebe e4e6 78be a991 35bd
000000e0: 5e31 c4bd 3bfb e7bd 87d2 d0be f288 3abe
000000f0: 945c 2a3e 3389 9dbc fac9 99be 1d18 2a3e

linears.0.3.weight f4 [16, 64]
-0.09706469 0.05096683 -0.008682262 -0.16246936 -0.15798835 0.058801983 -0.14526719 0.0071605444
-0.20988172 0.038524307 0.049369816 -0.04203887 -0.021775065 -0.03383886 0.18007798 -0.054908723
-0.2723419 -0.14739719 -0.011864352 0.19019036 -0.08876024 -0.13103712 -0.08424499 0.006464887
0.052302394 -0.07307615 -0.06546876 0.2566711 -0.21093091 -0.11289511 0.08189608 0.0581616
-0.22822757 -0.09822396 -0.090383284 0.13680229 0.10023739 -0.03880187 0.07009633 -0.11523999
0.008081201 -0.04700679 -0.06431357 -0.07780987 0.25797048 0.007593604 0.078936815 0.23631167
-0.062275138 -0.047576137 0.067167245 -0.022183036 0.08221678 0.21283878 0.26518694 -0.07022563
0.12093923 -0.09880268 0.05912795 0.3124292 -0.05127571 0.07149997 -0.10451008 0.22965653
0.038145166 -0.025709787 -0.10041939 0.14405857 -0.05891232 -0.041077606 0.07221743 0.11523648
-0.008840649 0.03882249 0.0770876 0.09604122 -0.019802464 -0.062402163 -0.11498029 0.16516201
0.0019430652 0.20827986 0.08519074 0.1294433 0.09759231 -0.03927495 0.036968026 0.08180776
0.00417658 -0.12663108 -0.10679954 0.06548587 -0.18890686 0.10399474 -0.24767451 -0.009704668
-0.095193826 0.12471553 0.048958223 -0.032608915 -0.06801719 -0.05144841 -0.031555988 0.019434106
-0.115208544 -0.0504124 0.113880925 0.099340364 0.05522733 0.04955633 -0.056944348 -0.05187427
-0.12743525 0.15203184 -0.10054973 -0.047480572 -0.07657035 0.11265149 -0.07944514 -0.11037056
0.016435467 0.041955356 0.1289141 0.056247544 -0.052959908 0.0031858352 0.04345586 -0.07964054
-0.108528525 0.13984856 -0.24474883 -0.09676215 -0.35386235 -0.039006397 -0.22813606 0.043797575
-0.15090664 -0.20293981 -0.14703803 0.026722183 -0.054130428 0.021554334 0.09586459 0.17757119
-0.15854682 0.40501028 -0.27600518 -0.050050303 0.26301953 -0.07461581 0.0045582126 -0.01722704
-0.10489007 0.020698696 0.0007123194 0.047696665 -0.23851113 0.13364689 0.116335265 0.08159631
-0.2685326 -0.33981547 -0.18434988 -0.013512564 -0.22325517 0.30147132 0.1829929 -0.16267712
-0.32400182 -0.28155833 -0.31652918 -0.19975787 0.074835226 0.10271972 -0.15818232 0.07826869
-0.0050140433 0.33405444 0.08937669 -0.032792617 0.0436031 0.14863567 -0.21078639 0.06565319
0.06439295 0.061543632 0.095639214 -0.08459773 0.2132311 -0.23419951 0.29402432 0.34921718
0.09653357 -0.0026783736 0.16696693 0.13300474 0.15371978 0.16555102 0.2967715 0.2982079
0.3540756 -0.16524157 0.13274834 -0.11058147 -0.0679031 -0.112724505 -0.122440815 -0.31141108
0.2702978 -0.6337301 0.16316903 -0.09378405 -0.34519702 0.13897781 0.16622047 0.0035973184
-0.40131328 -0.54487723 0.13078164 0.19764584 0.6626059 -0.1865289 -0.030839037 0.08004486
0.29671246 0.3134616 0.13797973 -0.17959717 -0.007284964 0.00431009 -0.022532055 0.3282856
0.09007455 0.50412 -0.01071185 0.31996277 -0.04056818 -0.12903206 0.2773903 -0.13321683
0.28199208 -0.51928353 -0.080835715 -0.6451608 0.13171422 -0.45368522 -0.31780627 -0.06405477
-0.16080508 0.0016644875 -0.26893267 -0.3227416 0.07596529 -0.1879043 -0.46284446 -0.51673985
00000000: dac9 c6bd 98c2 503d 0c40 0ebc 5e5e 26be
00000010: b3c7 21be 59da 703d ecc0 14be 00a3 ea3b
00000020: 3ceb 56be aacb 1d3d 0138 4a3d f330 2cbd
00000030: 9f61 b2bc 9e9a 0abd 5d66 383e f8e7 60bd
00000040: 6670 8bbe 4aef 16be b362 42bc 43c1 423e
00000050: eec7 b5bd 982e 06be a388 acbd 67d7 d33b
00000060: 093b 563d f3a8 95bd 7c14 86bd 656a 833e
00000070: 46fe 57be 8d35 e7bd 22b9 a73d dc3a 6e3d
00000080: 7db4 69be a529 c9bd df1a b9bd e615 0c3e
00000090: 4349 cd3d b6ee 1ebd aa8e 8f3d f202 ecbd
000000a0: 0467 043c 318a 40bd d5b6 83bd c85a 9fbd
000000b0: b514 843e c4d3 f83b a0a9 a13d b0fb 713e
000000c0: 3714 7fbd 32df 42bd fb8e 893d 33b9 b5bc
000000d0: 4561 a83d 69f2 593e 95c6 873e 75d2 8fbd
000000e0: fdae f73d 0f59 cabd 2630 723d b8f6 9f3e
000000f0: 7b06 52bd 946e 923d 6109 d6bd 152b 6b3e
00000100: 1b3e 1c3d 559d d2bc aea8 cdbd 1784 133e
00000110: 0b4e 71bd fe40 28bd bbe6 933d 1b01 ec3d
00000120: 5fd8 10bc 5504 1f3d 1be0 9d3d 42b1 c43d
00000130: c738 a2bc 6999 7fbd c97a ebbd 3b20 293e
00000140: 73ae fe3a 5147 553e 7c78 ae3d c98c 043e
00000150: 7ade c73d c5de 20bd c96b 173d d48a a73d
00000160: b1db 883b 94ab 01be b8b9 dabd 751d 863d
00000170: cd70 41be 32fb d43d 639e 7dbe 5400 1fbc
00000180: fbf4 c2bd db6a ff3d 6b88 483d ed90 05bd
00000190: 994c 8bbd 91bb 52bd da40 01bd 4634 9f3c
000001a0: 75f2 ebbd 3c7d 4ebd 673a e93d f672 cb3d
000001b0: 0e36 623d 94fb 4a3d 7a3e 69bd 1d7a 54bd
000001c0: 637e 02be 3cae 1b3e 04ed cdbd fd7a 42bd
000001d0: ead0 9cbd d3b5 e63d 22b4 a2bd f609 e2bd
000001e0: aca3 863c 61d9 2b3d 0f02 043e d363 663d
000001f0: 7dec 58bd 72c9 503b c6fe 313d 941a a3bd
00000200: 3444 debd 7634 0f3e 709f 7abe 3c2b c6bd
00000210: 722d b5be 2cc5 1fbd 809c 69be 1665 333d
00000220: 4587 1abe 74cf 4fbe 2391 16be 7be8 da3c
00000230: deb7 5dbd b792 b03c a754 c43d 39d5 353e
00000240: 195a 22be 825d cf3e 8d50 8dbe 8c01 4dbd
00000250: 7faa 863e 2cd0 98bd 0f5d 953b b91f 8dbc
00000260: 9bd0 d6bd 5090 a93c f2ba 3a3a 945d 433d
00000270: 433c 74be bbda 083e 2f41 ee3d f71b a73d
00000280: 1b7d 89be 4bfc adbe 37c6 3cbe cd63 5dbc
00000290: 019d 64be 735a 9a3e 7e62 3b3e d594 26be
000002a0: 91e3 a5be 6a28 90be 1d10 a2be 548d 4cbe
000002b0: 3643 993d b75e d23d 8cfa 21be 564b a03d
000002c0: d84c a4bb 2f09 ab3e 200b b73d 8d51 06bd
000002d0: 2a99 323d f333 183e 63d8 57be 2e75 863d
000002e0: 73e0 833d 2d15 7c3d 7ede c33d 9341 adbd
000002f0: 4159 5a3e ffd1 6fbe 5b8a 963e 98cc b23e
00000300: 64b3 c53d a787 2fbb 61f9 2a3e 6532 083e
00000310: b868 1d3e 3586 293e 6ff2 973e b5ae 983e
00000320: 6649 b53e 1635 29be 2eef 073e 8a78 e2bd
00000330: c810 8bbd 1bdc e6bd 40c2 fabd 4671 9fbe
00000340: 7964 8a3e 233c 22bf c815 273e da11 c0bd
00000350: aabd b0be 3350 0e3e b335 2a3e fdc0 6b3b
00000360: ef78 cdbe 137d 0bbf 9feb 053e ac63 4a3e
00000370: 8aa0 293f 6f01 3fbe 26a2 fcbc 8fee a33d
00000380: b2ea 973e 0a7e a03e 8f4a 0d3e 52e8 37be
00000390: b5b6 eebb a83b 8d3b 2595 b8bc 0d15 a83e
000003a0: 0179 b83d 020e 013f c180 2fbc 29d2 a33e
000003b0: d22a 26bd fb20 04be 1a06 8e3e fe69 08be
000003c0: 4461 903e c4ef 04bf 328d a5bd 4229 25bf
000003d0: 18e0 063e 6e49 e8be 81b7 a2be 262f 83bd
000003e0: 16aa 24be ef2a da3a 8bb1 89be 633e a5be
000003f0: b193 9b3d fc69 40be f3f9 ecbe 1049 04bf

linears.0.3.bias f4 [16]
-0.1274778 -0.21962085 0.014225834 0.28336772 -0.11742804 -0.0037225483 0.13861525 -0.09811851
-0.15781382 0.3655224 -0.014457057 -0.0819457 -0.074209325 0.22118892 -0.05653856 -0.29087812
00000000: 8a89 02be 4ae4 60be 7913 693c 9315 913e
00000010: 1d7e f0bd fff5 73bb 28f1 0d3e 5bf2 c8bd
00000020: f299 21be c125 bb3e 4bdd 6cbc 26d3 a7bd
00000030: 0ffb 97bd 597f 623e fa94 67bd faed 94be

linears.1.0.weight f4 [64, 22]
0.18046214 -0.28008386 0.21103472 -0.014699727 0.11446169 -0.018147899 -0.009918825 -0.16782537
-0.045822583 -0.036974713 0.09736613 -0.2124374 0.09851186 0.050751034 0.00814429 -0.24326706
-0.091387704 0.072858706 0.3293122 0.023378784 -0.24850026 0.18753922 0.11457606 -0.18270518
0.18887305 0.11285445 0.19462295 0.41020054 0.12931699 0.08793858 -0.09810924 0.2368084
-0.044216625 -0.106364675 -0.13773756 -0.10532955 0.008947551 0.18313251 -0.1789058 0.2889588
-0.13307364 0.11238965 -0.15890642 0.2622408 -0.23382522 0.31433746 0.0827455 -0.2006379
0.016218387 0.31032667 -0.18049668 0.047151595 -0.036022294 0.17028297 0.039882958 0.2426191
-0.13758805 -0.021626292 0.0788494 0.14626288 -0.012651946 -0.07072087 0.07982108 0.032414053
-0.09747768 0.037431423 -0.10119863 -0.08737298 -0.7533015 -0.46299702 0.021947192 -0.04112243
-0.19776183 -0.013687834 0.06782726 -0.06389149 0.062465545 0.011709531 0.03564101 0.11407965
-0.33097973 0.059641685 0.073321134 -0.13604242 -0.09602752 0.32267767 -0.05796273 -0.029887117
0.20167857 -0.035531312 -0.21151355 0.15097438 0.28208038 0.03862345 0.09063947 0.0071168146
0.038417753 0.15500675 -0.1571657 0.113078706 -0.1431643 0.10334129 0.11588731 -0.19647655
-0.18709546 -0.36534294 -0.2433048 0.008013888 0.00778296 -0.11036002 0.24555722 0.04818992
0.14441863 0.35640636 -0.043455828 0.021600312 -0.1944772 -0.15984786 0.122350186 -0.18465845
0.049246926 0.002932949 -0.13913555 0.07929975 -0.03383422 0.09369935 0.03931378 0.058448367
-0.16313061 0.041507736 0.20687898 0.13535996 0.021786604 0.18026954 -0.32188112 0.19756486
0.098028325 -0.11754471 0.24039288 -0.07417372 -0.13287129 0.066781074 0.06970841 -0.20637496
0.04331088 0.033610202 0.04444205 -0.03546403 0.118191466 0.07617214 -0.1706196 0.044404786
0.16725028 0.088808745 -0.1311764 -0.010646234 -0.16567548 0.04373798 0.1478005 0.011908092
-0.071677916 0.19017743 -0.11206187 0.12752835 0.046626326 -0.30283293 0.10287191 -0.04425989
0.12042321 0.18830663 -0.122059494 0.17379825 -0.14629582 -0.18661733 0.08442714 -0.17655005
-0.20478074 0.10938066 -0.30192778 -0.004287982 -0.15942664 0.22652827 0.11474285 0.14002347
0.1708082 0.06969938 -0.008089508 0.02170269 0.019805757 -0.19537692 -0.27514693 0.11199812
0.033918455 0.09767048 -0.14230311 -0.14781593 0.13262223 0.029823415 -0.03802557 0.10388055
0.3228941 -0.18170004 -0.20085622 -0.45552137 0.02347872 0.039321046 -0.070351034 0.21289647
-0.18162552 0.051806003 -0.00066694705 0.041500874 -0.019281603 -0.010277772 -0.14479047 -0.053529754
0.0059217038 0.104716 0.03153471 -0.17669466 -0.21319771 -0.14343446 0.07464187 0.6717129
-0.11646434 0.042669963 -0.008315742 -0.0752116 0.18706805 -0.03545657 -0.14495632 0.8352004
-0.10866312 0.1722121 0.28155655 -0.2976017 0.017295053 -0.016920425 0.12879086 0.0924687
-0.088715054 0.24060334 -0.045856554 0.033427373 0.12527373 -0.49357843 0.25363016 0.003933552
-0.1787259 0.12659459 -0.17970794 -0.08346681 -0.017970525 -0.18560456 0.3889165 0.04886645
00000000: 11cb 383e 2767 8fbe 7c19 583e 20d7 70bc
00000010: e46a ea3d e7aa 94bc 9182 22bc 6ada 2bbe
00000020: 76b0 3bbd cc72 17bd e567 c73d 3189 59be
00000030: 96c0 c93d 51e0 4f3d a16f 053c 001b 79be
00000040: 7a29 bbbd f236 953d 9c9b a83e dd84 bf3c
00000050: da76 7ebe 480a 403e daa6 ea3d 1117 3bbe
00000060: f067 413e 3c20 e73d 3d4b 473e ce05 d23e
00000070: ac6b 043e 2419 b43d 7fed c8bd e77d 723e
00000080: 7e1c 35bd b9d5 d9bd 130b 0dbe 05b7 d7bd
00000090: c098 123c 1787 3b3e 1533 37be 68f2 933e
000000a0: 7544 08be 8b2c e63d 5db8 22be 6d44 863e
000000b0: e16f 6fbe d7f0 a03e 7976 a93d 0674 4dbe
000000c0: 6cdc 843c 23e3 9e3e 1fd4 38be 0822 413d
000000d0: 1d8c 13bd a95e 2e3e 505c 233d 2471 783e
000000e0: e2e3 0cbe 9f29 b1bc cb7b a13d f0c5 153e
000000f0: 1c4a 4fbc 1ad6 90bd 3c79 a33d 99c4 043d
00000100: 61a2 c7bd b151 193d 3a41 cfbd 9bf0 b2bd
00000110: 5ed8 40bf f20d edbe 99ca b33c fe6f 28bd
00000120: 1482 4abe f042 60bc 05e9 8a3d 8bd9 82bd
00000130: dfdb 7f3d 55d9 3f3c 4ffc 113d 97a2 e93d
00000140: 2d76 a9be d74a 743d 6429 963d b44e 0bbe
00000150: 14aa c4bd 0236 a53e 546a 6dbd d4d5 f4bc
00000160: d484 4e3e 4889 11bd 0297 58be 0799 1a3e
00000170: d76c 903e 9f33 1e3d 30a1 b93d 2b34 e93b
00000180: ef5b 1d3d 17ba 1e3e 0cf0 20be cf95 e73d
00000190: aa99 12be 99a4 d33d 5356 ed3d 2631 49be
000001a0: f495 3fbe 3b0e bbbe e524 79be af4c 033c
000001b0: 3308 ff3b 6f04 e2bd 5a73 7b3e cb62 453d
000001c0: 7ae2 133e e57a b63e bdfe 31bd 23f3 b03c
000001d0: 0825 47be 28af 23be bc92 fa3d 1b17 3dbe
000001e0: 25b7 493d b836 403b 8d79 0ebe e867 a23d
000001f0: c095 0abd 72e5 bf3d 7c07 213d 8e67 6f3d
00000200: b60b 27be 0404 2a3d 15d8 533e cd9b 0a3e
00000210: d279 b23c 9498 383e 9acd a4be 714e 4a3e
00000220: 13c3 c83d 48bb f0bd 8d29 763e 64e8 97bd
00000230: 690f 08be 84c4 883d 48c3 8e3d f553 53be
00000240: c066 313d daaa 093d de08 363d bb42 11bd
00000250: 5e0e f23d 2400 9c3d e8b6 2ebe cbe1 353d
00000260: a843 2b3e 5ce1 b53d 1b53 06be 8b6d 2ebc
00000270: d5a6 29be 9926 333d 0459 173e 281a 433c
00000280: dfcb 92bd dfbd 423e b280 e5bd cb96 023e
00000290: 3ffb 3e3d eb0c 9bbe 82ae d23d dc49 35bd
000002a0: 72a0 f63d 74d3 403e 54fa f9bd 2bf8 313e
000002b0: 92ce 15be 9d18 3fbe 23e8 ac3d 89c9 34be
000002c0: 0bb2 51be f802 e03d 4796 9abe 3382 8cbb
000002d0: bd40 23be 07f7 673e 4dfe ea3d 5062 0f3e
000002e0: 58e8 2e3e 8cbe 8e3d db89 04bc d7c9 b13c
000002f0: af3f a23c e310 48be 0fe0 8cbe 455f e53d
00000300: 14ee 0a3d 7607 c83d e8b7 11be 0f5d 17be
00000310: 1fce 073e 3c50 f43c b3c0 1bbd 53bf d43d
00000320: 6052 a53e 930f 3abe 41ad 4dbe 193a e9be
00000330: 7256 c03c 1b0f 213d 3414 90bd 8801 5a3e
00000340: 0afc 39be 8832 543d 0fd6 2eba d2fc 293d
00000350: 74f4 9dbc 1a64 28bc f443 14be 0442 5bbd
00000360: da0a c23b 5875 d63d 8a2a 013d 72ef 34be
00000370: 8050 5abe 7ce0 12be d6dd 983d 60f5 2b3f
00000380: db84 eebd b3c6 2e3d c03e 08bc 8a08 9abd
00000390: c48e 3f3e e93a 11bd 6e6f 14be b2cf 553f
000003a0: c58a debd 5e58 303e 2e28 903e 405f 98be
000003b0: 5bae 8d3c b49c 8abc c0e1 033e 3b60 bd3d
000003c0: 3db0 b5bd b960 763e 15d4 3bbd 24eb 083d
000003d0: c247 003e 50b6 fcbe d0db 813e 07e5 803b
000003e0: ec03 37be 03a2 013e 5c05 38be a6f0 aabd
000003f0: ec36 93bc 1f0f 3ebe 1020 c73e 3028 483d

linears.1.0.bias f4 [64]
-0.36227703 0.048543464 -0.11791789 0.37702176 -0.37840977 0.12633155 -0.094244935 0.010000915
-0.0246355 -0.25412166 0.22155789 -0.079938434 0.0042595076 -0.11023358 0.31925473 0.0011781527
-0.04382654 0.01541949 -0.025470452 0.054195065 0.13564678 0.060330473 0.15700518 -0.0008322942
-0.16514777 -0.34012663 -0.1460309 0.044988573 0.06711832 0.23482163 -0.22360043 -0.13497207
-0.20049994 0.05803062 0.060840014 0.12153961 -0.14257029 -0.020735044 0.22967026 -0.1738867
-0.0720133 -0.2557536 0.01877062 -0.20002939 0.16427335 -0.07309321 -0.14140774 -0.114026956
0.16404805 -0.13185197 0.18737486 -0.20289676 0.20401561 0.33353528 -0.23357901 -0.023933217
-1.906013 0.4393001 0.0060568904 -0.20581755 -0.023067186 0.049881164 0.04158786 0.28850815
00000000: 607c b9be 83d5 463d ef7e f1bd ff08 c13e
00000010: edbe c1be 0f5d 013e 7d03 c1bd e1da 233c
00000020: 63d0 c9bc 3c1c 82be 12e0 623e c3b6 a3bd
00000030: 5793 8b3b 25c2 e1bd 5b75 a33e 3f6c 9a3a
00000040: 7583 33bd 07a2 7c3c 69a7 d0bc a5fb 5d3d
00000050: fde6 0a3e 161d 773d f7c5 203e 512e 5aba
00000060: 7f1c 29be 1425 aebe 2089 15be f045 383d
00000070: 5475 893d 1575 703e 83f7 64be 1e36 0abe
00000080: db4f 4dbe 84b1 6d3d 6133 793d c2e9 f83d
00000090: f2fd 11be 8adc a9bc ae2e 6b3e 5b0f 32be
000000a0: b67b 93bd 23f2 82be d8c4 993c 81d4 4cbe
000000b0: 4637 283e e5b1 95bd 31cd 10be f786 e9bd
000000c0: 36fc 273e 3404 07be 32df 3f3e 2bc4 4fbe
000000d0: 78e9 503e 23c5 aa3e 562f 6fbe 980f c4bc
000000e0: 3cf8 f3bf f1eb e03e e178 c63b d6c1 52be
000000f0: 65f7 bcbc 3150 4c3d 0858 2a3d 57b7 933e

linears.1.3.weight f4 [16, 64]
0.17515954 0.111378595 -0.064112656 -0.24200635 0.060353685 -0.1047019 -0.11989106 -0.11507201
-0.05039652 -0.028531043 0.40086097 -0.11505728 0.009136192 -0.03656988 -0.13576376 0.11286035
-0.028279774 0.04504673 -0.072773375 -0.026329188 -0.026073981 -0.105989985 0.0025580137 0.15845163
0.038796812 -0.07483834 -0.052753385 -0.08170866 -0.08304583 -0.04203928 -0.0185275 -0.1644921
0.012830625 -0.16072348 -0.024939721 -0.17598113 0.020577407 0.08956801 0.067827165 0.13799754
0.06942173 -0.013960467 -0.049264535 0.033384737 0.05623166 -0.0235576 0.062237337 0.08363362
0.04679398 -0.14982161 -0.0035643864 -0.04816343 0.0407773 0.21307434 -0.019377295 -0.046463847
-0.036900774 0.06487674 0.1562013 -0.02865532 0.06280796 -0.012216897 0.08471389 0.04303875
0.06372632 -0.08009672 -0.07280917 0.142227 0.13557813 -0.09687958 -0.057622943 0.0462902
-0.00858215 0.012963507 0.073415 0.024627633 -0.09842933 -0.09802195 0.08254558 -0.01242934
-0.079839416 -0.2047503 0.12479795 -0.2133911 0.051007856 -0.03996648 0.042310655 0.097899415
-0.053374007 -0.064761594 0.0811444 0.08226825 -0.09012761 -0.0600437 0.022976844 0.025174897
-0.048196305 -0.08390164 -0.0077510807 -0.0071379296 -0.05938664 -0.010147865 -0.065053724 -0.10298838
-0.076879166 0.18127158 0.07681612 -0.11508169 0.00060867687 0.063956805 -0.10365279 -0.04618503
-0.032353017 -0.061896242 0.07203334 0.08471067 -0.03245836 -0.08206928 -0.111525595 -0.06624612
0.16476798 -0.005226378 -0.07741285 -0.08352897 -0.039475456 -0.110181585 0.054006476 0.08417926
0.07204634 0.20936863 -0.033136327 -0.2881045 0.050352395 -0.06972066 -0.096045665 0.018534128
-0.13023123 0.07110975 -0.041200746 -0.19475463 -0.1762174 -0.068670966 -0.1654029 0.043534584
-0.037613958 0.025058184 -0.06175328 0.08787735 -0.1031052 0.07259893 0.14192785 -0.27405822
-0.2865527 -0.05243377 -0.084766485 0.009887715 0.22917615 0.33318925 -0.046996273 -0.16398537
0.05977677 0.10876422 0.17135543 0.08628205 -0.032060612 -0.03848626 -0.09009055 0.07114131
0.0022226337 -0.08228192 0.061232 -0.16843586 -0.3616609 -0.21199904 -0.11695588 0.024386024
-0.04680431 -0.15497978 0.16032654 0.31270918 0.046165563 -0.118938215 0.11031138 0.11724346
0.38817352 -0.17916057 -0.07735097 -0.317542 -0.06550802 -0.017716033 -0.032265726 -0.21324489
-0.15563828 -0.0116428435 -0.209641 -0.07126733 -0.40001488 0.072323374 -0.02705492 0.16429567
0.2299036 -0.23720326 -0.22439192 0.33905548 -0.025388457 0.054593816 -0.0063316454 -0.091381975
-0.18651426 -0.13235787 0.044075485 0.34586143 -0.16079904 -0.13585806 0.017567798 0.47670555
-0.07119708 0.28081504 -0.19208501 0.044935253 -0.18615343 -0.18310925 0.02498427 0.17328879
-0.13768145 -0.5100735 -0.0127365105 0.1663652 -0.31448317 -0.08296844 -0.04708522 -0.36966667
-0.12568444 0.30537271 -0.0069553317 0.087909706 0.18616514 0.09783717 0.10901272 -0.28394035
-0.10076409 -0.16008835 0.092700616 -0.7604278 0.25171962 0.35722005 -0.21798924 -0.07219053
-1.0025538 0.11622071 -0.044153024 0.6864239 -0.07175242 -0.1799984 -0.0011575691 0.063143134
00000000: 065d 333e 761a e43d 7f4d 83bd 83d0 77be
00000010: 6d35 773d f36d d6bd 7289 f5bd e0aa ebbd
00000020: 956c 4ebd efb9 e9bc a63d cd3e 27a3 ebbd
00000030: f7af 153c 4cca 15bd a805 0bbe 5423 e73d
00000040: fcaa e7bc ec82 383d 350a 95bd 4fb0 d7bc
00000050: 1a99 d5bc 4711 d9bd 59a4 273b 2541 223e
00000060: 68e9 1e3d d844 99bd ef13 58bd df56 a7bd
00000070: ef13 aabd 6131 2cbd fcc6 97bc 9e70 28be
00000080: 8b37 523c b294 24be 634e ccbc 6634 34be
00000090: f391 a83c 6f6f b73d f8e8 8a3d 3a4f 0d3e
000000a0: fb2c 8e3d 71ba 64bc 9cc9 49bd 6fbe 083d
000000b0: 2b53 663d defb c0bc 94ec 7e3d 1a48 ab3d
000000c0: 0bab 3f3d d66a 19be 7b98 69bb 0447 45bd
000000d0: 1906 273d 2930 5a3e 22bd 9ebc e050 3ebd
000000e0: 4425 17bd 19de 843d 3cf3 1f3e 90be eabc
000000f0: 76a1 803d 6129 48bc 7a7e ad3d 6649 303d
00000100: f282 823d c009 a4bd f91c 95bd f4a3 113e
00000110: fed4 0a3e cd68 c6bd 0906 6cbd cb9a 3d3d
00000120: 259c 0cbc e464 543c 9b5a 963d e4bf c93c
00000130: 5195 c9bd bbbf c8bd a80d a93d 6ea4 4bbc
00000140: d982 a3bd 10aa 51be 1196 ff3d 3283 5abe
00000150: 9ded 503d e4b3 23bd f04d 2d3d 7d7f c83d
00000160: b49e 5abd baa1 84bd 092f a63d 427c a83d
00000170: d394 b8bd 62f0 75bd ef39 bc3c 963b ce3c
00000180: 7d69 45bd 9fd4 abbd c7fc fdbb 4be5 e9bb
00000190: 683f 73bd 3b43 26bc e33a 85bd 92eb d2bd
000001a0: d372 9dbd 429f 393e c551 9d3d f3af ebbd
000001b0: 9d8f 1f3a c9fb 823d ea47 d4bd 842c 3dbd
000001c0: 9984 04bd ea86 7dbd 3786 933d ca7c ad3d
000001d0: 0ff3 04bd f013 a8bd 8867 e4bd 0cac 87bd
000001e0: f0b8 283e 0942 abbb a18a 9ebd 3d11 abbd
000001f0: 04b1 21bd e2a6 e1bd e535 5d3d 2d66 ac3d
00000200: 088d 933d bb64 563e f5b9 07bd 6f82 93be
00000210: 503e 4e3d b5c9 8ebd 97b3 c4bd e2d4 973c
00000220: 565b 05be fda1 913d 1dc2 28bd c26d 47be
00000230: 5672 34be 5da3 8cbd 615f 29be 5251 323d
00000240: 1811 1abd d246 cd3c 02f1 7cbd 0af9 b33d
00000250: d228 d3bd bfae 943d 8955 113e 5c51 8cbe
00000260: 09b7 92be cbc4 56bd 0d9a adbd 1500 223c
00000270: 27ad 6a3e c897 aa3e 2a7f 40bd c8eb 27be
00000280: 7dd8 743d c6bf de3d cc77 2f3e a5b4 b03d
00000290: fd51 03bd c5a3 1dbd 6581 b8bd 89b2 913d
000002a0: 9ba9 113b 6c83 a8bd 68ce 7a3d 737a 2cbe
000002b0: 9e2b b9be 4716 59be 9086 efbd 33c5 c73c
000002c0: e0b5 3fbd 05b3 1ebe a42c 243e 6b1b a03e
000002d0: 1a18 3d3d e195 f3bd efea e13d 571d f03d
000002e0: aebe c63e de75 37be 2f6a 9ebd dd94 a2be
000002f0: 1229 86bd 3721 91bc 1129 04bd de5c 5abe
00000300: a45f 1fbe a0c1 3ebc 21ac 56be 9bf4 91bd
00000310: c0ce ccbe 471e 943d 48a2 ddbc 203d 283e
00000320: d96b 6b3e 69e5 72be ffc6 65be ae98 ad3e
00000330: 74fb cfbc c49d 5f3d b179 cfbb 7926 bbbd
00000340: 98fd 3ebe d288 07be 7f88 343d c014 b13e
00000350: 81a8 24be 601e 0bbe 58ea 8f3c c012 f43e
00000360: c6cf 91bd fdc6 8f3e efb1 44be 070e 383d
00000370: 019f 3ebe fe80 3bbe d0ab cc3c 9e72 313e
00000380: 5efc 0cbe 2d94 02bf ccac 50bc a45b 2a3e
00000390: f003 a1be 5ceb a9bd 6fdc 40bd f344 bdbe
000003a0: 6cb3 00be d059 9c3e 8de9 e3bb 010a b43d
000003b0: 13a2 3e3e db5e c83d 1042 df3d a160 91be
000003c0: 675d cebd 33ee 23be d2d9 bd3d 65ab 42bf
000003d0: 65e1 803e 8ce5 b63e 9238 5fbe a1d8 93bd
000003e0: af53 80bf 2005 ee3d cdd9 34bd 7ab9 2f3f
000003f0: eff2 92bd 8051 38be 93b9 97ba 3051 813d

linears.1.3.bias f4 [16]
0.0024544701 -0.24485661 0.21354438 0.06707602 -0.02984863 0.047420584 0.065283366 -0.15940383
-0.16386753 0.52827775 0.1998429 0.00091643975 0.035293274 0.39285707 0.002914604 -0.2568867
00000000: 2ddb 203b b1bb 7abe 61ab 5a3e 275f 893d
00000010: 1d85 f4bc 163c 423d 49b3 853d c23a 23be
00000020: e4cc 27be 363d 073f 9ea3 4c3e 3b3d 703a
00000030: ae8f 103d 9024 c93e f102 3f3b a786 83be

linears.2.0.weight f4 [64, 22]
0.15524025 0.098928496 0.17284827 -0.017411318 -0.1321857 0.22307374 0.21443605 -0.14023508
0.012702222 -0.07381833 -0.0063270186 0.16063598 0.16024894 -0.13145189 -0.2439062 -0.25416282
-0.20182225 0.14115976 -0.041673392 -0.079274766 -0.039377294 0.11064736 0.02389361 -1.6014585
-0.7379921 -0.8032486 -0.07035371 0.0071170637 0.14918832 -0.013142432 0.15825641 0.2282517
0.043619283 -0.028885057 -0.3237996 -0.026103469 0.05388114 0.0054339874 -0.04099034 -0.20749283
0.5009454 0.30257744 -0.005756739 0.25780082 -0.079930775 -0.16324484 0.059616514 -0.11417816
-0.102216914 0.059577625 0.1873358 0.043740045 0.18613881 0.01846275 -0.12871897 0.13352275
0.33918655 0.016361948 0.10411838 -0.22900309 0.15832414 -0.052693475 0.13020933 -0.111413345
0.09381257 0.12713756 -0.099491395 -0.016549129 -0.5369261 0.6187886 -0.1982261 0.0093723545
0.0050047254 -0.044447314 -0.11050375 0.10580305 0.03605948 -0.30647862 -0.100781344 -0.02078187
0.36158788 -0.36390418 0.030552398 0.2048381 0.2903955 -0.08935787 0.1185427 0.15387668
0.3126578 -0.23959418 0.24649645 -0.06299835 0.19149834 -0.3780272 0.11081561 0.09023901
0.16051319 0.081714995 -0.09948116 0.11514772 -0.2217985 -0.14696899 0.017077673 -0.007287381
0.12835912 0.025220929 -0.09069098 -0.18354681 -0.0021542187 -0.3137252 -0.02893089 0.40090597
0.61518764 -0.25623277 0.18542977 0.24337369 -0.094149835 0.044371363 -0.18144679 0.02887483
0.19288224 -0.46813315 0.035034847 0.096054755 -0.05066874 0.0028178825 -0.12575568 0.41094145
0.13099006 0.10762553 -0.1463174 0.09962364 0.11022694 0.15204461 0.22540915 0.19160819
-0.063147046 0.42649442 0.20261995 0.13025811 0.2619435 -0.18340175 0.10171438 -0.31399265
-0.021345783 0.013132115 0.041544817 0.2477725 -0.14538908 0.19760841 0.64613634 -0.010610078
0.121000715 0.20209868 -0.1472897 -0.28889632 0.0041226223 1.252475 -0.07471995 0.0029556048
0.13896765 0.20009673 -0.20311311 -0.14836045 -0.0076700696 0.82239217 -0.3175861 0.19090904
0.33086967 0.0055061323 0.13355309 0.33992714 -0.36791974 0.12803192 -0.050515246 -0.23844136
0.033992637 0.15756173 0.15261683 -0.012733273 -0.09994942 -0.13803795 0.05910318 -0.061371654
0.13749145 0.02336712 -0.106479466 -0.05606493 0.13177449 0.13653472 0.11101367 0.17174232
0.00040901956 0.03189214 -0.081031 0.19575931 0.034019098 -0.18491042 0.1708228 -0.11758798
0.3413581 0.2815041 -0.15313965 0.013551165 0.058875516 -0.1883146 0.0521946 -0.08288195
0.11906826 0.099274956 -0.118986584 -0.06835736 -0.4100004 0.06353103 0.15353426 -0.13749947
-0.026815306 -0.19334225 -0.051217366 0.19079351 0.17611317 -0.13870277 0.17804818 -0.108963154
-0.22939596 0.029200088 -0.14213711 -0.09712426 -0.08797564 0.029074403 0.010616504 -0.37902564
0.057678595 0.118141815 -0.0013730632 -0.12501533 -0.15618408 0.031700738 0.4450681 0.086854525
-0.075061515 0.15823673 -0.28540695 -0.7890423 -0.6075865 0.28875142 -0.039591547 0.00065790775
-0.085054524 0.1296298 0.05787297 0.28437445 -0.004831423 -0.25369447 0.049715642 0.12772639
00000000: 4df7 1e3e 069b ca3d 23ff 303e 2ea2 8ebc
00000010: b05b 07be 716d 643e 2095 5b3e c999 0fbe
00000020: fb1c 503c 112e 97bd e152 cfbb c27d 243e
00000030: 4c18 243e 539b 06be 8cc2 79be a121 82be
00000040: 7eaa 4ebe 2f8c 103e b8b1 2abd cf5a a2bd
00000050: 164a 21bd 159b e23d 88bc c33c 98fc ccbf
00000060: 0ded 3cbf b3a1 4dbf 9b15 90bd 4236 e93b
00000070: d3c4 183e 5b53 57bc f80d 223e d0ba 693e
00000080: 22aa 323d 5ba0 ecbc 10c9 a5be f1d6 d5bc
00000090: 78b2 5c3d 970f b23b 7de5 27bd 0079 54be
000000a0: f53d 003f 6eeb 9a3e 07a3 bcbb 78fe 833e
000000b0: bfb2 a3bd a829 27be 7230 743d 3dd6 e9bd
000000c0: 1a57 d1bd ab07 743d f5d4 3f3e c328 333d
000000d0: 2c9b 3e3e 313f 973c e8ce 03be 30ba 083e
000000e0: dca9 ad3e 7e09 863c 043c d53d c97f 6abe
000000f0: b91f 223e 1dd5 57bd 9855 053e ae2c e4bd
00000100: ce20 c03d 5930 023e 25c2 cbbd 0a92 87bc
00000110: fd73 09bf ee68 1e3f c8fb 4abe 818e 193c
00000120: aefe a33b 630e 36bd ca4f e2bd 45af d83d
00000130: 1bb3 133d c4ea 9cbe 7366 cebd bd3e aabc
00000140: 0c22 b93e a651 babe 0649 fa3c 14c1 513e
00000150: b8ae 943e 4201 b7bd 84c6 f23d d991 1d3e
00000160: af14 a03e 2d58 75be 9169 7c3e 4705 81bd
00000170: 2418 443e c88c c1be 4bf3 e23d 3bcf b83d
00000180: 925d 243e 315a a73d c7bc cbbd 91d2 eb3d
00000190: 251f 63be 0a7f 16be 7ae6 8b3c fcca eebb
000001a0: 9370 033e 1f9c ce3c 31bc b9bd b2f3 3bbe
000001b0: cb2d 0dbb 97a0 a0be 7900 edbc 8c43 cd3e
000001c0: f07c 1d3f f130 83be 4de1 3d3e f436 793e
000001d0: a1d1 c0bd bfbe 353d 30cd 39be e88a ec3c
000001e0: ec82 453e 26af efbe b380 0f3d 5bb8 c43d
000001f0: 068a 4fbd 39ac 383b 19c6 00be eb66 d23e
00000200: 4222 063e c66a dc3d 3ad4 15be 7b07 cc3d
00000210: a9be e13d 95b1 1b3e a8d1 663e f034 443e
00000220: 3d53 81bd 7a5d da3e 9b7b 4f3e 6262 053e
00000230: 751d 863e abcd 3bbe a14f d03d a5c3 a0be
00000240: 5add aebc 1528 573c e62a 2a3d 13b8 7d3e
00000250: e0e0 14be dc59 4a3e 3169 253f e5d5 2dbc
00000260: 39cf f73d f5f2 4e3e 1cd3 16be 38ea 93be
00000270: 1017 873b 1a51 a03f c606 99bd d2b2 413b
00000280: 894d 0e3e 28e6 4c3e e2fc 4fbe cdeb 17be
00000290: 3555 fbbb 4b88 523f a59a a2be a97d 433e
000002a0: c067 a93e c96c b43b 24c2 083e ee0a ae3e
000002b0: fa5f bcbe cd1a 033e 13e9 4ebd f929 74be
000002c0: dd3b 0b3d dd57 213e 9647 1c3e 389f 50bc
000002d0: 48b2 ccbd d259 0dbe 2d16 723d d860 7bbd
000002e0: 8fca 0c3e 676c bf3c e811 dabd 57a4 65bd
000002f0: e4ef 063e c2cf 0b3e 235b e33d 38dd 2f3e
00000300: ad71 d639 55a1 023d 95f3 a5bd 2175 483e
00000310: 9c57 0b3d 2859 3dbe 2cec 2e3e f8d1 f0bd
00000320: 7dc6 ae3e 4e21 903e a4d0 1cbe b505 5e3c
00000330: 7427 713d 8bd5 40be 01ca 553d 03be a9bd
00000340: 0fda f33d ab50 cb3d 3daf f3bd f2fe 8bbd
00000350: 93eb d1be 8f1c 823d 1638 1d3e a9cc 0cbe
00000360: c6ab dbbc 83fb 45be 4dc9 51bd 605f 433e
00000370: 0357 343e 1908 0ebe 4352 363e 1328 dfbd
00000380: c6e6 6abe 0635 ef3c 648c 11be 16e9 c6bd
00000390: 932c b4bd 712d ee3c d8f0 2d3c a60f c2be
000003a0: 6440 6c3d 56f4 f13d 5bf8 b3ba 0504 00be
000003b0: b8ee 1fbe a2d8 013d f7df e33e c9e0 b13d
000003c0: dab9 99bd cf08 223e dc20 92be adfe 49bf
000003d0: ca8a 1bbf 3ad7 933e bf2a 22bd 7177 2c3a
000003e0: 1131 aebd adbd 043e 350c 6d3d 8799 913e
000003f0: ea50 9ebb 3ee4 81be a1a2 4b3d b5ca 023e

linears.2.0.bias f4 [64]
-0.28825873 -0.08711666 0.14947294 -0.06685534 -0.06697971 0.14594178 0.14393932 0.008717554
0.101201676 -0.11450845 0.023927068 -0.040270586 0.13407755 0.17206927 0.0031676372 0.049352977
0.10233552 -0.0023423831 -0.19616273 -0.2063493 -0.14483303 -0.34773177 0.043981105 0.1094607
-0.26468077 0.12036144 0.07953825 0.2935959 0.2085162 0.15487462 -0.033740323 -0.15404737
0.5233827 0.17900689 -0.098456144 0.07486187 0.1336332 -0.18083166 -0.14214076 0.076397054
-0.5803914 -0.17538233 -0.34326115 -0.22040236 -0.110579364 -0.09328372 -0.15305018 -0.19560187
-0.11088781 0.277825 -0.1273658 -0.050367504 -0.46591687 -0.1664641 -0.0322759 0.21196449
-0.12394657 -0.16984828 -0.34702638 -0.14022385 0.2457103 0.026555113 -0.29419824 -0.035437323
00000000: a696 93be 386a b2bd 6f0f 193e 74eb 88bd
00000010: a82c 89bd c371 153e d464 133e 12d4 0e3c
00000020: d342 cf3d 6883 eabd b302 c43c c5f2 24bd
00000030: a04b 093e ed32 303e 2298 4f3b 5926 4a3d
00000040: 4995 d13d ab82 19bb e2de 48be 3b4d 53be
00000050: 1c4f 14be e609 b2be 8825 343d ee2c e03d
00000060: 3d84 87be 0f80 f63d f3e4 a23d 3452 963e
00000070: 4585 553e 7497 1e3e 4b33 0abd 98be 1dbe
00000080: 69fc 053f 954d 373e 60a3 c9bd 2e51 993d
00000090: 24d7 083e ef2b 39be 598d 11be 0f76 9c3d
000000a0: 8894 14bf 6d97 33be edbf afbe 28b1 61be
000000b0: 6f77 e2bd 890b bfbd 30b9 1cbe db4b 48be
000000c0: 2619 e3bd 143f 8e3e 2e6c 02be 284e 4ebd
000000d0: a88c eebe 9175 2abe bc33 04bd 380d 593e
000000e0: b3d7 fdbd b5ec 2dbe 71ad b1be d796 0fbe
000000f0: 7b9b 7b3e 1c8a d93c 27a1 96be ba26 11bd

linears.2.3.weight f4 [16, 64]
0.070682004 0.0051951255 -0.016788853 -0.013835106 -0.071708225 -0.08935183 0.24181606 0.45265415
0.07452657 0.0680781 0.10008956 0.11063332 0.21492594 -0.07633095 0.028216213 0.013330437
0.18669212 -0.08131496 0.16431952 -0.11667601 0.0830995 0.20701368 0.18401308 -0.00013023711
0.14336658 -0.085931495 0.25788835 -0.10901201 0.102352634 0.114755414 0.18838371 0.15091616
0.38912448 -0.13460627 -0.044021904 0.096803635 -0.20634612 0.04292475 0.13147874 -0.25977954
-0.06223378 0.06439856 0.16349503 0.16140755 0.22677718 0.058739886 0.043683995 0.22911383
0.23168033 0.19530009 0.010104987 0.031908922 0.40247935 -0.07465675 -0.048213657 0.0007631018
0.034460496 0.11660594 0.078554384 -0.08999126 0.05436762 0.115782276 -0.04595656 0.10084065
-0.090317234 0.06740094 -0.101205096 0.058563944 0.050546087 0.04176601 -0.19408621 -0.10553661
0.059926897 0.029637918 0.0014079205 0.1192986 -0.09761339 -0.03674172 0.016548624 0.1085451
0.04547973 0.03878824 -0.06417214 0.028486058 -0.104623936 0.05415095 0.0127814915 0.1336995
-0.083779186 0.10128234 -0.03237147 -0.08439253 0.03822128 -0.032802094 0.0732501 0.07023101
-0.11142125 0.12228489 0.20904271 0.02859575 0.116899475 -0.104760945 -0.0108838 0.084224686
-0.005144449 0.11197616 0.08593031 0.10066965 -0.013703146 0.11788004 -0.02923482 0.057832044
-0.17106825 -0.15695913 -0.03442259 -0.03934402 -0.12238687 0.00605636 -0.04757002 0.023225052
-0.13459694 0.07318728 0.01659344 0.088413894 0.09254414 -0.06698818 -0.088577956 0.045281228
-0.11841819 -0.4090805 -0.13781105 0.14057484 -0.008143407 0.20825852 0.029434258 0.24431619
0.045339797 -0.25919876 0.20132251 0.11429994 0.06817593 -0.5726792 -0.33658874 -0.069847055
-0.27673095 0.35560456 0.14394626 -0.004984453 -0.15797119 0.0819971 0.14088565 -0.17304184
0.33209196 0.10011392 0.07483449 0.08258688 -0.04315122 0.083701104 -0.244205 0.2020492
0.04905924 -0.36096087 -0.0810823 0.22165531 -0.2526151 0.29520464 -0.06613035 -0.059548043
0.14040817 -0.13387513 0.14568114 -0.18802908 0.13882817 0.0089946175 0.12115168 -0.054114293
0.0081821885 0.07488525 -0.15254633 0.3488048 -0.090509705 0.09250622 -0.26608098 -0.13614412
-0.21224464 0.04885405 -0.20642364 -0.07603685 0.14856894 0.07559033 -0.043409858 -0.04946487
0.28260785 0.43991813 0.139084 -0.300532 -0.17441973 -0.3199257 -0.124318615 -0.13474563
0.0019924103 0.19122797 -0.030773524 -0.55946803 0.15945561 0.27087855 0.079947144 0.2462145
0.13134076 -0.053231865 -0.03925773 0.09535812 0.27064192 -0.16008307 -0.022548178 0.21918453
-0.07049932 -0.2045338 0.2102198 -0.14796148 -0.12700352 -0.019504054 0.115255855 -0.08806272
-0.30817628 0.29802734 0.15459943 -0.0969016 0.09874593 0.07927049 -0.0138147175 0.20037146
-0.3386133 0.100978374 0.03408411 0.18807864 -0.35557052 -0.008172094 -0.42849183 0.29723194
-0.12281158 -0.08110343 0.14051552 -0.6422858 0.14578672 -0.5227728 0.04121557 0.15444236
0.46291253 0.09798407 0.43411025 -0.29632303 -0.10961312 -0.019516375 0.340004 -0.08441942
00000000: bac1 903d df3b aa3b c788 89bc a4ac 62bc
00000010: c3db 92bd 18fe b6bd a19e 773e 49c2 e73e
00000020: 63a1 983d 886c 8b3d c1fb cc3d b993 e23d
00000030: 8c15 5c3e 6753 9cbd b025 e73c e867 5a3c
00000040: 382c 3f3e 7588 a6bd 6043 283e d5f3 eebd
00000050: 1230 aa3d 65fb 533e ed6d 3c3e 4290 08b9
00000060: b0ce 123e dafc afbd f109 843e b041 dfbd
00000070: 429e d13d e304 eb3d a9e7 403e c489 1a3e
00000080: 533b c73e 3ad6 09be 5050 34bd fc40 c63d
00000090: 664c 53be ddd1 2f3d 5da2 063e d301 85be
000000a0: d9e8 7ebd 64e3 833d 3e6b 273e 0548 253e
000000b0: 4738 683e 3c99 703d fded 323d d19c 6a3e
000000c0: 9c3d 6d3e bffc 473e 638f 253c eeb2 023d
000000d0: c611 ce3e a3e5 98bd af7b 45bd e50a 483a
000000e0: 7326 0d3d 18cf ee3d 1fe1 a03d 564d b8bd
000000f0: 95b0 5e3d 421f ed3d f23c 3cbd 8b85 ce3d
00000100: 3ef8 b8bd 8109 8a3d 9e44 cfbd bfe0 6f3d
00000110: 6a09 4f3d d612 2b3d 89be 46be 9423 d8bd
00000120: e875 753d 38cb f23c f989 b83a d352 f43d
00000130: 87e9 c7bd 7c7e 16bd fb90 873c e54c de3d
00000140: f448 3a3d 6be0 1e3d af6c 83bd 985b e93c
00000150: 1345 d6bd 63cd 5d3d 7669 513c 86e8 083e
00000160: 6c94 abbd 1e6d cf3d f297 04bd fed5 acbd
00000170: eb8d 1c3d 7d5b 06bd 2604 963d 47d5 8f3d
00000180: d330 e4bd 8070 fa3d 4b0f 563e a241 ea3c
00000190: fe68 ef3d e88c d6bd f751 32bc fe7d ac3d
000001a0: c492 a8bb c253 e53d 3bfc af3d e42b ce3d
000001b0: 2983 60bc 176b f13d dc7d efbc 4be1 6c3d
000001c0: 842c 2fbe e5b9 20be b4fe 0cbd 3227 21bd
000001d0: f8a5 fabd 6e74 c63b c8d8 42bd 7742 be3c
000001e0: c8d3 09be 36e3 953d f7ee 873c 5812 b53d
000001f0: c887 bd3d 1931 89bd 5c68 b5bd cf78 393d
00000200: 3c85 f2bd 0073 d1be 571e 0dbe daf2 0f3e
00000210: ed6b 05bc b941 553e 1d20 f13c 062e 7a3e
00000220: 39b6 393d b3b5 84be 7d27 4e3e 1616 ea3d
00000230: d29f 8b3d 1b9b 12bf 5c55 acbe f90b 8fbd
00000240: aeaf 8dbe cd11 b63e a666 133e 9f54 a3bb
00000250: 33c3 21be 18ee a73d 5444 103e e131 31be
00000260: f507 aa3e 8708 cd3d d342 993d 4f23 a93d
00000270: 55bf 30bd 7c6b ab3d e010 7abe fce5 4e3e
00000280: 57f2 483d ddcf b8be 7a0e a6bd 9cf9 623e
00000290: c456 81be 1025 973e 596f 87bd a6e8 73bd
000002a0: 29c7 0f3e 9016 09be 702d 153e b28a 40be
000002b0: f928 0e3e 295e 133c 5f1e f83d f3a6 5dbd
000002c0: 960e 063c 705d 993d 1b35 1cbe 8b96 b23e
000002d0: 275d b9bd e773 bd3d c43b 88be 5d69 0bbe
000002e0: a956 59be 2f1b 483d b860 53be 35b9 9bbd
000002f0: 7522 183e 1acf 9a3d 89ce 31bd ad9b 4abd
00000300: fab1 903e f33c e13e 096c 0e3e 55df 99be
00000310: 169b 32be 4dcd a3be c29a febd c2fa 09be
00000320: 1993 023b 44d1 433e c218 fcbc 4c39 0fbf
00000330: 5548 233e 98b0 8a3e 54bb a33d a71f 7c3e
00000340: 317e 063e a809 5abd b7cc 20bd 1e4b c33d
00000350: 9491 8a3e d1ec 23be f5b6 b8bc e971 603e
00000360: f361 90bd 4f71 51be dc43 573e 3783 17be
00000370: 360d 02be f7c6 9fbc 430b ec3d 3a5a b4bd
00000380: 48c9 9dbe 0a97 983e 504f 1e3e 5974 c6bd
00000390: 4e3b ca3d 9158 a23d 2057 62bc 2d2e 4d3e
000003a0: b95e adbe c0cd ce3d c89b 0b3d b097 403e
000003b0: 570d b6be 3fe4 05bc 4863 dbbe c92e 983e
000003c0: a384 fbbd 8e19 a6bd 4de3 0f3e d86c 24bf
000003d0: 1d49 153e 70d4 05bf a8d1 283d 2326 1e3e
000003e0: df02 ed3e dfab c83d b343 de3e a7b7 97be
000003f0: d87c e0bd cee0 9fbc 0115 ae3e 17e4 acbd

linears.2.3.bias f4 [16]
0.26854333 -0.17732115 0.105804265 0.0754552 0.034487437 -0.061098464 -0.08882654 0.29105425
0.0559402 0.24937049 -0.2641761 -0.39793533 -0.13747182 0.06195763 -0.20024438 -0.5231304
00000000: 837e 893e ad93 35be e8af d83d 4288 9a3d
00000010: b342 0d3d 6242 7abd b0ea b5bd 1005 953e
00000020: 8d21 653d fa5a 7f3e 1742 87be 2ebe cbbe
00000030: 6ac5 0cbe 49c7 7d3d dd0c 4dbe e0eb 05bf

linears.3.0.weight f4 [64, 22]
-0.09928401 0.6747041 -0.29910594 -1.654384 0.12776858 -0.01991743 -0.017063031 0.04518553
-0.025934577 0.14508761 0.016073719 -0.62600076 -0.23583718 -0.15632966 0.11393815 -0.3633193
-0.011573912 -0.14649202 -1.4410076 -0.1790828 -0.23445225 -0.22827932 -0.16226606 0.124592766
0.13458256 -0.16744877 0.18949494 0.37900594 -0.01786172 0.19528319 0.10437806 -0.18704703
0.06413134 -0.103664584 0.10632018 0.03433483 0.29048267 -0.045201994 -0.051767312 0.058161084
-0.12241153 -0.05392145 0.07548016 -0.09664346 -0.05995177 -0.08224349 -0.22254261 -0.42595527
0.06337119 -0.00853503 0.04187404 -0.17738809 -0.20712936 0.2048015 -0.01127283 0.04330596
0.030232001 -0.0764311 0.15152359 -0.038992472 -0.11564679 0.18374224 -0.97271425 -0.11279746
0.047240194 -0.13177828 -0.59921724 -0.28757545 -0.024118116 -0.5818126 0.13245353 0.0053499523
-0.12528701 -0.122004956 -0.18597256 -0.17520984 -0.07032831 0.025947899 0.07898344 0.101861805
-0.20226057 -0.3311582 -0.10851662 0.090247944 0.09963027 -0.28813133 0.111772574 0.099171385
0.011041927 0.029226677 0.56879604 -1.0021349 -0.07569412 0.23247914 0.012283682 0.23371957
0.05383367 -0.08462157 -0.044470537 0.009690989 -0.118341774 -0.12190974 -0.3126404 0.17071842
0.18097816 -0.054481532 -1.0116694 -0.11988715 0.032729812 0.16060907 -0.19685061 -0.029905895
-0.14001754 -0.06298578 0.087962784 0.04492744 0.045924656 -0.12287034 -0.16951592 -0.20186895
0.050064243 0.20961049 -0.00870646 -0.2217494 -0.121033154 -0.083563864 -0.036377 -0.13682221
-0.077395506 0.058424775 -0.17237934 0.14467987 -0.5491455 -0.6448635 -0.87542343 1.499425
0.21600062 0.08213047 0.0130889 -0.18144707 0.12237487 -0.05117857 0.082229294 -0.2783838
-0.29805264 0.27234483 0.13429224 0.15212287 0.056753874 0.14181823 1.3025078 -0.15377578
-0.0038052395 0.3602841 0.32232708 0.5354262 0.2058781 -0.4393023 0.034795213 0.019270964
0.09958733 0.19249466 0.008968995 -0.15052944 0.056248613 0.37023282 0.18268166 0.22823438
-0.30506727 0.12092875 -0.10685181 0.10686687 -0.5207735 0.1250494 -0.22680894 0.14243789
-0.28718966 -0.5968802 -0.5891612 0.104943186 0.3864416 -0.16397192 -0.099479936 -0.067071944
-0.15344259 0.27823222 -0.07523724 -0.55799735 0.22002593 0.07690914 0.14616518 -0.0021262125
0.029108535 -0.12708978 -0.13371891 -0.030448748 -0.1698571 -0.21678968 0.27279097 0.0052461093
0.16666116 -0.47547796 -0.04891069 0.29893354 0.026967885 -0.02812072 0.056154788 -0.21709849
-0.09597501 -0.040488083 -0.056498323 0.13624455 -0.38497728 -0.1278342 -0.03157495 0.13147472
-0.39379355 0.20735094 -0.048789725 -0.062674895 -0.15363193 -0.06849899 -0.054775923 0.039414253
0.054814193 -0.12464054 -0.1889447 0.1853412 -0.025750713 -0.06758231 0.15031858 0.056955382
0.088100605 -0.24636489 0.24447833 0.09568635 0.19244225 0.16174826 -0.024288893 0.21361034
0.038607985 -0.069274805 -0.06757814 0.35420588 -0.022695176 0.102336794 -0.26334527 -0.014867761
0.10759789 0.0046251095 0.030403417 -0.06297836 -0.122977026 0.15731905 0.1812808 -0.314324
00000000: 6a55 cbbd 68b9 2c3f 6a24 99be dbc2 d3bf
00000010: c4d5 023e e129 a3bc c5c7 8bbc 7614 393d
00000020: c074 d4bc d991 143e 08ad 833c 9641 20bf
00000030: 4d7f 71be e214 20be 6858 e93d fd04 babe
00000040: 81a0 3dbc 0102 16be f072 b8bf 7b61 37be
00000050: 4014 70be 0ec2 69be 1329 26be 7e2a ff3d
00000060: 03d0 093e b177 2bbe f60a 423e 110d c23e
00000070: be52 92bc 51f8 473e 2ac4 d53d 4289 3fbe
00000080: 4b57 833d 194e d4bd 65be d93d aea2 0c3d
00000090: 25ba 943e ba25 39bd f609 54bd 513a 6e3d
000000a0: e5b2 fabd bddc 5cbd 5895 9a3d 02ed c5bd
000000b0: fd8f 75bd 466f a8bd 36e2 63be cf16 dabe
000000c0: c1c8 813d 83d6 0bbc 1d84 2b3d 39a5 35be
000000d0: b819 54be 7cb7 513e adb1 38bc 9761 313d
000000e0: 1aa9 f73c e987 9cbd 0029 1b3e 92b6 1fbd
000000f0: 39d8 ecbd ed26 3c3e cd03 79bf 5b02 e7bd
00000100: ef7e 413d e3f0 06be 4d66 19bf 173d 93be
00000110: 5b93 c5bc acf1 14bf e6a1 073e a74e af3b
00000120: 3d4b 00be bcdd f9bd 976f 3ebe 356a 33be
00000130: 4a08 90bd b090 d43c 12c2 a13d ec9c d03d
00000140: 651d 4fbe 918d a9be f63d debd ead3 b83d
00000150: f40a cc3d f385 93be 05e9 e43d 5e1a cb3d
00000160: 33e9 343c c96c ef3c 9e9c 113f f545 80bf
00000170: 8505 9bbd 030f 6e3e 7f41 493c 2f54 6f3e
00000180: b280 5c3d 134e adbd bd26 36bd f4c6 1e3c
00000190: 2c5d f2bd d0ab f9bd 6712 a0be cfd0 2e3e
000001a0: 5752 393e 0728 5fbd 627e 81bf 6587 f5bd
000001b0: b20f 063d b476 243e 3593 49be 35fd f4bc
000001c0: c260 0fbe b0fe 80bd d525 b43d d605 383d
000001d0: 7e1b 3c3d 72a3 fbbd 9595 2dbe bcb6 4ebe
000001e0: 2a10 4d3d 22a4 563e 8aa5 0ebc 4612 63be
000001f0: 3be0 f7bd 8823 abbd 0d00 15bd 1f1b 0cbe
00000200: 8981 9ebd d14e 6f3d 3684 30be f626 143e
00000210: cd94 0cbf c615 25bf c01b 60bf 29ed bf3f
00000220: 442f 5d3e 0534 a83d d372 563c 43cd 39be
00000230: ad9f fa3d 9fa0 51bd d567 a83d 5288 8ebe
00000240: 5b9a 98be c870 8b3e e883 093e 19c6 1b3e
00000250: c076 683d cc38 113e 93b8 a63f 6677 1dbe
00000260: 5361 79bb 2877 b83e 0e08 a53e b111 093f
00000270: b5d1 523e 3bec e0be 6d85 0e3d 24de 9d3c
00000280: 71f4 cb3d 521d 453e b1f2 123c 6424 1abe
00000290: f264 663d 288f bd3e e710 3b3e 46b6 693e
000002a0: c731 9cbe 7ea9 f73d 1fd5 dabd 04dd da3d
000002b0: 6951 05bf f30c 003e 9a40 68be 3ddb 113e
000002c0: 860a 93be 24cd 18bf 45d3 16bf 74ec d63d
000002d0: acdb c53e 41e8 27be 23bc cbbd 045d 89bd
000002e0: 0e20 1dbe 7474 8e3e fb15 9abd ead8 0ebf
000002f0: 7a4e 613e 8a82 9d3d 53ac 153e ed57 0bbb
00000300: 0675 ee3c d323 02be 9ced 08be a76f f9bc
00000310: 05ef 2dbe 1dfe 5dbe 42ab 8b3e 8ee7 ab3b
00000320: 39a9 2a3e d971 f3be 9356 48bd d10d 993e
00000330: c1eb dc3c 6d5d e6bc 9002 663d 114f 5ebe
00000340: 8c8e c4bd d5d6 25bd c96a 67bd b183 0b3e
00000350: be1b c5be f8e6 02be bc54 01bd 4fa1 063e
00000360: 4f9f c9be ce53 543e bcd7 47bd b25b 80bd
00000370: b051 1dbe 3349 8cbd b85c 60bd d770 213d
00000380: d984 603d 8a43 ffbd b87a 41be 15ca 3d3e
00000390: 29f3 d2bc 9868 8abd 1ded 193e 0c4a 693d
000003a0: 176e b43d 1447 7cbe 8758 7a3e 34f7 c33d
000003b0: 950f 453e 56a1 253e 80f9 c6bc abbc 5a3e
000003c0: 6823 1e3d f3df 8dbd 6866 8abd 795a b53e
000003d0: 3ceb b9bc f495 d13d 31d5 86be e997 73bc
000003e0: 485c dc3d 3b8e 973b 9610 f93c ccfa 80bd
000003f0: 61db fbbd 3f18 213e ada1 393e 13ef a0be
