model/final_cleaned1_trained_after_data_argument28_model-9789.pth (torch, 80967 bytes, 24 tensors)

linears.0.0.weight f4 [64, 22]
-0.28288427 -0.1452415 -0.023827812 -0.09832533 -0.06209592 0.1155801 0.011275304 -0.09717785
0.05836268 -0.15695368 0.07463129 0.040564325 0.054419737 -0.0007706288 -0.18172781 -0.058894534
0.045362037 0.09314206 0.06574272 0.00892533 0.20467462 -0.21515223 -0.09047529 -0.4452668
-0.067831896 -0.07847104 -0.23487352 0.79649556 0.12457951 0.17800763 0.0046236925 -0.012773528
0.108911455 -0.14741206 0.04911126 -0.016180037 -0.30562124 0.08324687 0.09653648 0.018578919
0.016969206 -0.05536673 0.032043114 -0.23056217 -0.051173627 -0.14907573 0.136359 0.07059522
-0.24518569 0.44048423 -0.17428632 -0.06955346 -0.1886269 0.102709055 0.18114538 0.38576266
-0.11873095 -0.2977789 -0.12077694 -0.04532176 -0.067253835 -0.056250624 0.038454954 0.053734962
0.1126462 -0.23261748 0.28840405 0.20735057 -0.19618414 -0.14757288 -0.22399567 0.5752243
-0.05006504 0.016313504 0.042121686 -0.009392183 -0.19419147 0.037690457 -0.10603295 -0.013309605
0.09049495 0.089780495 0.0824066 0.042328764 0.16732688 -0.16603404 0.04156785 -0.036997903
-0.039529078 -0.28235564 0.13474907 -0.15718783 -0.083513096 -0.07021564 0.15336938 0.10103143
0.17270088 -0.020858135 0.059166588 -0.0139897615 -0.026199834 0.9603331 0.026474794 -0.023677811
-0.16872469 -0.206164 -0.42359173 -0.2494519 0.12852064 -0.49902302 0.14515914 0.6083509
-0.81225896 -0.06426654 0.24221541 0.16500802 0.20001024 -0.15989631 -0.11954076 -0.09417409
-0.09527583 -0.4484178 -0.19537663 -0.15276784 0.25757518 -0.020868883 -0.0966145 -0.264367
0.24268545 -0.0058205235 0.049829308 -0.1175635 0.1773227 0.07039326 0.31771874 -0.33259925
-0.11387851 0.0031463047 -0.105386235 0.1699126 -0.11407639 -0.06009574 0.23758335 -0.32720408
-0.064317316 1.066616 -0.55818254 0.109433874 -0.039110277 -0.3910128 -0.48486504 -0.6062621
-0.27771166 0.110885896 0.109195605 -0.104827896 0.049082056 -0.09830304 0.003755614 -0.30397385
-0.029923484 -0.060583714 0.17731473 0.025927885 -0.14164108 -0.082798086 0.008388788 0.15335953
0.2023324 -0.098012134 0.12709689 0.111760676 0.0348871 0.058070853 0.18822663 -0.14285868
0.31022346 -0.7135712 -0.070646025 0.30393514 -0.16244781 0.024453955 -0.09503258 0.019265788
0.12852457 0.016214948 0.17224629 -0.6647369 -0.052964903 0.10889174 0.005353003 0.14142513
0.018777588 0.10522908 -0.16490439 -0.03348234 0.0789958 -0.03927757 -0.17125063 -0.19439904
0.01984202 -0.17758332 -0.14213404 0.17783205 -0.16814812 -0.20548955 0.012203437 -0.22897302
0.09899055 0.06674572 -0.19475092 0.08507223 -0.10562815 -0.2105938 0.034854297 -0.0735943
-0.07827052 0.12267395 0.09248763 -0.31857306 -0.063975915 0.7468972 -0.093703754 -0.26766595
0.018129809 -0.03383346 -0.13462766 -0.17600374 0.018253364 0.19652168 0.18697818 -0.073590666
0.13489501 0.14706142 -0.07345481 -0.45270443 0.12652203 0.048965685 0.054147087 -0.18118615
-0.037537057 -0.30428648 -0.22329192 0.20320298 0.2523421 0.104675286 0.059692886 -0.0169051
0.23284106 0.07205833 -0.12125587 -0.1363511 0.035707198 -0.23077238 0.05877506 -0.05596246
00000000: 35d6 90be 30ba 14be 8b32 c3bc ca5e c9bd
00000010: 4b58 7ebd 42b5 ec3d 0dbc 383c 2e05 c7bd
00000020: b50d 6f3d 77b8 20be 4ad8 983d c726 263d
00000030: 3be7 5e3d 0604 4aba db16 3abe 653b 71bd
00000040: 8bcd 393d 44c1 be3d 1fa4 863d 8c3b 123c
00000050: 3996 513e de50 5cbe 1c4b b9bd 03fa e3be
00000060: 73eb 8abd 6db5 a0bd af82 70be 22e7 4b3f
00000070: 8b23 ff3d a247 363e 5882 973b 0f48 51bc
00000080: f80c df3d 30f3 16be e328 493d ff8b 84bc
00000090: 637a 9cbe 567d aa3d ebb4 c53d d132 983c
000000a0: 0103 8b3c 39c8 62bd a43f 033d 7d18 6cbe
000000b0: 709b 51bd 4fa7 18be b2a1 0b3e 3a94 903d
000000c0: f511 7bbe 2687 e13e 1d78 32be 0b72 8ebd
000000d0: 6927 41be 2059 d23d 2d7e 393e af82 c53e
000000e0: 3629 f3bd 7a76 98be e659 f7bd 4fa3 39bd
000000f0: 61bc 89bd 0e67 66bd f182 1d3d 3119 5c3d
00000100: 0db3 e63d 4733 6ebe b2a9 933e b553 543e
00000110: 7fe4 48be 581d 17be 1f5f 65be e641 133f
00000120: 0011 4dbd e6a3 853c ca87 2c3d ace1 19bc
00000130: 21da 46be 4f61 1a3d ce27 d9bd 8810 5abc
00000140: 6b55 b93d d6de b73d cbc4 a83d ed60 2d3d
00000150: bd57 2b3e d404 2abe 0d43 2a3d 1d8b 17bd
00000160: 3ee9 21bd eb90 90be a9fb 093e d9f5 20be
00000170: ea08 abbd 38cd 8fbd dd0c 1d3e 91e9 ce3d
00000180: 80d8 303e aede aabc aa58 723d 5035 65bc
00000190: 09a1 d6bc 64d8 753f abe1 d83c f8f7 c1bc
000001a0: 2ac6 2cbe a81c 53be 04e1 d8be 5270 7fbe
000001b0: ea9a 033e f27f ffbe 99a4 143e e2bc 1b3f
000001c0: 34f0 4fbf 2d9e 83bd 5107 783e ddf7 283e
000001d0: 7ccf 4c3e dcbb 23be c9d1 f4bd 58de c0bd
000001e0: f91f c3bd 0597 e5be d010 48be 2c6f 1cbe
000001f0: e5e0 833e 38f5 aabc d3dd c5bd 1d5b 87be
00000200: 8982 783e 17ba bebb d119 4c3d 22c5 f0bd
00000210: 1594 353e 572a 903d 08ac a23e 734a aabe
00000220: 2339 e9bd 3c32 4e3b bdd4 d7bd 92fd 2d3e
00000230: e2a0 e9bd f326 76bd 0d49 733e 4b87 a7be
00000240: ccb8 83bd e086 883f 0de5 0ebf de1e e03d
00000250: 1932 20bd d432 c8be 3b40 f8be fe33 1bbf
00000260: 3930 8ebe 2518 e33d f2a1 df3d 02b0 d6bd
00000270: 440a 493d 1b53 c9bd bf20 763b 76a2 9bbe
00000280: 1822 f5bc a126 78bd fe91 353e b766 d43c
00000290: 5c0a 11be 0b92 a9bd 2171 093c 480a 1d3e
000002a0: 3a30 4f3e 96ba c8bd b025 023e c8e2 e43d
000002b0: c7e5 0e3d b4db 6d3d 7bbe 403e 8c49 12be
000002c0: 9cd5 9e3e 9aac 36bf ddae 90bd 639d 9b3e
000002d0: b858 26be a953 c83c 71a0 c2bd 49d3 9d3c
000002e0: f29b 033e 36d5 843c 5561 303e 332c 2abf
000002f0: baf1 58bd a202 df3d 3e68 af3b c0d1 103e
00000300: 75d3 993c 5882 d73d b2dc 28be c724 09bd
00000310: 8dc8 a13d 84e1 20bd 535c 2fbe 8b10 47be
00000320: bb8b a23c 67d8 35be 968b 11be 9b19 363e
00000330: 052f 2cbe da6b 52be edf0 473c e777 6abe
00000340: 8fbb ca3d fbb1 883d c96c 47be 593a ae3d
00000350: 9253 d8bd e7a5 57be 61c3 0e3d 9cb8 96bd
00000360: 4b4c a0bd 7b3c fb3d 286a bd3d 021c a3be
00000370: ce05 83bd a834 3f3f c1e7 bfbd 830b 89be
00000380: f784 943c f494 0abd d5db 09be 533a 34be
00000390: 1488 953c fb3c 493e 3577 3f3e b4b6 96bd
000003a0: eb21 0a3e 4597 163e 7a6f 96bd e0c8 e7be
000003b0: fe8e 013e 3e90 483d 56c9 5d3d dd88 39be
000003c0: 75c0 19bd 70cb 9bbe a3a6 64be 7114 503e
000003d0: fc32 813e ff5f d63d 8780 743d 907c 8abc
000003e0: e36d 6e3e 5193 933d ff54 f8bd 9f9f 0bbe
000003f0: b641 123d 984f 6cbe 1ebe 703d e438 65bd

linears.0.0.bias f4 [64]
-0.08035337 0.38906127 -0.0644167 0.13880996 -0.48267698 -0.30321145 -0.9762898 -0.147722
-0.36269927 -0.24879807 -0.1850932 -0.15212925 -0.70399857 0.44740626 0.01275696 -0.3590715
-0.15221767 0.0846484 -0.6305179 0.030311214 -0.2608339 0.100258276 0.0077970005 0.14425164
-0.21985324 -0.29808697 0.11323236 0.05055447 -0.2298303 -0.17604233 -0.03983421 0.08693094
-0.19070287 -0.0015307695 -0.17160212 -0.06495232 -0.030375944 0.12186859 -0.2706516 -0.23571673
0.08256249 0.39972845 -0.20137963 -0.15431964 -0.9032216 -0.010215742 -0.58422905 -0.29138422
-1.0369251 0.1705221 -0.6802081 -0.25973848 -0.13972324 -0.14055471 -0.6489758 -0.14126487
-0.026152628 -0.40844685 -0.2110504 0.12503572 -0.6876273 0.026311727 -0.24020785 -0.011786757
00000000: 4f90 a4bd 0a33 c73e e7ec 83bd 3324 0e3e
00000010: 7021 f7be 883e 9bbe 21ee 79bf 7044 17be
00000020: b8b3 b9be ecc4 7ebe 1289 3dbe c5c7 1bbe
00000030: 4039 34bf 6f12 e53e 9102 513c 38d8 b7be
00000040: f3de 1bbe 245c ad3d 9f69 21bf 394f f83c
00000050: 058c 85be 3654 cd3d fb7d ff3b b4b6 133e
00000060: 3521 61be db9e 98be 5ee6 e73d 3412 4f3d
00000070: a258 6bbe 7144 34be 3229 23bd d908 b23d
00000080: 9d47 43be 1aa4 c8ba 77b8 2fbe b905 85bd
00000090: f9d6 f8bc 3d96 f93d d992 8abe ba5f 71be
000000a0: 8616 a93d 35a9 cc3e 7636 4ebe f805 1ebe
000000b0: 8839 67bf ed5f 27bc 0990 15bf 5030 95be
000000c0: f6b9 84bf 589d 2e3e 1e22 2ebf 71fc 84be
000000d0: 9c13 0fbe 93ed 0fbe 4723 26bf bda7 10be
000000e0: 093e d6bc f21f d1be 991d 58be 5d09 003e
000000f0: 5808 30bf b18b d73c 0cf9 75be 3e1d 41bc

linears.0.3.weight f4 [16, 64]
-0.03465388 0.06338345 -0.009816297 0.26572657 -0.22041163 0.4712919 -0.59314406 0.21730736
-0.48731554 0.016820889 -0.11224018 0.2432657 -0.10322722 -0.07260474 0.0322609 0.023282718
0.19608991 0.17189968 -0.2883156 -0.2693638 0.06665618 -0.03847463 -0.26502857 -0.15201443
-0.022995586 0.3047815 0.050704487 0.09716655 -0.08721893 -0.07507022 -0.058574945 -0.25478435
0.13140385 -0.008831153 -0.09285405 -0.21875043 -0.08954872 0.1261725 -0.501226 0.37136573
-0.0048447517 -0.14028509 0.2236903 0.04012432 0.016359678 -0.3612757 -0.028363818 -0.018336369
-0.11824411 -0.056186136 -0.31233776 -0.0627299 -0.012002938 0.03414049 -0.29023284 -0.007929975
0.13762884 -0.38974014 -0.26228085 0.010599965 -0.20531958 0.21859063 0.29370657 -0.30301505
0.07860215 -0.016067466 -0.08148745 -0.24406776 0.62206095 0.077939406 0.6613752 -0.2000744
0.014075803 -0.047369074 0.26328713 -0.10187696 0.4217156 -0.17291275 0.018890375 0.07003368
0.045522846 -0.038490456 0.6683878 0.086237654 0.07142065 -0.042219765 0.10360393 -0.035513528
0.0359862 -0.03894167 -0.08418027 -0.05162768 0.044277 0.010649016 -0.06879116 0.0078068767
-0.040712044 -0.10792506 0.15314421 -0.0074620917 -0.19199008 -0.12495258 -0.0042581353 -0.16824496
-0.22307406 -0.078068145 -0.048644654 0.0072561754 0.71519023 -0.0043294756 0.21080464 0.03632533
0.9573159 -0.046469107 0.71050465 -0.051633164 -0.03328683 -0.11061238 0.6746532 -0.033714596
-0.06860823 0.28709924 -0.07984 0.19478665 0.44043943 -0.0041559245 0.051391024 0.012951207
0.056976892 0.57943755 0.116951525 0.021913556 -0.60740155 -0.3263456 -0.27473402 0.008646808
0.3815105 0.06346475 -0.21475269 0.14735621 -0.24256222 0.50448734 0.033091057 -0.09539533
0.15331514 0.15058517 -0.6062251 -0.14054455 0.014455631 0.007328965 0.055047095 0.41599417
-0.19223171 -0.06303921 0.19017066 0.03542098 0.0034753182 -0.05754239 0.118291765 -0.037250057
0.07782307 -0.046818532 -0.12418826 -0.1379381 0.18819635 0.6458522 0.6821637 -0.16236004
-0.056018792 0.45410496 -0.1494913 0.11241271 -0.29898205 -0.12478951 -0.2035635 -0.3729584
-0.6762855 0.37204808 -0.5320689 0.2475944 -0.14140888 -0.11198534 -0.76946175 -0.10576104
0.04543669 -0.29325852 0.052450854 0.2319274 -0.26048097 -0.14619936 -0.038864013 0.43241712
-0.045426726 0.19254774 0.12208764 0.4170682 -0.6295241 0.24358346 -0.81783986 0.072895356
-0.37027228 -0.035658136 -0.20539816 0.220609 -0.20908163 -0.0056894426 0.17393795 0.096332975
0.026401637 0.25375438 -0.6102156 -0.103126705 -0.09352645 0.14594902 -0.14071292 -0.12832017
-0.07391304 0.07115265 0.06763539 0.039869707 -0.23011075 -0.030329963 0.048021 0.07734782
0.20141326 -0.05950463 -0.16847874 0.004955914 0.27967384 0.2040919 -0.22071475 0.3800385
0.10624936 0.18520957 0.15097015 0.046061456 -0.4986915 -0.20609805 -0.19335848 0.1501053
-0.75909257 0.012834489 -0.53276706 0.0893789 0.17487161 -0.019726232 -0.48054692 0.051560584
0.10753817 -0.29143804 -0.09019296 0.22259782 -0.46387908 0.2922602 0.15769611 -0.25669244
00000000: 3af1 0dbd 2fcf 813d 89d4 20bc 500d 883e
00000010: 96b3 61be 2c4d f13e 4ad8 17bf d285 5e3e
00000020: 6c81 f9be f6cb 893c 2ede e5bd a51a 793e
00000030: cb68 d3bd cbb1 94bd 0124 043d 66bb be3c
00000040: cbcb 483e 7806 303e 1a9e 93be 0dea 89be
00000050: 0983 883d 9397 1dbd d3b1 87be aca9 1bbe
00000060: 3d61 bcbc 520c 9c3e 82af 4f3d 42ff c63d
00000070: d79f b2bd 6abe 99bd 48ec 6fbd 1873 82be
00000080: bb8e 063e 8ab0 10bc 442a bebd 1d00 60be
00000090: 5265 b7bd 5d33 013e 5950 00bf a623 be3e
000000a0: b9c0 9ebb e5a6 0fbe 120f 653e 6659 243d
000000b0: bb04 863c 21f9 b8be 3d5b e8bc 2736 96bc
000000c0: f829 f2bd 6f23 66bd bcea 9fbe 8978 80bd
000000d0: f9a7 44bc e6d6 0b3d 6699 94be baec 01bc
000000e0: 93ee 0c3e 058c c7be ad49 86be 7aab 2d3c
000000f0: 4c3f 52be 39d6 5f3e b560 963e ca24 9bbe
00000100: 2afa a03d eb9f 83bc e4e2 a6bd e6ec 79be
00000110: 633f 1f3f b29e 9f3d e34f 293f 4ee0 4cbe
00000120: 329e 663c 1306 42bd 92cd 863e dea4 d0bd
00000130: 1beb d73e 0a10 31be fdbf 9a3c d16d 8f3d
00000140: 2a76 3a3d 2ba8 1dbd 761b 2b3f 5e9d b03d
00000150: fd44 923d a2ee 2cbd 4c2e d43d a276 11bd
00000160: 4466 133d 4d81 1fbd b566 acbd 8c77 53bd
00000170: cd5b 353d 3679 2e3c 61e2 8cbd d4d0 ff3b
00000180: acc1 26bd d007 ddbd d6d1 1c3e 9084 f4bb
00000190: 0c99 44be 23e7 ffbd d487 8bbb 6848 2cbe
000001a0: 876d 64be 31e2 9fbd 9e3f 47bd 36c5 ed3b
000001b0: b516 373f 46de 8dbb 2cdd 573e dfc9 143d
000001c0: a812 753f 6456 3ebd a2e3 353f 4c7d 53bd
000001d0: c557 08bd be88 e2bd 12b6 2c3f 5118 0abd
000001e0: 7982 8cbd acfe 923e 2783 a3bd 2776 473e
000001f0: 4781 e13e 6c2e 88bb 657f 523d 4d31 543c
00000200: 9a60 693d 0556 143f 4884 ef3d 0f84 b33c
00000210: ab7e 1bbf c516 a7be f0a9 8cbe 57ab 0d3c
00000220: 5855 c33e cff9 813d 21e8 5bbe 8ce4 163e
00000230: 3b62 78be 1526 013f 7d8a 073d a05e c3bd
00000240: a5fe 1c3e 0033 1a3e 9131 1bbf e9ea 0fbe
00000250: 50d7 6c3c d027 f03b 1079 613d 30fd d43e
00000260: 64d8 44be b41a 81bd 19bc 423e 9715 113d
00000270: 2ac2 633b 92b1 6bbd f442 f23d 8493 18bd
00000280: b461 9f3d cac4 3fbd 6a56 febd a53f 0dbe
00000290: 8bb6 403e 9256 253f 48a2 2e3f b641 26be
000002a0: f673 65bd 7280 e83e 3f14 19be a338 e63d
000002b0: 2d14 99be a591 ffbd f372 50be 67f4 bebe
000002c0: 0c21 2dbf 167d be3e ab35 08bf 6389 7d3e
000002d0: 7dcd 10be 9258 e5bd 72fb 44bf 3e99 d8bd
000002e0: d31b 3a3d fb25 96be b5d6 563d 607e 6d3e
000002f0: c35d 85be 49b5 15be df2f 1fbd c765 dd3e
00000300: 6011 3abd 3c2b 453e 1609 fa3d f789 d53e
00000310: 7e28 21bf f16d 793e f45d 51bf 294a 953d
00000320: 5494 bdbe 440e 12bd e553 52be 53e7 613e
00000330: 7f19 56be 816e babb ca1c 323e 394a c53d
00000340: 3f48 d83c 18ec 813e 1737 1cbf 1834 d3bd
00000350: cc8a bfbd a973 153e 0c17 10be 5d66 03be
00000360: b85f 97bd 7bb8 913d 6c84 8a3d 6b4e 233d
00000370: 27a2 6bbe 8b76 f8bc abb1 443d 8968 9e3d
00000380: 473f 4e3e 20bb 73bd b185 2cbe 3865 a23b
00000390: 6931 8f3e 78fd 503e 0c03 62be 6894 c23e
000003a0: 4499 d93d 94a7 3d3e eb97 1a3e f0aa 3c3d
000003b0: 7e54 ffbe 5e0b 53be c4ff 45be 34b5 193e
000003c0: e453 42bf c047 523c 6c63 08bf 490c b73d
000003d0: 8b11 333e e898 a1bc 3f0a f6be 3131 533d
000003e0: f93c dc3d 5e37 95be 16b7 b8bd aff0 633e
000003f0: 8f81 edbe 21a3 953e 177b 213e 316d 83be

linears.0.3.bias f4 [16]
0.0007550966 -0.28390586 0.012354522 0.093218416 0.22045515 -0.32353604 -0.094878644 -0.2931155
-0.26533827 -0.088751286 -0.06950834 -0.0865847 -0.02213393 -0.22833067 -0.088759296 0.13186805
00000000: adf1 453a 1c5c 91be 9f6a 4a3c 4ce9 be3d
00000010: ffbe 613e 84a6 a5be bc4f c2bd 3c13 96be
00000020: 6bda 87be 3cc3 b5bd 635a 8ebd 5253 b1bd
00000030: 3752 b5bc 84cf 69be 6fc7 b5bd 6b08 073e

linears.1.0.weight f4 [64, 22]
0.27406204 0.7442046 -0.14500335 -0.033922624 0.016519248 -0.011540897 -0.010656701 -0.02967735
-0.0780468 -0.28170288 -0.17049007 -0.24387164 -0.05132644 0.09421584 -0.6872712 0.028250966
-0.107075095 0.05334766 0.083078384 -0.13835743 -0.11866699 -0.034611598 -0.10371005 0.8106084
-0.47813648 0.5009572 0.019534564 -0.03138295 -0.032059252 0.043873735 0.22226577 0.09211379
-0.20390044 0.06411882 -0.027392443 -0.05428751 0.24362336 0.18608914 0.10462227 0.053913202
-0.0010574807 -0.07445018 0.10760087 0.8334788 -0.10329598 -0.37223643 -1.1294467 -0.030395878
0.04810804 -0.040798202 0.18194485 0.21912831 0.010855855 0.3839336 0.15109853 0.04757717
-0.117231265 -0.090506986 0.26703066 0.01560517 0.004584534 -0.24554494 -0.013611169 -0.266926
0.09660883 -0.2013748 0.57972735 0.520596 0.08516301 0.014749799 -0.2861796 -0.070025645
0.21488094 0.07364639 -0.08073258 -0.20170626 -0.076422736 0.011534336 -0.05890692 -0.10446756
-0.7940155 0.34913385 0.1607919 -0.22364531 0.16758664 -0.122189514 -0.3586452 -0.62919617
-0.08142443 -0.02208609 -0.72238797 0.5040293 -0.097683184 -0.021414557 0.2177575 -0.1699825
-0.0031888518 0.01778842 0.18859886 -0.034606002 -0.07657112 0.15600114 1.1577018 -0.22106612
0.022537319 0.07860726 -0.21929651 -0.11185583 -0.22536296 -0.10521595 0.20060997 -0.3457387
0.35440034 -0.57813096 -0.08867693 0.05256519 -0.14066449 -0.09294997 0.16323517 0.16411734
0.1409448 0.004343809 0.030332865 -0.09010676 0.22761375 -0.03797928 0.06679123 0.14391579
-0.15294053 -0.008877357 0.043183718 -0.06512569 -0.029637128 -0.60638666 -0.27823514 0.5244737
-0.011851264 -0.5212472 -0.10122164 -0.007958785 0.005440903 -0.01715142 -0.10148511 -0.0011903759
0.13817959 -0.43974057 0.59283483 -0.0930376 -0.08216465 0.08162427 0.5361641 0.13794875
0.043232072 1.105358 0.17258835 0.35426116 -0.3678128 -0.41226637 0.06694094 0.30673409
-0.0856719 0.06665233 -0.16363983 -0.20946698 0.06744438 -0.043452073 -0.29229227 -0.009013019
0.1496748 0.05157826 0.14439577 -0.12964088 -0.13131502 0.0010527968 -0.11095745 -0.10836112
-0.18627962 -0.11797283 0.03151578 0.054780684 0.08069102 0.32117853 0.16686703 0.03324727
-0.07669607 0.028110018 -0.11727347 0.03182785 -0.32825163 -0.126637 0.049250294 0.13684101
0.08846344 0.0058817184 -0.23396824 -0.015106434 0.043162666 -0.037583407 0.34227082 0.7311691
0.26864928 -0.042578854 0.006509802 -0.0051392624 0.05963715 0.22801451 0.05222206 -0.07406466
0.05401933 0.41955423 0.022814838 0.072971635 -0.86526304 0.23225993 -0.070963256 0.11724902
-0.40419525 -0.13108194 0.117543355 -0.056462422 0.3405613 0.3309139 0.34480932 0.03388683
-0.25732908 0.43750927 -0.15112329 0.07703023 -0.076059796 -0.06513037 -0.07369469 0.0077393358
0.052887056 -0.005875941 0.1509232 -0.031369064 0.07562849 -0.3411329 0.18899989 0.10728224
-0.12669863 -0.1963162 0.085288905 0.35154006 0.006715591 0.073571 -0.09632026 0.0050111962
0.049912605 -0.05866599 -0.12177097 -0.10400133 0.16856652 -0.061503477 0.11245323 -0.16740902
00000000: dc51 8c3e 3184 3e3f c27b 14be 73f2 0abd
00000010: 6053 873c 0816 3dbc 7299 2ebc ea1d f3bc
00000020: 00d7 9fbd 5c3b 90be f394 2ebe 7db9 79be
00000030: ac3b 52bd 3cf4 c03d 01f1 2fbf 926e e73c
00000040: 304a dbbd 1383 5a3d 0025 aa3d 92ad 0dbe
00000050: ae07 f3bd e4c4 0dbd ef65 d4bd 0884 4f3f
00000060: 4ece f4be bb3e 003f f306 a03c 688b 00bd
00000070: 9050 03bd f2b4 333d a399 633e 28a6 bc3d
00000080: 47cb 50be ba50 833d 1e66 e0bc 955c 5ebd
00000090: 6778 793e 278e 3e3e 3344 d63d 17d4 5c3d
000000a0: 2a9b 8aba 5679 98bd d85d dc3d de5e 553f
000000b0: d88c d3bd c695 bebe b691 90bf c700 f9bc
000000c0: f00c 453d 041c 27bd c04f 3a3e 2c63 603e
000000d0: c2dc 313c f292 c43e 93b9 1a3e 47e0 423d
000000e0: f216 f0bd ba5b b9bd 3eb8 883e d4ac 7f3c
000000f0: dc39 963b 2270 7bbe 6101 5fbc 86aa 88be
00000100: dada c53d 3235 4ebe 0369 143f c845 053f
00000110: f269 ae3d 24a9 713c 2286 92be 9b69 8fbd
00000120: c009 5c3e ebd3 963d 1f57 a5bd 168c 4ebe
00000130: 8683 9cbd 83fa 3c3c 6248 71bd 17f3 d5bd
00000140: 9a44 4bbf acc1 b23e a2a6 243e 4703 65be
00000150: d59b 2b3e 7f3e fabd 58a0 b7be 0013 21bf
00000160: dac1 a6bd e3ed b4bc 6bee 38bf 1008 013f
00000170: 1f0e c8bd 956d afbc d2fb 5e3e e40f 2ebe
00000180: 0efc 50bb 05b9 913c 0f20 413e 06bf 0dbd
00000190: 52d1 9cbd c3be 1f3e 932f 943f 285f 62be
000001a0: 2fa0 b83c d8fc a03d 448f 60be ab14 e5bd
000001b0: 8cc5 66be 767b d7bd b36c 4d3e aa04 b1be
000001c0: f673 b53e 6400 14bf 409c b5bd 994e 573d
000001d0: 5a0a 10be 8e5c bebd 1f27 273e 600e 283e
000001e0: d553 103e 8356 8e3b a17c f83c e589 b8bd
000001f0: 9413 693e 2990 1bbd d7c9 883d a95e 133e
00000200: 719c 1cbe 5572 11bc 69e1 303d 9e60 85bd
00000210: 90c9 f2bc 283c 1bbf d674 8ebe e943 063f
00000220: ce2b 42bc 7570 05bf 4b4d cfbd 9065 02bc
00000230: 9a49 b23b 2281 8cbc 6dd7 cfbd 6306 9cba
00000240: f37e 0d3e ad25 e1be 06c4 173f 7f8a bebd
00000250: f145 a8bd a02a a73d 0d42 093f 7042 0d3e
00000260: 1d14 313d 5f7c 8d3f 00bb 303e b861 b53e
00000270: f651 bcbe 9414 d3be 5518 893d 400c 9d3e
00000280: c074 afbd 0481 883d 3391 27be 837e 56be
00000290: 4720 8a3d cdfa 31bd 55a7 95be 57ab 13bc
000002a0: 5a44 193e ba43 533d 7cdc 133e 94c0 04be
000002b0: 7277 06be 00fe 893a a93d e3bd 6fec ddbd
000002c0: 16c0 3ebe bd9b f1bd b116 013d b661 603d
000002d0: 5541 a53d 8371 a43e 31df 2a3e 4a2e 083d
000002e0: d412 9dbd fb46 e63c 132d f0bd eb5d 023d
000002f0: 9910 a8be 21ad 01be adba 493d 0d20 0c3e
00000300: 522c b53d 6ebb c03b 5f95 6fbe fa80 77bc
00000310: 56cb 303d 0ff1 19bd 1f3e af3e e62d 3b3f
00000320: 668c 893e 2a67 2ebd 2d50 d53b 4267 a8bb
00000330: 1646 743d a37c 693e cce6 553d 36af 97bd
00000340: 5f43 5d3d d0cf d63e 2fe6 ba3c 2772 953d
00000350: e181 5dbf 8cd5 6d3e 2f55 91bd 4120 f03d
00000360: aef2 cebe 583a 06be 92ba f03d 2445 67bd
00000370: 0d5e ae3e 8c6d a93e d98a b03e ebcc 0a3d
00000380: a3c0 83be 3701 e03e 10c0 1abe 06c2 9d3d
00000390: 3dc5 9bbd 1263 85bd 3eed 96bd 419a fd3b
000003a0: 19a0 583d f78a c0bb 9d8b 1a3e d97c 00bd
000003b0: 1ce3 9a3d f9a8 aebe 3089 413e cbb6 db3d
000003c0: 49bd 01be 1d07 49be f3ab ae3d 0ffd b33e
000003d0: 760e dc3b 64ac 963d 8e43 c5bd f634 a43b
000003e0: 2971 4c3d c04b 70bd 0f63 f9bd a6fe d4bd
000003f0: b49c 2c3e 12eb 7bbd e14d e63d 456d 2bbe

linears.1.0.bias f4 [64]
-0.35985216 -0.23974909 0.6351206 -0.13739686 -0.27549574 -0.15763713 -0.75640285 -0.014565133
-0.07742272 -0.2330576 0.13498944 0.07163192 -0.13849558 0.17509642 -0.07712913 -0.08508446
-0.19733833 0.0068155434 -0.08374085 -0.20668155 0.04627256 -0.6032446 -0.05590824 -0.008162183
-0.15433738 0.006351327 -0.4397903 -0.13476077 -0.37514937 -0.11616712 -0.66834265 -0.83975977
-0.9448728 0.055158626 -3.1769204 -0.24367332 -0.4410112 -0.05778513 -0.39174452 -0.3173402
-0.8849582 -0.55329764 -0.04110033 0.42327937 -0.08256241 -0.06559253 -0.057757605 0.093984395
-0.019150952 -0.39275157 0.051320314 -0.6449278 -0.17854898 -0.09454365 -0.12319417 -0.40296817
-0.21681125 -0.28178298 -0.120391116 -0.680825 -0.010293222 -1.0625707 -0.35899368 -0.5063307
00000000: 8b3e b8be c980 75be 4397 223f c3b1 0cbe
00000010: c70d 8dbe a16b 21be 9ea3 41bf 98a2 6ebc
00000020: ce8f 9ebd a7a6 6ebe ac3a 0a3e c2b3 923d
00000030: c9d1 0dbe 7a4c 333e e1f5 9dbd c340 aebd
00000040: 0f13 4abe ec54 df3b 5380 abbd 54a4 53be
00000050: 4c88 3d3d 3d6e 1abf 0a00 65bd adba 05bc
00000060: 9e0a 1ebe cb1e d03b 322c e1be bafe 09be
00000070: 9413 c0be 07e9 edbd 8118 2bbf 7ffa 56bf
00000080: 2fe3 71bf 03ee 613d aa52 4bc0 8085 79be
00000090: 38cc e1be 1ab0 6cbd bd92 c8be 6a7a a2be
000000a0: 9f8c 62bf eaa4 0dbf d258 28bd 13b8 d83e
000000b0: 7b16 a9bd 6055 86bd 3d93 6cbd e47a c03d
000000c0: 75e2 9cbc bc16 c9be 4035 523d fd19 25bf
000000d0: 8bd5 36be 1aa0 c1bd 3a4d fcbd d851 cebe
000000e0: c503 5ebe dc45 90be 9e8f f6bd 8c4a 2ebf
000000f0: e7a4 28bc 5102 88bf 05ce b7be e49e 01bf

linears.1.3.weight f4 [16, 64]
0.27884465 -0.12721919 0.27874145 0.19889966 -0.06985626 -0.21699984 0.16866963 0.22037867
0.06957604 -0.09722737 0.23318411 0.21320395 0.056218706 0.19289552 -0.07321879 0.09784615
0.088056386 -0.11175021 -0.21109214 -0.11813036 -0.05151891 0.38366523 0.0010438102 0.1914305
0.27370965 0.104845695 -0.0498538 0.2090964 -0.14625008 0.08954612 0.3609512 -0.23594825
0.07071004 0.099811606 -0.75808054 0.056845475 0.20731972 0.048194166 -0.062483396 -0.06852574
0.6635425 -0.0042966916 0.3878356 0.3049348 0.2222328 -0.04560097 0.06864716 0.14932863
0.10087113 0.107916415 0.1718535 0.24422276 0.19130641 -0.13704582 0.02812132 -0.21565492
-0.25454634 0.29305467 0.089269534 0.4020222 -0.16604881 0.7163982 0.20128383 -0.29945874
0.114634834 0.012762293 -0.6530944 -0.22382586 0.120766915 -0.03253395 -0.14428422 0.15732223
0.04121808 -0.3896152 -0.0824106 -0.13057461 0.1958703 -0.39806044 -0.033962473 -0.11488592
-0.11369005 -0.38309327 0.2976224 -0.056133777 -0.28840318 -0.42930126 -0.003688932 0.025540117
-0.12184617 -0.02229943 0.08612591 -0.39234382 -0.26806182 -0.25092772 -0.4406022 0.3323809
0.2789896 -0.27645177 0.7075245 -0.2666671 0.049234655 -0.028121578 -0.31534696 -0.06819817
-0.7558745 0.0947888 0.26878235 -0.24751428 0.17922565 0.12539361 -0.15671237 0.07373305
-0.15677366 0.085983574 -0.2154205 -0.19172099 -0.2896544 0.36026525 0.25599894 0.013214185
-0.056416538 0.009739393 -0.15354818 0.3632611 -0.26760906 -0.5690972 -0.4169015 -0.2709035
-0.28720945 0.114779614 -0.19632846 0.065195516 -0.014825112 -0.17580272 -0.5322435 -0.19950373
0.065070935 0.42462853 0.44955254 0.092449926 -0.36492804 -0.27397358 -0.10117674 0.13099015
-0.12559627 0.00034627554 -0.20811881 -0.041307066 0.039441355 -0.30488002 -0.004086876 -0.3381361
-0.071508236 -0.01893249 -0.45247468 0.4017343 -0.45203614 0.006772579 -0.20971435 -0.34721798
-0.8643054 0.13637853 1.0543143 0.30213556 0.06793372 0.18594655 -0.118360385 -0.12920676
-0.6894897 0.25754866 -0.41915837 0.41428706 0.2340591 -0.009830288 0.06901378 0.52707994
0.15661506 -0.014757143 0.22395878 -0.617249 0.103128225 -0.18543844 -0.2639029 -0.26478308
-0.12535715 -0.22010387 0.21300663 -0.027668374 -0.057783414 -0.79485124 -0.16490895 -0.05981894
0.21245736 0.17925617 0.6017738 0.31341228 -0.1542967 -0.06714926 0.6859624 -0.20562312
-0.076600626 0.37791875 -0.0195582 0.12302278 0.0008448654 0.30280697 0.0102910055 0.0039908057
0.25509745 0.12786424 -0.16146402 0.08631361 0.11124637 0.5756627 0.05955039 0.21391681
0.40832 0.08926444 0.16211262 0.28903466 0.08313506 0.09420597 0.5602261 -0.40214247
0.3029088 0.17593895 -0.78933316 0.24484976 -0.106768526 0.16253641 0.3752118 0.17015752
1.0846395 -0.11574246 -0.021469582 0.32575032 -0.07628403 0.21661441 0.18124402 -0.049507804
0.116559036 0.0169518 0.31832018 0.29309756 0.38807032 -0.16723171 -0.025020562 -0.04939766
-0.02053451 0.17489842 0.18840829 -0.13011435 0.18073173 0.9475228 0.5768095 0.017619018
00000000: bac4 8e3e bf45 02be 33b7 8e3e 5aac 4b3e
00000010: cd10 8fbd 3535 5ebe bbb7 2c3e f2aa 613e
00000020: e27d 8e3d 251f c7bd d1c7 6e3e 2352 5a3e
00000030: 9645 663d 6786 453e bcf3 95bd 9063 c83d
00000040: e856 b43d 4bdd e4bd 8a28 58be 55ee f1bd
00000050: 7e05 53bd c56f c43e 75d0 883a 5b06 443e
00000060: ac23 8c3e 57b9 d63d 8033 4cbd 5e1d 563e
00000070: 95c2 15be f563 b73d 98ce b83e 6b9c 71be
00000080: 6dd0 903d 076a cc3d 9111 42bf cdd6 683d
00000090: 9f4b 543e 3f67 453d 97ee 7fbd 3957 8cbd
000000a0: ecdd 293f 43cb 8cbb 6392 c63e 6a20 9c3e
000000b0: ff90 633e 15c8 3abd e296 8c3d 9be9 183e
000000c0: 8695 ce3d 4803 dd3d 5dfa 2f3e 8815 7a3e
000000d0: d4e5 433e bd55 0cbe af5e e63c a5d4 5cbe
000000e0: e653 82be 430b 963e f2d2 b63d dbd5 cd3e
000000f0: b308 2abe df65 373f 591d 4e3e a852 99be
00000100: abc5 ea3d f018 513c 3231 27bf 9b32 65be
00000110: a554 f73d 5242 05bd 3ebf 13be 1419 213e
00000120: 4ad4 283d a57b c7be e3c6 a8bd 5ab5 05be
00000130: 3992 483e 94ce cbbe 3c1c 0bbd 4f49 ebbd
00000140: 54d6 e8bd cd24 c4be f761 983e 88ec 65bd
00000150: 95a9 93be 60cd dbbe 02c2 71bb 8239 d13c
00000160: 7c8a f9bd 4bad b6bc c862 b03d 4ae1 c8be
00000170: 663f 89be 9979 80be 9d96 e1be d42d aa3e
00000180: bad7 8e3e 168b 8dbe 5320 353f 9788 88be
00000190: 47aa 493d 395f e6bc 2875 a1be 7bab 8bbd
000001a0: fe80 41bf a120 c23d d79d 893e 6274 7dbe
000001b0: ee86 373e 2f67 003e 3579 20be 5a01 973d
000001c0: 4689 20be 2818 b03d 3197 5cbe 8252 44be
000001d0: 954d 94be b074 b83e 4b12 833e 4f80 583c
000001e0: 0715 67bd fa91 1f3c bc3b 1dbe 5cfd b93e
000001f0: 0e04 89be 5bb0 11bf 1d74 d5be ddb3 8abe
00000200: 1e0d 93be 9311 eb3d 540a 49be 3a85 853d
00000210: 07e5 72bc a105 34be 1c41 08bf b54a 4cbe
00000220: e943 853d e968 d93e c02b e63e 6356 bd3d
00000230: d9d7 babe 4446 8cbe c035 cfbd 4822 063e
00000240: 4f9c 00be 518c b539 191d 55be 9931 29bd
00000250: 428d 213d 3c19 9cbe 33eb 85bb 2d20 adbe
00000260: e972 92bd 4f18 9bbc c3aa e7be 1eb0 cd3e
00000270: 4871 e7be 83ec dd3b 5cbf 56be 8ec6 b1be
00000280: 1e43 5dbf d0a6 0b3e c5f3 863f 83b1 9a3e
00000290: d620 8b3d c668 3e3e ee66 f2bd c74e 04be
000002a0: 6682 30bf 6bdd 833e ed9b d6be 6f1d d43e
000002b0: 30ad 6f3e 370f 21bc 1957 8d3d b6ee 063f
000002c0: b35f 203e f2c7 71bc 7355 653e 0804 1ebf
000002d0: e434 d33d 93e3 3dbe 481e 87be a691 87be
000002e0: a05d 00be e962 61be 691e 5a3e c9a8 e2bc
000002f0: 4dae 6cbd 5f7b 4bbf e4dd 28be b404 75bd
00000300: 6c8e 593e ee8e 373e d90d 1a3f 9377 a03e
00000310: f4ff 1dbe 8d85 89bd 3b9b 2f3f de8e 52be
00000320: cae0 9cbd 917e c13e 8538 a0bc 5ef3 fb3d
00000330: f579 5d3a 8409 9b3e 9b9b 283c 4ec5 823b
00000340: 229c 823e d8ee 023e d356 25be 31c5 b03d
00000350: 23d5 e33d a15e 133f 1ceb 733d 020d 5b3e
00000360: 520f d13e 46d0 b63d da00 263e 5afc 933e
00000370: b742 aa3d 0fef c03d fa6a 0f3f 9ee5 cdbe
00000380: dd16 9b3e 5729 343e bd11 4abf e5b9 7a3e
00000390: 75a9 dabd f26f 263e c31b c03e c63d 2e3e
000003a0: 78d5 8a3f 620a edbd fae0 afbc bfc8 a63e
000003b0: cd3a 9cbd 2bd0 5d3e 0898 393e b2c8 4abd
000003c0: 81b6 ee3d 80de 8a3c ddfa a23e e210 963e
000003d0: 27b1 c63e ca3e 2bbe ecf7 ccbc 3355 4abd
000003e0: fd37 a8bc 9218 333e 1aee 403e b23c 05be
000003f0: bd11 393e db90 723f caa9 133f c255 903c

linears.1.3.bias f4 [16]
0.056564964 -0.34794062 -0.17522772 0.29160932 0.049606018 -0.39761305 -0.095625095 0.42047858
-0.090303056 0.39917034 0.17340213 0.4188085 -0.36315885 -0.28554988 -0.17689285 0.4446583
00000000: aab0 673d 4625 b2be e56e 33be d14d 953e
00000010: ae2f 4b3d f093 cbbe 17d7 c3bd f848 d73e
00000020: cff0 b8bd 0e60 cc3e 5490 313e 116e d63e
00000030: f5ef b9be 9833 92be 6623 35be 41aa e33e

linears.2.0.weight f4 [64, 22]
-0.040657226 -0.32019436 0.42003423 -0.18321098 0.20436126 -0.47038648 0.0025451255 0.093237884
0.050774124 0.12551682 -0.071663596 0.13573097 0.019204384 0.03311274 0.08132588 -0.21398355
-0.16774817 -0.16247006 0.13986175 -0.029074477 0.098652445 -0.102635 0.31964657 0.7083621
0.7334643 -0.22340381 -0.059129704 -0.16259567 -0.21832879 0.023121754 -0.04400308 -0.2104353
0.15575317 0.38251853 0.3892766 -0.17477864 0.098280594 0.0058990633 0.08750516 -0.3084653
-0.14324804 -0.060498692 -0.25695178 -0.10090347 -0.07555537 0.026142715 0.25977638 -0.12445884
0.19943812 0.26104018 -0.10708518 0.09435807 -0.02827216 0.037435126 -0.018011289 0.108332165
0.026737884 -0.11415851 -0.11972963 0.009325717 -0.020996638 0.1361022 0.14988713 0.21739449
-0.04021564 -0.2177019 0.25903752 -0.25910333 -0.37812993 0.59136933 -0.042432077 0.0142113045
0.20235032 -0.25037247 0.11786023 -0.037313975 0.16514418 -0.045200415 -0.19507073 -0.11803674
0.01902434 -0.3444846 0.14297965 -0.25944176 0.04417386 -0.13718246 -0.2546968 0.4834009
0.18406345 0.016513765 0.37111637 0.24018016 0.024228167 0.2558035 0.06803772 -0.010959022
-0.08746934 -0.00798216 0.20121692 0.030439915 -0.022660565 0.17623368 0.020029347 -0.08729885
0.14180501 0.03920787 -0.17865677 -0.029532544 0.07702811 0.22418879 -0.1059005 0.12983827
-0.13584462 -0.08870772 0.034303084 0.023874773 -0.13841055 0.06285498 0.0438533 -0.21070811
-0.06774817 -0.34728605 0.0197857 0.12464342 -0.04098474 0.024330765 -0.12416543 -0.038913857
-0.10845423 0.24542867 -0.02030406 -0.0024613934 -0.04560654 -0.25572878 -0.3715979 -0.37230155
-0.20046046 -0.60253906 0.030935094 -0.027121086 0.15515672 -0.043663323 0.05335674 -0.021549307
-1.7611048e-05 -0.008598993 -0.045262378 0.16305348 0.07128288 0.06313883 0.077641636 0.024882894
0.13095133 0.12564798 0.22361429 -0.16956702 0.42280295 0.4357257 -0.20753905 -0.010728064
0.013484728 -0.018117648 -0.099295534 0.10000962 -0.11799997 0.8212725 -0.0012873325 0.12079421
-0.15500888 0.36170155 0.052289844 0.061113935 0.041917834 -0.08771636 0.05483232 0.767053
0.1298002 0.18976615 -0.22203536 0.05823327 0.113584094 0.04303763 -0.020999603 0.11416643
-0.1496602 0.076310664 -0.108666256 0.104687735 -0.10511045 0.17951725 0.0869915 0.11870434
0.004709887 -0.02782099 0.1198863 0.23874392 -0.06823465 0.10784772 0.100228705 -0.027600624
0.052006543 0.15114263 -0.086064205 -0.092652336 -0.030795822 0.045910966 -0.07047609 -0.21587361
0.012188316 -0.008475759 0.074768454 -0.15299381 -0.05678362 0.097219005 0.055748194 0.14292166
-0.06032793 0.109151594 -0.09276022 0.023310676 0.12654729 0.04821125 -0.094693765 -0.13357264
0.020333847 -1.1252815 0.01957196 -0.020337375 0.10112895 -0.026135461 0.012278468 0.11421687
0.10814924 0.10913134 0.027597029 0.1886293 -0.13142565 0.01687665 -0.22766465 0.1413931
0.002887715 -0.13499942 -0.045342088 0.22894242 -0.11130493 0.09656897 -0.015254236 -0.07708342
-0.17180933 0.15140945 0.097881086 -0.19773857 -0.14902602 -0.13025524 0.22990741 -0.15286471
00000000: 3188 26bd 84f0 a3be ba0e d73e a99b 3bbe
00000010: 1444 513e 7fd6 f0be 1fcc 263b 81f3 be3d
00000020: 87f8 4f3d 7b87 003e 5dc4 92bd 0ffd 0a3e
00000030: 8352 9d3c 39a1 073d 2f8e a63d 811e 5bbe
00000040: 2dc6 2bbe 8d5e 26be eb37 0f3e 992d eebc
00000050: 4b0a ca3d 4d32 d2bd b7a8 a33e 3857 353f
00000060: 51c4 3b3f f8c3 64be fd31 72bd 7b7f 26be
00000070: 9591 5fbe d569 bd3c 933c 34bd 5a7c 57be
00000080: c27d 1f3e 78d9 c33e 434f c73e 2cf9 32be
00000090: 5647 c93d ee4c c13b e835 b33d 2aef 9dbe
000000a0: 9daf 12be 7acd 77bd 2f8f 83be 7aa6 cebd
000000b0: c6bc 9abd 3f29 d63c 6901 853e 47e4 febd
000000c0: 8239 4c3e 0fa7 853e 7a4f dbbd ce3e c13d
000000d0: 049b e7bc 9355 193d 698c 93bc 41dd dd3d
000000e0: 6809 db3c f0cb e9bd cf34 f5bd e4ca 183c
000000f0: 2401 acbc 605e 0b3e 037c 193e a99c 5e3e
00000100: 28b9 24bd 3fed 5ebe 91a0 843e 31a9 84be
00000110: 3f9a c1be fb63 173f 42cd 2dbd 88d6 683c
00000120: ec34 4f3e d230 80be b460 f13d 8ad6 18bd
00000130: 8e1b 293e 1224 39bd 9fc0 47be 3fbd f1bd
00000140: efd8 9b3c 4960 b0be 4269 123e 8dd5 84be
00000150: a6ef 343d 8f79 0cbe 9e67 82be 5380 f73e
00000160: 217b 3c3e e047 873c f702 be3e caf1 753e
00000170: 267a c63c adf8 823e 5c57 8b3d 788d 33bc
00000180: 2023 b3bd 9bc7 02bc cf0b 4e3e 215d f93c
00000190: a6a2 b9bc 9a76 343e 9614 a43c bdc9 b2bd
000001a0: 5535 113e 6e98 203d cdf1 36be 3cee f1bc
000001b0: eac0 9d3d bf91 653e 5de2 d8bd 53f4 043e
000001c0: da1a 0bbe 65ac b5bd 6481 0c3d 0795 c33c
000001d0: 7fbb 0dbe 1dba 803d 859f 333d dec3 57be
000001e0: 8dbf 8abd 7acf b1be 9f15 a23c 0d45 ff3d
000001f0: 9ddf 27bd 5051 c73c 724a febd 2364 1fbd
00000200: 401d debd a751 7b3e b354 a6bc 544f 21bb
00000210: eccd 3abd e2ee 82be 1442 bebe 4f9e bebe
00000220: 8245 4dbe 0040 1abf 986b fd3c 0a2d debc
00000230: 67e1 1e3e 50d8 32bd 998c 5a3d 2c88 b0bc
00000240: 70bb 93b7 cae2 0cbc 0b65 39bd 7ef7 263e
00000250: c2fc 913d ee4e 813d 9402 9f3d 36d7 cb3c
00000260: 1b18 063e dda9 003e 25fb 643e faa2 2dbe
00000270: a179 d83e 7017 df3e 1e85 54be c3c4 2fbc
00000280: 0cef 5c3c 766b 94bc 755b cbbd d8d1 cc3d
00000290: f8a9 f1bd ea3e 523f b6bb a8ba f462 f73d
000002a0: a6ba 1ebe f230 b93e e02d 563d 9b52 7a3d
000002b0: 09b2 2b3d a3a4 b3bd db97 603d 965d 443f
000002c0: 58ea 043e 0f52 423e 3d5d 63be 0286 6e3d
000002d0: c79e e83d 3a48 303d 5c07 acbc 17d0 e93d
000002e0: 8640 19be c448 9c3d 6a8c debd 8666 d63d
000002f0: 2644 d7bd 5fd3 373e 9928 b23d 431b f33d
00000300: 6555 9a3b d8e8 e3bc f386 f53d 4979 743e
00000310: 9cbe 8bbd 44df dc3d b544 cd3d b41a e2bc
00000320: d004 553d 22c5 1a3e 6e42 b0bd 82c0 bdbd
00000330: 8547 fcbc 230d 3c3d c555 90bd f90d 5dbe
00000340: 81b1 473c e9dd 0abc 3420 993d 69aa 1cbe
00000350: f195 68bd c21a c73d 3858 643d 0e5a 123e
00000360: 6b1a 77bd df8a df3d 12f9 bdbd 08f6 be3c
00000370: 9d95 013e 2979 453d ceee c1bd 44c7 08be
00000380: 2b93 a63c 3909 90bf 6055 a03c 919a a6bc
00000390: b21c cf3d 091a d6bc a12b 493c 89ea e93d
000003a0: 597d dd3d 4180 df3d 2a13 e23c 0a28 413e
000003b0: 7294 06be e640 8a3c ec20 69be 5ac9 103e
000003c0: d13f 3d3b 4a3d 0abe a0b8 39bd e26f 6a3e
000003d0: d7f3 e3bd f4c5 c53d e7ec 79bc e9dd 9dbd
000003e0: c9ee 2fbe 140b 1b3e e175 c83d fb7b 4abe
000003f0: 479a 18be a161 05be d96c 6b3e 9188 1cbe

linears.2.0.bias f4 [64]
-0.13288064 -0.10625747 -0.27426064 -0.5865279 -0.31362993 -0.31323722 -0.26483354 0.021239009
-0.048109747 0.049877875 -0.39670596 -0.22590612 0.40436423 -0.009106328 -0.026915578 -0.033616655
-0.0034230123 -0.3607185 -0.15992667 -0.21083629 -0.166039 0.11707188 -0.09910839 -0.09108974
-0.1976902 0.09639332 -0.20184363 -0.49941808 0.009113149 -0.31588036 0.077675276 -0.08902347
-0.07364464 -0.09002318 -0.12903675 0.043804955 -0.45333 0.6430999 0.20186552 -0.17093775
0.60747445 0.1350019 -0.09157253 0.098613314 -0.44245246 -0.6741382 -0.29160157 -0.39296183
0.20075384 -0.4247985 -0.024727784 -0.11146968 -0.54186666 0.28573415 -0.1693098 -0.26209018
-1.1058787 -0.3318134 -0.0141625265 -0.18689127 0.24952139 0.5376239 -0.19473514 -0.06468619
00000000: dd11 08be 849d d9bd e46b 8cbe b126 16bf
00000010: 1a94 a0be a160 a0be 4398 87be 6efd ad3c
00000020: ba0e 45bd be4c 4c3d 0b1d cbbe ef53 67be
00000030: d408 cf3e b532 15bc 0f7e dcbc 9eb1 09bd
00000040: 9e54 60bb 18b0 b8be d1c3 23be 78e5 57be
00000050: 2106 2abe 62c3 ef3d 57f9 cabd 428d babd
00000060: 4d6f 4abe dc69 c53d 19b0 4ebe bab3 ffbe
00000070: 514f 153c 12bb a1be 3714 9f3d f051 b6bd
00000080: 00d3 96bd 135e b8bd 3622 04be d36c 333d
00000090: df1a e8be 32a2 243f d6b5 4e3e 4e0a 2fbe
000000a0: 7283 1b3f f03d 0a3e 618a bbbd c7f5 c93d
000000b0: 2189 e2be 5294 2cbf cd4c 95be 4b32 c9be
000000c0: 6a92 4d3e 307f d9be ec91 cabc 374a e4bd
000000d0: c6b7 0abf bf4b 923e 8c5f 2dbe af30 86be
000000e0: 6f8d 8dbf 72e3 a9be f109 68bc 6d60 3fbe
000000f0: 8982 7f3e b8a1 093f a668 47be 317a 84bd

linears.2.3.weight f4 [16, 64]
-0.023934072 -0.48006523 0.1441681 -0.39872256 0.2195917 0.20543687 0.03369878 -0.29549098
0.07253065 -0.11973015 0.30178365 -0.19832 0.1842317 0.039157093 -0.31034338 0.29210117
-0.1555041 0.27636036 0.1687073 0.101453215 -0.17345828 -0.13211 -0.34243816 -0.10242227
0.014299722 0.00030626645 0.19440292 0.24155727 0.04533102 -0.13963163 -0.088662826 -0.059710503
0.1442044 -0.15507413 -0.35003456 0.0274352 0.27898386 0.13194212 -0.24003322 -0.094889484
0.12108716 -0.12318617 -0.14894268 -0.081644684 0.28547958 -0.24302512 0.2368145 -0.31830016
-0.13252866 0.018317854 0.020302016 -0.01844625 0.513801 -0.22041565 0.24252875 -0.030984508
-0.22374327 -0.039202616 0.03321935 0.021489024 -0.21062478 0.02732512 -0.082454 -0.19566834
0.031785797 0.16763392 0.07438859 0.3204876 -0.10471694 0.09649251 0.02929715 0.23291871
-0.026470197 -0.051852334 0.06898023 -0.01578933 0.09621215 0.16727617 -0.19745077 0.087583154
-0.16308607 -0.083905324 0.05524024 -0.050790757 0.023517633 0.088944264 0.0930165 0.11807452
0.051651042 0.0828483 0.315658 0.11562775 0.022901963 -0.12977174 -0.13462593 0.030966617
-0.09293024 -0.13597944 0.112247065 -0.2611785 0.19135812 -0.020679472 -0.11162843 -0.10057318
-0.032917365 0.0511395 -0.050680112 -0.064743444 0.07463887 0.4117423 -0.055573396 -0.17364268
-0.043916408 0.1056514 -0.113856 -0.11389168 -0.09517411 -0.084959485 -0.10448426 -0.020683555
0.15585135 0.15966219 0.1900836 -0.01567151 -0.2598863 -0.090057 0.028751887 0.022107705
-0.082076535 0.04108113 0.12749214 -0.16991404 0.028720995 -0.22412442 0.31330264 -0.26441827
-0.14543694 0.023409113 0.2655574 0.11988149 0.6829154 -0.18800351 0.6725776 -0.08622707
0.16049144 0.2866034 0.12143296 -0.075564064 0.41089538 0.20996492 0.052442387 0.14761499
-0.058419403 0.12495518 -0.42961344 -0.32736742 0.44957682 0.015307095 0.108587876 0.056356233
0.16799334 0.32178676 0.43507808 0.37991995 -0.31858265 0.6610433 0.734743 0.2301152
0.82867444 0.43866277 0.13967915 0.32147858 0.4920571 -0.4498635 -0.034831032 0.14351656
0.5639883 -0.35474426 0.035573676 -0.027904442 -0.22686735 0.18275014 -0.103654385 -0.06652852
0.4083186 -0.26050735 0.02486288 0.037188478 0.41627243 0.4585724 -0.04562737 0.01637483
0.07806291 -0.24694443 0.15545735 -0.18526395 0.2144631 0.032062832 0.16022792 -0.280729
0.18143195 -0.08083757 0.4596772 0.072212085 0.02629866 0.13632025 0.049743235 0.2092263
0.046241645 0.37086216 0.31410572 0.3135676 0.009970762 -0.0107426755 -0.024911068 0.03170643
0.0045796684 0.0098199025 0.15345226 0.049405158 0.0033231236 0.21828678 0.017317258 -0.11993765
0.18519486 0.05091294 -0.22656645 0.0797133 0.076284796 0.17132433 0.1530475 0.052824147
0.38089165 -0.042848878 0.116376564 0.07109918 0.22440498 -0.22592664 0.08174227 -0.20196779
0.07408752 -0.01049477 0.13550459 0.17982702 0.45393205 -0.107442684 0.085364364 0.29088444
0.010629461 0.0010823564 0.10683899 0.0720355 0.0748914 0.2985672 -0.04890155 0.03130965
00000000: 6311 c4bc 1ccb f5be cda0 133e 5d25 ccbe
00000010: a6dc 603e 0b5e 523e bb07 0a3d 984a 97be
00000020: f38a 943d 1535 f5bd 6383 9a3e 6614 4bbe
00000030: 3ca7 3c3e 3063 203d 54e5 9ebe 498e 953e
00000040: 773c 1fbe 1b7f 8d3e 9bc1 2c3e b4c6 cf3d
00000050: 0c9f 31be d847 07be 0e54 afbe c4c2 d1bd
00000060: 6249 6a3c 6392 a039 8f11 473e ca5a 773e
00000070: 05ad 393d 98fb 0ebe db94 b5bd 0093 74bd
00000080: 51aa 133e c1cb 1ebe bb37 b3be c9bf e03c
00000090: f9d6 8e3e d61b 073e 45cb 75be 6b55 c2bd
000000a0: 8cfc f73d 0849 fcbd 6e84 18be 5435 a7bd
000000b0: 612a 923e 94db 78be 807f 723e 3df8 a2be
000000c0: 98b5 07be 530f 963c 6a50 a63c 971c 97bc
000000d0: 7688 033f a4b4 61be 7559 783e 39d3 fdbc
000000e0: f51c 65be ec92 20bd 0311 083d c009 b03c
000000f0: 06ae 57be eed8 df3c a5dd a8bd 485d 48be
00000100: d331 023d 3aa8 2b3e 0c59 983d f316 a43e
00000110: d675 d6bd dd9d c53d 9400 f03c 3e82 6e3e
00000120: 07d8 d8bc 1d63 54bd 8245 8d3d a058 81bc
00000130: e00a c53d 724a 2b3e 8930 4abe cc5e b33d
00000140: 0900 27be 8ed6 abbd 9743 623d f809 50bd
00000150: 0da8 c03c 6928 b63d 6f7f be3d 0ed1 f13d
00000160: 0b90 533d 5fac a93d ed9d a13e 3ece ec3d
00000170: e69c bb3c e2e2 04be 61db 09be b4ad fd3c
00000180: 3652 bebd 323e 0bbe cae1 e53d 30b9 85be
00000190: 62f3 433e ff67 a9bc 729d e4bd 50f9 cdbd
000001a0: 5cd4 06bd a777 513d f395 4fbd 3698 84bd
000001b0: 44dc 983d e3cf d23e eea0 63bd 63cf 31be
000001c0: b1e1 33bd c35f d83d 562d e9bd 0b40 e9bd
000001d0: a5ea c2bd 3dff adbd d8fb d5bd 8f70 a9bc
000001e0: 7f97 1f3e 7c7e 233e 46a5 423e 8a61 80bc
000001f0: d10f 85be ce6f b8bd 1489 eb3c 381b b53c
00000200: be17 a8bd b044 283d 4d8d 023e f2fd 2dbe
00000210: 4b48 eb3c df80 65be 3469 a03e d561 87be
00000220: 6ced 14be 78c4 bf3c 24f7 873e 6d84 f53d
00000230: 8bd3 2e3f fe83 40be 0c2e 2c3f d197 b0bd
00000240: de57 243e aebd 923e d8b1 f83d 55c1 9abd
00000250: e160 d23e 0b01 573e d4cd 563d 6228 173e
00000260: 2f49 6fbd 80e8 ff3d 4bf6 dbbe b49c a7be
00000270: ef2e e63e 9cca 7a3c 5263 de3d cbd5 663d
00000280: 7206 2c3e 3cc1 a43e 8ec2 de3e de84 c23e
00000290: 441d a3be 223a 293f 1e18 3c3f 52a3 6b3e
000002a0: 0224 543f 6898 e03e 0d08 0f3e d798 a43e
000002b0: e9ee fb3e 8254 e6be fcaa 0ebd 01f6 123e
000002c0: 8a61 103f 0aa1 b5be b4b5 113d db97 e4bc
000002d0: ea4f 68be da22 3b3e c048 d4bd 1b40 88bd
000002e0: 230f d13e 3861 85be 3dad cb3c f252 183d
000002f0: a921 d53e 00ca ea3e c4e3 3abd 8224 863c
00000300: 72df 9f3d 00df 7cbe 3630 1f3e d5b5 3dbe
00000310: 379c 5b3e 5154 033d ca12 243e b6bb 8fbe
00000320: 4cc9 393e 2b8e a5bd cf5a eb3e eee3 933d
00000330: 4a70 d73c 8997 0b3e 90bf 4b3d 6b3f 563e
00000340: e167 3d3d a5e1 bd3e 77d2 a03e ef8b a03e
00000350: 685c 233c 0c02 30bc 4c12 ccbc 9ade 013d
00000360: 0b11 963b a8e3 203c 9722 1d3e 105d 4a3d
00000370: c3c8 593b 9286 5f3e ecdc 8d3c dfa1 f5bd
00000380: b9a3 3d3e 168a 503d 0901 68be ba40 a33d
00000390: 343b 9c3d a56f 2f3e 7cb8 1c3e 225e 583d
000003a0: 3b04 c33e 4e82 2fbd d656 ee3d 729c 913d
000003b0: 6bca 653e 5059 67be 7e68 a73d a5d0 4ebe
000003c0: 33bb 973d 41f2 2bbc b7c1 0a3e 9324 383e
000003d0: c869 e83e e90a dcbd 83d3 ae3d ceee 943e
000003e0: 3127 2e3c dbdd 8d3a 66ce da3d 5987 933d
000003f0: aa60 993d cddd 983e fe4c 48bd 8c3e 003d

linears.2.3.bias f4 [16]
-0.3272548 -0.067341544 0.3963437 -0.08689495 0.41773984 -0.32026115 -0.020667566 -0.5698911
-0.017979912 -0.09907635 -0.23111266 -0.20629354 0.16603194 -0.3301336 0.052172095 -0.2061373
00000000: f18d a7be 5dea 89bd 90ed ca3e fbf5 b1bd
00000010: ffe1 d53e 45f9 a3be 074f a9bc 62e4 11bf
00000020: 9c4a 93bc 8be8 cabd cca8 6cbe 9d3e 53be
00000030: 4704 2a3e 4507 a9be 68b2 553d a815 53be

linears.3.0.weight f4 [64, 22]
0.11606008 -0.029856069 -0.15844229 -0.15473841 0.14385317 0.46006772 0.17403929 -0.20510541
0.12313619 0.09547498 -0.013790632 -0.0941835 0.28728053 0.03310969 -0.2683024 -0.056233644
-0.097009294 0.04061952 -0.17859732 0.1497666 -0.024127025 -0.161476 -0.022295069 0.30218047
-0.12055325 0.1302615 0.20850325 -0.25785366 0.15920609 0.18163455 0.0431795 0.046517212
-0.14390273 0.07828075 -0.05798164 0.052288964 0.18484136 -0.2586813 0.10389147 0.038736243
-0.19889201 0.12517849 0.08762871 0.15480588 -0.15087488 -0.35373098 -0.04691229 -0.095270835
0.19216348 1.0055333 0.091738224 0.06555004 0.010482161 -0.06571711 -0.15478693 -0.03181357
0.045783926 0.057296216 0.14356162 -0.05514877 0.3068899 -0.006603784 -0.08426914 0.18535161
0.055360988 -0.04052333 -0.027679408 0.036667604 -0.118666485 0.13605607 -0.118780896 -0.09602948
-0.20175992 0.0957012 -0.15191163 0.108507335 -0.04648116 -0.13047095 -0.13610137 -0.16316105
-0.48488027 0.30476022 0.21477523 0.07506221 -0.26606923 0.10907754 -0.18367639 -0.1422926
0.09773005 0.3186156 -0.48622733 0.11294272 0.06492187 -0.14900234 -0.12941672 0.08539189
0.25684747 -0.011989853 -0.1933838 -0.7563607 -0.03725679 -0.20715083 0.38070747 -0.12605369
0.13680813 -0.294217 0.14681673 0.07577991 0.23339741 -0.092938274 -0.21445844 0.024891349
0.022975463 0.009228505 -0.12095016 -0.045902062 -0.07481377 0.07717674 -0.060893025 0.05531038
-0.06382422 -0.2171122 0.12547976 -0.14378802 0.19276598 -0.17084488 -0.2029896 -0.08791347
0.25897586 -0.20422538 -0.18514611 0.23452872 -0.0013804006 -0.23177399 0.015018808 -0.13368475
-0.11175246 0.23562388 -0.14767152 0.16925009 0.14754921 0.11952659 0.19354883 -0.10650849
-0.2658007 0.004917339 0.28287604 0.0793833 -0.08111339 0.13356319 0.11892401 -0.18702823
0.11328112 -0.15874116 -0.33432353 0.02482603 0.54234207 -0.04335817 0.15204349 0.027178613
0.10282574 0.1615799 -0.037153024 0.032955367 0.16342732 -0.0423973 -0.035672355 0.03217662
0.08603257 -0.124164365 -0.029046973 0.090513006 0.58591783 0.16227992 0.20916477 -0.16453025
0.11264009 0.09465287 0.3055253 -0.015087728 -0.039426245 0.4009941 -0.067308635 -0.04478277
0.12842995 0.11306371 0.025636898 0.062434826 -0.13940528 -0.11467729 -0.115058884 -0.08972854
-0.063193545 0.21863735 -0.06643166 -0.046714135 -0.07930516 -0.23132408 -0.32478675 -0.20882027
-0.22779837 0.22584769 -0.24636753 0.20402695 0.2038006 0.11632683 -0.009818468 0.0003200863
0.1933778 0.099177256 -0.3772917 -0.1136383 0.3373515 -0.28523496 -0.16745006 0.08527433
0.07216435 -0.001132598 0.067159176 0.3129893 0.024573535 -0.0049301684 -0.01615661 -0.0037364895
0.104421966 -0.60240865 0.15762262 0.06382864 0.10628411 0.011557091 0.0040659187 -0.016017364
0.14330341 -0.11955659 0.3207173 -0.030494032 -0.02141566 0.3046861 -0.04751488 0.013313676
0.09035384 -0.11673546 0.53878754 -0.048525367 -0.34344912 -0.5943394 -0.26666054 0.06604897
-0.11103315 -0.14387852 -0.16426235 0.09857783 -0.1723514 -0.62438965 -0.009016973 -0.036761735
00000000: e8b0 ed3d b794 f4bc b23e 22be bf73 1ebe
00000010: 3f4e 133e ff8d eb3e 5b37 323e 2707 52be
00000020: d42e fc3d 6388 c33d 1af2 61bc 47e3 c0bd
00000030: 6f16 933e 079e 073d ef5e 89be 4055 66bd
00000040: cfac c6bd a760 263d 37e2 36be 6a5c 193e
00000050: 0aa6 c5bc f759 25be 26a4 b6bc 66b7 9a3e
00000060: 9fe4 f6bd 4563 053e e081 553e 6505 84be
00000070: ec06 233e 68fe 393e fddc 303d d588 3e3d
00000080: 3d5b 13be a851 a03d 287e 6dbd f42c 563d
00000090: 0e47 3d3e e071 84be 0dc5 d43d e5a9 1e3d
000000a0: 59aa 4bbe ca2e 003e ae76 b33d 6f85 1e3e
000000b0: f27e 1abe 3a1c b5be 1a27 40bd 5b1d c3bd
000000c0: 81c6 443e 51b5 803f 40e1 bb3d 193f 863d
000000d0: 5fbd 2b3c b196 86bd 7780 1ebe f24e 02bd
000000e0: ed87 3b3d 70af 6a3d d101 133e ade3 61bd
000000f0: ac20 9d3e 8e64 d8bb 4d95 acbd d0cc 3d3e
00000100: 34c2 623d cbfb 25bd edbf e2bc c530 163d
00000110: 6a07 f3bd 4852 0b3e 6643 f3bd 1bab c4bd
00000120: 279a 4ebe fefe c33d b98e 1bbe 1839 de3d
00000130: 0763 3ebd 2d9a 05be 285e 0bbe b113 27be
00000140: 3a42 f8be 8809 9c3e 0aee 5b3e 37ba 993d
00000150: 3a3a 88be 0c64 df3d aa15 3cbe 27b5 11be
00000160: b126 c83d 9521 a33e caf2 f8be 834e e73d
00000170: c2f5 843d 1294 18be d185 04be f1e1 ae3d
00000180: 8381 833e 1771 44bc 6706 46be dba0 41bf
00000190: 939a 18bd 591f 54be 17ec c23e 3814 01be
000001a0: 6e17 0c3e 9ca3 96be 2057 163e 7f32 9b3d
000001b0: bbff 6e3e 6c56 bebd fe9a 5bbe f1e8 cb3c
000001c0: 0a37 bc3c 2833 173c b8b4 f7bd cd03 3cbd
000001d0: f637 99bd d70e 9e3d f76a 79bd 238d 623d
000001e0: 46b6 82bd a952 5ebe c47d 003e 2b3d 13be
000001f0: 7264 453e f6f1 2ebe 81dc 4fbe fa0b b4bd
00000200: 7c98 843e 7520 51be f196 3dbe 4c28 703e
00000210: 8fee b4ba 2956 6dbe 7211 763c a8e4 08be
00000220: 79de e4bd 6347 713e 3437 17be e54f 2d3e
00000230: 2417 173e 5bca f43d aa31 463e 2021 dabd
00000240: 0817 88be a121 a13b 21d5 903e b693 a23d
00000250: c71e a6bd cac4 083e 6e8e f33d 5484 3fbe
00000260: efff e73d 0b8d 22be 742c abbe f55f cb3c
00000270: eed6 0a3f 5698 31bd 4ab1 1b3e afa5 de3c
00000280: 4d96 d23d 3475 253e c52d 18bd 35fc 063d
00000290: 7e59 273e cba8 2dbd 2d1d 12bd a2cb 033d
000002a0: d831 b03d e349 febd ebf3 edbc e25e b93d
000002b0: b6fe 153f b52c 263e 4a2f 563e 9e7a 28be
000002c0: d9af e63d 5dd9 c13d d06d 9c3e 8532 77bc
000002d0: 6a7d 21bd 194f cd3e 1cd9 89bd 236e 37bd
000002e0: 2483 033e f28d e73d 7904 d23c a9bb 7f3d
000002f0: 42c0 0ebe eddb eabd fea3 ebbd 99c3 b7bd
00000300: 9e6b 81bd 78e2 5f3e 520d 88bd 5257 3fbd
00000310: be6a a2bd 38e0 6cbe 734a a6be fbd4 55be
00000320: fa43 69be 9e44 673e c547 7cbe 71ec 503e
00000330: 1bb1 503e c33c ee3d a4dd 20bc 42d1 a739
00000340: d404 463e 721d cb3d 612c c1be 32bb e8bd
00000350: 56b9 ac3e 510a 92be 0778 2bbe 4fa4 ae3d
00000360: e7ca 933d af73 94ba c08a 893d 2240 a03e
00000370: 704e c93c 408d a1bb de5a 84bc e4df 74bb
00000380: 2fdb d53d 7437 1abf d367 213e 97b8 823d
00000390: 7cab d93d f459 3d3c 663b 853b d936 83bc
000003a0: 21be 123e 16da f4bd 0f35 a43e 9fce f9bc
000003b0: e56f afbc d1ff 9b3e f69e 42bd 9b21 5a3c
000003c0: 6f0b b93d 0013 efbd fbed 093f 89c2 46bd
000003d0: 90d8 afbe a026 18bf bb87 88be af44 873d
000003e0: 5965 e3bd e454 13be 6434 28be 2ce3 c93d
000003f0: e37c 30be 00d8 1fbf edbb 13bc 7993 16bd
