model/model.pth (torch, 65607 bytes, 24 tensors)

linears.0.0.weight f4 [64, 10]
00000000: 0080 513d 79d1 0fbf 4e54 2a3f 9dcc 48bd
00000010: dbf2 77bf 500d 1abe cf29 37be 06f1 843e
00000020: cee4 dc3d 7725 abbc e151 86be 55cc 9abc
00000030: 3e89 64be cf53 1c3d 721a d03b 68be d6bc
00000040: 00a4 65bd 6deb 3ebe 0280 8a3e 670b 733b
00000050: 981f 083e e3ae 0a3d 7d6c 3fbe 76f4 3fbd
00000060: 19ae 2abf 1b11 f73e 7e36 40be f42f 8d3e
00000070: c88b 8fbe 6899 24bd ed4c 033e f752 aebe
00000080: 3faa e33d 2c1b 753e e7d5 883e 96fb 0dbd
00000090: 409b e93d 4648 1e3e a902 9cbe 021b 88be
000000a0: f3d3 cabd e93e cabd 2cec 383f 6aea 0f3e
000000b0: 5707 1f3f 6283 94bc a050 153e b4be 7a3e
000000c0: 404b 5ebe 7118 593e 005f c83e 0c3c 03be
000000d0: e308 3a3e edfa aebe 95ce 843e cb00 46be
000000e0: fcc1 4dbe 4547 bf3d 1f81 4f3e b651 50be
000000f0: 5402 863e 4c17 25be 170a aebd 1a52 88be
00000100: 592a 16be 53df b33d 0d39 39bd b91a c4bd
00000110: 69a5 dcbc 15d6 843d 7706 283e 8337 a53e
00000120: 9afc c93c a6a9 f23d ed1b 0a3d a6c2 4fbe
00000130: 4547 b8be 710b a73d 941d 8ebe 48e4 39bd
00000140: ecbb 8f3e 1c82 25bf a5ba 083f b607 8dbd
00000150: 70b2 b03e 438b 063d bbdf 7b3d 7c5a 6dbe
00000160: f8f8 a1bd e72c 853e 85d0 8c3e 3237 86be
00000170: a144 19bd 25b0 213e 9235 ac3d e060 41be
00000180: cb20 65be 6835 573e cba9 573d 2394 d6bd
00000190: c010 973d c256 ad3e 8915 a73e ae3f 1cbb
000001a0: 2233 29bf 19af 81bf 71d9 7fba cadb 7a3e
000001b0: 4f47 953e 8c9a 563e f645 2ebe 9318 ecbe
000001c0: 65f8 13bf 6f01 92be 922a 11bd d541 4a3e
000001d0: b3b6 633c c9b0 a63d 9e7c 26bd 9bc4 ce3d
000001e0: 0780 b93d 43dc e53d 5808 a33e 58a0 82be
000001f0: b639 2cbe e068 b33d 25d9 303c 3c27 583e
00000200: f9ee a4bd 7e63 203e c6ef a73d 1dc8 93be
00000210: daa2 513d 3422 9e3e 9995 093d 3644 673e
00000220: 5088 37be 05c0 46be ec87 243e c928 88be
00000230: 2512 79be e820 28bf 67de 85be 2a16 1cb9
00000240: a6d3 133e ae49 c13b 5de9 83bb da3f 2abe
00000250: 65f6 2f3e 0530 94bb 2bd2 90bd b9fd 983c
00000260: c8e9 81be a93c aa3d 5cd6 3abc d453 97be
00000270: d3e6 103e b22f a7bd ae07 3e3e cf70 05bc
00000280: c2ec 91be fded 343e 9665 953e 8553 b3be
00000290: 0d77 ab3e d02d 0a3e fa3d 55be d7f1 743d
000002a0: ec5c 883e d44c 7c3e 5f22 603e fade 8d3e
000002b0: d3c7 dc3d d98f a53e 14c6 62be 2a05 f33e
000002c0: 7b9f 88bd c2a6 683e 1a06 44bd 401f c4bd
000002d0: 3d66 15be 9841 babe b119 7f3e 9189 6bbc
000002e0: 59c4 d1be 00a2 7c3e 1cbd cdbe 1849 75bd
000002f0: 06b1 fbbc b305 2c3e 0f21 a9be 3c7f d33d
00000300: a4ea e93e 22c3 18be 8946 9cbe 2528 b53d
00000310: 9857 5abe b1e7 073e f680 90be 9881 dabd
00000320: 0c8a 82be 5add b9be 95dd 98bd 24f3 063e
00000330: 21f0 56be 38bc 943e 475f e5bd 96ed c3bd
00000340: ccae 5e3e 03bc 4f3e 1df9 713e 446e 72bc
00000350: 86f9 713e 9567 703e da94 b2bc 39cb e53e
00000360: 2c4f 213d ef43 ffbc c406 a1bd 6def 7fbe
00000370: 960d 3fbe 409d f43d 4d15 10be f4ad 6b3d
00000380: b224 2c3e f0da 873e 48a8 8fbe 05cc 543d
00000390: 9b72 17be ee47 563d e5fd 893e b3ac 0abf
000003a0: f660 de3e d575 eb3e 6a70 82be 08a7 15bd
000003b0: 5f14 85be 9c17 9c3d 0d35 353d efe3 003e
000003c0: 583e 703e 6aa8 243e f79f a7be 4706 8dbd
000003d0: 09c3 e4bc 96b5 6e3d 3305 173d a74e 1d3e
000003e0: 906c 863e a4d2 9bbd 5e94 c53d b28f 6ebd
000003f0: f201 d2bd dc1e eabc a26a 18bd d7d0 8abe
0.05114746 -0.56179005 0.6653489 -0.04902326 -0.96854943 -0.15044141 -0.17887042 0.25965136
0.107858285 -0.020891888 -0.26234344 -0.018896261 -0.22317979 0.038165864 0.006350809 -0.02621384
-0.056064606 -0.18644495 0.27050787 0.0037085654 0.13293302 0.03385819 -0.18693729 -0.046863995
-0.666719 0.48255238 -0.18770787 0.27575648 -0.28036332 -0.040185362 0.12822314 -0.34047672
0.11116456 0.23936146 0.26725695 -0.03466376 0.11406565 0.15457258 -0.3047078 -0.26583105
-0.09903707 -0.098752804 0.7223537 0.14054266 0.62120575 -0.018129054 0.14581537 0.2448681
-0.21708393 0.2120073 0.3913498 -0.12815875 0.18167453 -0.34175816 0.2593886 -0.1933624
-0.2009353 0.093397655 0.202641 -0.2034367 0.2617365 -0.16122168 -0.08498018 -0.2662514
-0.14664592 0.0878283 -0.045220423 -0.095754094 -0.026934342 0.064861454 0.16408716 0.32268915
0.024656583 0.11848764 0.03371804 -0.20289096 -0.35991874 0.08156479 -0.2775694 -0.04538372
0.2807306 -0.64651656 0.53409797 -0.06886236 0.34511137 0.032847654 0.061492663 -0.23179048
-0.07908815 0.2601082 0.27502838 -0.26213986 -0.037418965 0.1578985 0.08408655 -0.18884611
-0.22375791 0.21016467 0.05265216 -0.104774736 0.07376242 0.33855253 0.32633618 -0.0023841667
-0.6609365 -1.013156 -0.00097598793 0.24497905 0.29155967 0.20957392 -0.17018875 -0.461125
-0.57800895 -0.2851672 -0.03544099 0.19751675 0.013898539 0.08139188 -0.040646188 0.10096093
0.090576224 0.11223652 0.31842303 -0.25512958 -0.1681889 0.08760238 0.010793959 0.21108717
-0.08053393 0.15662953 0.0820003 -0.28863612 0.051180698 0.3088547 0.033589933 0.22584614
-0.17923093 -0.19409187 0.16067475 -0.26593617 -0.24323328 -0.6567521 -0.26146242 -0.00014885576
0.14436206 0.005898676 -0.004025622 -0.1662592 0.17183836 -0.004522326 -0.07071336 0.018675672
-0.25373673 0.08312351 -0.011403646 -0.29556143 0.14150552 -0.08163394 0.18557617 -0.008144571
-0.28500944 0.1766891 0.29179066 -0.35024658 0.33489266 0.13494039 -0.20824423 0.05980095
0.26633394 0.24638683 0.21888112 0.2770918 0.10780301 0.3233631 -0.22145873 0.47464877
-0.066710435 0.22719863 -0.04785738 -0.09576273 -0.14589782 -0.3637817 0.24912144 -0.01437606
-0.40970114 0.24671173 -0.40183342 -0.05988416 -0.03072406 0.16799049 -0.33033034 0.103270024
0.4568683 -0.14918187 -0.30522564 0.088455476 -0.21322477 0.13271977 -0.2822339 -0.10669249
-0.25495946 -0.3630169 -0.074641384 0.13178688 -0.2099004 0.2904985 -0.11199813 -0.095668
0.21746367 0.20286565 0.23630185 -0.014796797 0.23630342 0.23477013 -0.021799494 0.4488161
0.039382145 -0.031160323 -0.078626186 -0.24993677 -0.18657526 0.119440556 -0.14070626 0.05753894
0.16810873 0.26534224 -0.28058076 0.05195238 -0.14789812 0.05231469 0.2695152 -0.5416977
0.4343335 0.45988336 -0.2547639 -0.036536247 -0.25992104 0.07621691 0.044240046 0.1258695
0.23461282 0.1607987 -0.3273923 -0.06885963 -0.027925031 0.058278643 0.036870193 0.15362035
0.26254702 -0.07608536 0.096474394 -0.058242507 -0.10254277 -0.028579168 -0.037211068 -0.27112457

linears.0.0.bias f4 [64]
00000000: 2c31 8ebe 39f7 a13c c6c7 c93d 39b7 b0bd
00000010: 4bf5 113e 6896 61bd d311 3dbe dc8f 503e
00000020: de0e 263e 5ebe 97be 2f6a 0cbf 82a5 cebc
00000030: 42b0 62be 2cf4 de3c 6362 8abe 30c1 883e
00000040: 4c62 87be 54ae cd3d 68fc ae3d 41bf 4b3e
00000050: 3b5b 92be 2aec 2fbe f882 153e 1e18 a4be
00000060: 7daf 99bd 172f c8bd e67a 563e e5d4 823e
00000070: 38f1 563e 16fe 3c3e 86f8 9c3e b658 2bbe
00000080: fb46 3f3e e091 a93d 391d 50bd f8b7 17bc
00000090: 9e89 933e 273e c63d 3ac7 58bb 5063 a1be
000000a0: 90ca e1be 56e0 debe c788 833e 4746 8fbe
000000b0: 4b08 80be 0c9f 803b a48a 45be 89eb a0bc
000000c0: ebed ef3d f016 a9bd 93d5 103e 258c adbe
000000d0: 5110 41be 81a2 053e 510e 9d3e 2036 fb3d
000000e0: f70b a3bd 818d d5be cff3 9abe 394a 9dbe
000000f0: ebd4 adbd e3bf f13e 7fd5 693e e829 9fbe
-0.2777189 0.019771205 0.09852557 -0.08628697 0.14253728 -0.05507508 -0.1846383 0.20367378
0.16216609 -0.29637426 -0.54849523 -0.025225405 -0.2213755 0.02721604 -0.27028188 0.2670989
-0.26442182 0.10043016 0.085442364 0.19897176 -0.28585228 -0.17179933 0.14600742 -0.3204965
-0.07504175 -0.09774607 0.2094532 0.2555305 0.20990455 0.18456301 0.30658358 -0.1673306
0.1867942 0.082797766 -0.05080912 -0.00926017 0.2881593 0.09679823 -0.0033077733 -0.31521082
-0.44099855 -0.4353053 0.2569029 -0.27983305 -0.25006327 0.00392521 -0.19291168 -0.019643562
0.11715301 -0.08256328 0.14143972 -0.33895984 -0.1885388 0.13050272 0.30674985 0.12266183
-0.079612665 -0.4170952 -0.30264136 -0.3072069 -0.084878765 0.4721671 0.22835349 -0.3108666

linears.0.3.weight f4 [16, 64]
00000000: 4404 253e fe58 ffbc d2fe 363e 665e 41be
00000010: 8228 94bd b8d6 963d 1303 c1bd a664 6d3d
00000020: 85a8 863d 3dbe 2bbd 8512 833e cfb9 893e
00000030: 6b12 fcbd f13a 693d 3eef a73e 3482 463c
00000040: bab5 96be e4d2 58be 92d0 0c3e eb35 9dbd
00000050: 405a 0ebd ce0d dd3d 23b6 a7bd 4594 0f3c
00000060: e9a6 b8bd 4eb6 dc3d f214 5ebe b77e cbbc
00000070: 068c 83bd 7c43 563e c9e6 6ebe 6b40 e93d
00000080: 2762 cdbd bbfa 353d c464 8c3e d81a fe3d
00000090: d484 1bbe 7691 8e3e 7a64 273e 01af 9abd
000000a0: dc0c 4bbe 6b87 313d 122f 46bd 59cf 6abd
000000b0: 9d66 32bd 2986 c7bd 4330 1b3d 7795 6bbe
000000c0: b4ff 7b3c 675b 6bbe 7e85 d2bd 3433 6e3d
000000d0: e4d7 4ebe d886 00be 6369 243e d66c 19bd
000000e0: ab58 3f3e cd7b 403e 729a 9abd 3154 3bbd
000000f0: 54cd 5d3e 57a0 d3bd 2ff2 343d 03f9 0ebd
00000100: fe31 02bf 3ab4 273e 0837 3e3e bacd b1bd
00000110: e9ab b9be 9fd5 afbe 755b 24bc 2221 a33d
00000120: 8af2 d4be db09 a9bd c7d2 4f3e 17b2 a03e
00000130: d706 eebc 5456 a0bd bb18 c73d 9d4e 493e
00000140: 18ad e1bd 43c8 7b3e ae96 46be 7cd4 ce3d
00000150: f00d 4a3e f6df 223d 80ac f23c 7b0e 9bbe
00000160: dac6 f03c d2ac efbb 6cd4 1bbe a12f c53c
00000170: fc83 fa3c d276 753e beec 8bbd dbdb 2c3e
00000180: a568 f4bd 510b 29be 118a bdbd 91f1 6f3e
00000190: 0392 bbbe bec6 333e 8e79 193d 25c7 5ebe
000001a0: f6af b03d 4c94 72be 9852 bc3b ddb3 c9be
000001b0: 3460 993d 2963 de3c d13a c03c 50b6 ccbe
000001c0: fdff 7f3d 625c bfbd 9e6e d5bc 80dd cd3c
000001d0: 9ece 1ebe 0682 6d3c 14df 95be a47e 76bd
000001e0: 2177 813e aeef 353e 5ac8 3bbe cf10 2b3e
000001f0: 9b58 683d f35e d9be f493 043e 7afd 4c3d
00000200: 6be2 b8be fc1e 5dbd d424 06be 15c3 b3bc
00000210: 41c6 d33d a327 103c 941e 48bd 5e2d af3d
00000220: 830f 45bc ffb1 37be 553e 1d3f ced8 ea3d
00000230: 7626 f53c 53e5 6a3e e218 be3e 9d56 633d
00000240: b8e5 51bd 921c 94be 4e44 13be 5247 8d3e
00000250: 3401 cbbd 0254 d23d 3d4f 28bd 18bd 41be
00000260: 749b 5cbd 6374 9eba 6ab9 44bd a89d a5be
00000270: 7267 1b3e 2d14 45bd 999b 37be 1138 bdbe
00000280: d738 bbbe 6715 f4bd 9f97 1a3e 259a 8c3d
00000290: af3a 853d f3c7 8dbe a9aa aebe ddf4 283e
000002a0: 31dd 743e 5ce9 c2be 7d80 b3bd 2e3c cd3e
000002b0: ca98 91be 340b 88be c4be d23d 00b0 86be
000002c0: de61 a6be ac74 afbe 2814 db3e d02f d8be
000002d0: 88be d9bd 78da a8be c23a 693e e71f 9bbe
000002e0: b655 c1be d225 4a3e f676 48bc 2560 7fbc
000002f0: fe0e 2f3c 31f0 b53e 486b 47be a9e2 363e
00000300: 4974 263e f93d c7bd e64c 363e 415e c3bb
00000310: 0853 883c 1126 27be 74b2 433e a2d3 c4bd
00000320: ec39 0c3e 0ada 20bd f3c5 5fbe 8681 933b
00000330: 6ffe 653e 64f0 ecbb 00af 9fbe e950 aabd
00000340: ef25 95bb 930d 44bc 4832 753e 599f b33e
00000350: 773b 253d ecb2 44be 8f52 a1bd c094 6e3d
00000360: 403b 033d bc17 e2bd 20e0 013e 17a0 10bd
00000370: 8e2f 66bd 1569 88be 23e9 6bbb a292 8dbd
00000380: e839 71be 73b9 bd3c fd1e 24be a96f 80bc
00000390: 906d 30be 5779 d6bc 3eb9 523e ef93 86bd
000003a0: 5219 5fbc 0d24 703e 2349 893e 8e9e 34be
000003b0: e268 febb c8a6 063d 2a52 abbe 5894 1bbe
000003c0: fd25 a73e d25f bbbd a48b 98bd ddc0 a5bb
000003d0: 0b9f 383c 64ad 42bc 9778 acbe 5acf bf3c
000003e0: 2e0b 25be 301e eabd d567 003e f55a 7e3d
000003f0: 637b adbe 7b72 c43c 7412 173e dac4 14be
0.16114908 -0.031170364 0.17870644 -0.18883666 -0.07234289 0.07365173 -0.094244145 0.057957314
0.06575111 -0.041929472 0.25600067 0.26899573 -0.123082004 0.056940977 0.32799715 0.012116004
-0.2943552 -0.21174198 0.13751438 -0.076763 -0.034754038 0.10793649 -0.08189037 0.008763378
-0.090162106 0.10776959 -0.21687678 -0.024840696 -0.06423192 0.20924181 -0.23330225 0.1138924
-0.10028487 0.04442857 0.27420628 0.12407464 -0.15187389 0.27845353 0.16346923 -0.075529106
-0.19829124 0.043342035 -0.048384733 -0.05732665 -0.04355489 -0.09742386 0.037887823 -0.23006235
0.015380789 -0.22984086 -0.10279368 0.0581543 -0.20199543 -0.12551439 0.16055827 -0.03745731
0.18686168 0.18797226 -0.07548989 -0.045734588 0.21660358 -0.10333317 0.044176277 -0.034905445
-0.5085753 0.16377345 0.1857568 -0.08681817 -0.3626397 -0.34342667 -0.010031571 0.07965304
-0.41591293 -0.08253833 0.20295249 0.31385872 -0.029055996 -0.07828966 0.09721514 0.19658895
-0.11019343 0.24588113 -0.19393417 0.10099122 0.19731879 0.039764367 0.02962327 -0.30284485
0.029391695 -0.007314303 -0.15217751 0.024070563 0.030580513 0.23971108 -0.06832264 0.16880743
-0.11934022 -0.16508223 -0.0925485 0.23431994 -0.36634836 0.17556283 0.03746944 -0.21755655
0.08627312 -0.23689383 0.0057471506 -0.39395037 0.074890524 0.027146893 0.023465546 -0.39982843
0.06249999 -0.093437925 -0.026053723 0.025130033 -0.15508506 0.014496332 -0.29271758 -0.060179368
0.252862 0.17767212 -0.18338147 0.1670563 0.056725126 -0.42455253 0.12947065 0.05004642
-0.36110243 -0.053984627 -0.13099986 -0.021943608 0.10340548 0.008798513 -0.048857287 0.08553575
-0.012027624 -0.17938994 0.61423236 0.114671335 0.029925566 0.22939043 0.3712836 0.055502523
-0.051244467 -0.28928047 -0.14381525 0.27593476 -0.09912339 0.102699295 -0.041091193 -0.1891979
-0.05385919 -0.0012089129 -0.048028387 -0.32346845 0.1517618 -0.048114944 -0.1793045 -0.36956838
-0.36566803 -0.11918145 0.15096901 0.06865338 0.06505334 -0.27691612 -0.34114578 0.16499658
0.23912503 -0.38068664 -0.087647416 0.40084976 -0.2843688 -0.26571047 0.10290292 -0.26306152
-0.32496542 -0.342687 0.42788815 -0.42223978 -0.10632044 -0.32979178 0.2277632 -0.30297777
-0.37760705 0.1974099 -0.012235394 -0.0155868875 0.010684727 0.35534814 -0.19474518 0.17859901
0.16255297 -0.09728617 0.17802772 -0.0059621637 0.016641155 -0.16323115 0.19111043 -0.09610678
0.1369397 -0.03927044 -0.21852855 0.0045015244 0.2246034 -0.0072308052 -0.31188202 -0.08316214
-0.004551641 -0.011966127 0.23944962 0.3508251 0.040339913 -0.19208878 -0.07877075 0.058247328
0.032038927 -0.11039683 0.12683153 -0.035308924 -0.056197695 -0.2664267 -0.0035997115 -0.069127336
-0.23557246 0.023159718 -0.16027446 -0.015678244 -0.17229295 -0.026180906 0.20578477 -0.06571185
-0.013616877 0.23451252 0.2681361 -0.17638609 -0.007763968 0.0328739 -0.33461124 -0.15193307
0.3264617 -0.09149136 -0.07448509 -0.0050583915 0.011268388 -0.01188216 -0.33685753 0.023414303
-0.16117546 -0.11431539 0.12539609 0.062098462 -0.338832 0.02398037 0.14753133 -0.14528218

linears.0.3.bias f4 [16]
00000000: af71 6e3d 86f0 163e 1071 4cbe 7bf6 d33e
00000010: ecbf 073e 7489 e2bd b2cb 0abe c8c0 003e
00000020: 5aca 113e c94f 9e3d 5328 a93b 236c 7bbb
00000030: c2f4 99bd d070 42bd 1e44 213e 0873 413d
0.058213886 0.1474019 -0.19965005 0.41398987 0.13256806 -0.11061373 -0.13554266 0.1257354
0.14237347 0.077300616 0.0051622777 -0.0038364015 -0.07517387 -0.047470868 0.15748641 0.047228843

linears.1.0.weight f4 [64, 10]
00000000: f8af 24be dec2 d33e d915 99be ba58 2ebc
00000010: 5465 aa3d 2949 f6be 7d04 5dbd 20ae 703d
00000020: 333a c33e d94a 683e fd83 99be 9856 8abe
00000030: 9f5b 173f abe6 b53d 4418 24bf 35f9 e3be
00000040: 7431 493e d0d4 6dbe f7f6 9dbe 4109 a1be
00000050: 8844 153f 7b32 a93e 861a 48be dc99 15bc
00000060: 50a2 c03b c63b be3e 2c01 d8be 2aae 93be
00000070: 8bc2 93bd 6e02 5e3e 6acb 47be 269e 923e
00000080: 75be 4a3e 8ca0 e53a efbf d93e fee8 8b3e
00000090: b375 98be 9a09 123b fbe0 08be fa84 033e
000000a0: 25d1 9d3d 02cc f03e b7b5 12bd 5e98 99bc
000000b0: afb3 b43e b85c c53d 32c1 76bc 1e75 39be
000000c0: 1aca 81be f81c a43d b307 a93c b4c3 d5bb
000000d0: 8720 30be 676f 083f b77f ab3d 8d18 fc3e
000000e0: 2910 94be e78c 8cbe b8bf 283d 84b9 52bd
000000f0: 1788 28be 600d 823e 8e7d 4cbf dd54 5c3d
00000100: d642 223e c4c9 36bd ceeb 093f ee88 64be
00000110: 1fe3 ed3c 649f 65be da65 53be 1638 b13e
00000120: dd92 213d 02a8 85be e136 92bd 8a22 00be
00000130: 2949 92be bec4 8bbe f6fe d0be 08ae aebd
00000140: b323 52be 1fee 373e f95d a73d ce6a 1abd
00000150: 0aa1 aa3d 12a2 d6be 595b 4abe 50db 3cbe
00000160: 6282 e43d 2ff3 27be 3883 a6bd 0d1a 8a3e
00000170: d3d9 b63d 969a 7f3d d61c 18be cc6a 093e
00000180: eff9 3f3c 9e64 923e d478 4a3e 9ef2 7ebd
00000190: fb03 d0bd a826 26bf d6c0 1abf fe81 93bb
000001a0: 6840 a4bd 0c12 19b9 ea81 6fbe 1962 303e
000001b0: 5dfa 593e 2d70 453e 60ad a43e 01a4 7cbd
000001c0: 6077 eb3d 1f04 093f cc6d 39be db8e 3ebe
000001d0: 70e0 76be e023 81bd a28e cdbd d307 1d3e
000001e0: d87e 013f b2c6 7f3d 085b 963e 8207 4bbe
000001f0: 8ad0 04bf 8ed3 04bf 7e3a 723c a757 703e
00000200: d559 7ebe c129 9bbe 983b 93bd 7bc3 003e
00000210: 3174 93be 4203 893d 9703 d63d fe7c 813e
00000220: ca3a a5be e0b8 103e e2c0 093e 69e3 93be
00000230: c139 f3bb 59bb e1be c475 34be e382 803b
00000240: 8f25 093d 36a8 a7be f0cb 3ebc 7576 9bbd
00000250: 7ac2 e33c 1158 fb3d dbe3 25be b06a fc3e
00000260: 86d9 65be c93e 20be 6ed1 a6be 513a b03d
00000270: 2f43 99be 2541 f2bd b55d c53d 9c9e d43d
00000280: 9769 c2be b39a b1bd ceae 27be f6e5 b63e
00000290: 05fe 4e3e 0907 9abe 2354 83be 600c 633e
000002a0: 8df0 90bd 1f42 82be d06a 793d 7170 9ebd
000002b0: c4ad 87be 3018 1c3e f8b6 843e fbd8 a1be
000002c0: 6524 2b3e efe3 e73d fb2d 673c 38fd 873e
000002d0: 406e 07bf 21e0 96be b329 9bbf ab7c b83c
000002e0: eb0f 613e 64d8 b2bc 1da0 433e a2e8 1d3e
000002f0: e166 e8bc 64d1 d23d 6ee3 c5be 2a0c 743e
00000300: 07e1 7ebd b783 4bbe 4ce5 a63e ed5d 8b3e
00000310: a8dc 973e c77e 8dbd 9425 8abe a3c4 92be
00000320: c62a cc3c 6f69 9a3e 6e43 4fbf 5f6f 883d
00000330: 787c 09bf 639d 353d e4cd d03c 608c a73d
00000340: e21b 103e a5ac 543e 72be 853e 27db 23bf
00000350: 8918 063e 2704 1fbc 30d3 2c3f f2b0 f1bc
00000360: 55dd 4a3c 8903 233e 1cc3 1f3a 7d72 11bd
00000370: 7871 7fbe cef8 6f3e e68d a23d b061 843e
00000380: d119 10be d484 163e 0cfb a13e 2929 4d3d
00000390: 1054 9cbd 731b 8dbe d79b 6ebe 161b 4a3f
000003a0: 5212 84bf fe71 853b 0130 f3be be52 7dbd
000003b0: 9c29 ba3c 1112 a23e 9bd7 8c3d 8af3 11bd
000003c0: d5ce 693d 4589 e43e 12f8 f83b f797 c7bc
000003d0: e39f 9abe 81c3 943e 7d7c c0be fe74 cc3d
000003e0: 5077 533e 3454 52be 10da f8bb ac83 3b3e
000003f0: ab82 8abd 1817 283e b0b5 1fbe ebea 76be
-0.16082752 0.4135961 -0.2989948 -0.010641271 0.08320108 -0.48102692 -0.05395936 0.05875981
0.3813034 0.22684802 -0.29983512 -0.2701919 0.5912418 0.08881887 -0.64099526 -0.44526067
0.19647771 -0.23225713 -0.30852482 -0.31452373 0.58307695 0.33046326 -0.19541368 -0.009130921
0.005878724 0.3715498 -0.42188394 -0.28843814 -0.072148405 0.21680614 -0.1951119 0.28636283
0.19799216 0.001751916 0.42529246 0.27326196 -0.29777297 0.0022283555 -0.13367073 0.12843695
0.07705907 0.47030646 -0.035817828 -0.018749412 0.35293338 0.09636825 -0.01506071 -0.18111083
-0.25349504 0.08013338 0.020633554 -0.006523574 -0.17199908 0.53294986 0.08373969 0.4923748
-0.2891858 -0.2745125 0.041198462 -0.051446453 -0.16458164 0.2540083 -0.7987908 0.05379187
0.15845808 -0.044626012 0.53875434 -0.2231786 0.029038964 -0.22424084 -0.20644322 0.34613103
0.0394467 -0.26104742 -0.071393736 -0.12513176 -0.28571442 -0.2729854 -0.4081952 -0.085292876
-0.2052143 0.1796193 0.08172221 -0.037699513 0.08331497 -0.41920525 -0.19761409 -0.18443036
0.11157681 -0.16401361 -0.08130497 0.26973 0.089282654 0.062403284 -0.1485475 0.13419646
0.011717304 0.2859239 0.19772655 -0.062243097 -0.10157009 -0.64902735 -0.60450494 -0.0045015803
-0.08020097 -0.0001459794 -0.23389402 0.17224921 0.21286912 0.19281073 0.32163525 -0.061679844
0.11497378 0.53521913 -0.1810829 -0.18609183 -0.24109054 -0.06305671 -0.10036971 0.15335016
0.50584173 0.06244535 0.29366326 -0.19827083 -0.51880705 -0.51885307 0.014784453 0.23470937
-0.24838956 -0.30305293 -0.07189101 0.1257457 -0.28799585 0.066900745 0.104499035 0.25290674
-0.32271415 0.14133024 0.13452485 -0.28884438 -0.0074226563 -0.44088247 -0.17623049 0.003921853
0.033483084 -0.32745522 -0.011645302 -0.07590953 0.027802695 0.12272657 -0.16200201 0.49300146
-0.2244626 -0.1564895 -0.32581657 0.08604873 -0.2993407 -0.118288316 0.09637014 0.10381815
-0.37971184 -0.08672085 -0.16375276 0.3572232 0.20214088 -0.30083492 -0.2565013 0.2217269
-0.070771314 -0.2544107 0.06089288 -0.0773629 -0.2649976 0.15243602 0.25920844 -0.31610855
0.16713102 0.11322772 0.014110084 0.26560378 -0.52902603 -0.29467872 -1.21221 0.022520384
0.21978728 -0.021831699 0.19104047 0.15420774 -0.028369369 0.10293844 -0.38650078 0.23832765
-0.06222632 -0.19874464 0.32596815 0.27220097 0.29660535 -0.069089465 -0.26981795 -0.28665647
0.02492274 0.30158564 -0.80962265 0.06661867 -0.5370555 0.04433955 0.025488801 0.08181071
0.14073136 0.20768984 0.2612186 -0.64006275 0.13095297 -0.00970558 0.67509747 -0.02950332
0.012381871 0.15919317 0.0006094442 -0.035509575 -0.24945629 0.23434755 0.07937221 0.2585578
-0.14072348 0.14699107 0.31636846 0.05008808 -0.07633221 -0.27560005 -0.23301636 0.7894758
-1.0318091 0.004072427 -0.47497562 -0.061846487 0.022724919 0.3165441 0.06877061 -0.035632648
0.057082016 0.44635978 0.0075979317 -0.024364455 -0.3020011 0.29055408 -0.37594977 0.09983252
0.20650983 -0.20539933 -0.0075943545 0.18311948 -0.06763204 0.1641506 -0.15596652 -0.24113052

linears.1.0.bias f4 [64]
00000000: 643f 54be cee7 783e 4bfe 34bd e51e 47be
00000010: 4168 9e3e fc79 f93c 718b 8d3e f056 8b3e
00000020: e065 17be 9995 803e 9a08 123e 186b 9ebd
00000030: da0e 05be 03ae 41bd a64d b43d c0dc 08be
00000040: 9001 863d c6d7 cebd fc0e 733c d52e 82be
00000050: c31a d93d 4a87 53be a712 673e b0e4 293e
00000060: d9b8 cd3e 0e0d aa3d 4604 11be 54b1 633c
00000070: 406b a43e 0e9b 94be 7832 89be a487 9d3e
00000080: 8c68 ddbd 309d 333d 9e83 683e 0876 1d3e
00000090: 142b 193e f401 8f3d 0b2b 2c3e 6091 493e
000000a0: 5d99 56be 70a3 273e fba4 8dbd d26a 6b3e
000000b0: e7b9 b0be b588 9d3d 0334 10be 45a9 8abe
000000c0: ea43 69be 0571 ba3d 499b babd 14e5 00be
000000d0: a37f 813e 435a 6abe fbad 80be 9eec 10be
000000e0: 32ed 5abe 076d b23e 1c02 b4bc 38e4 663d
000000f0: 3838 98bd aa62 953e 6369 ac3e cf0f 013e
-0.20727307 0.24307176 -0.044187825 -0.19445379 0.30938914 0.030453674 0.27645448 0.27214766
-0.14784956 0.25114134 0.14261094 -0.0773527 -0.12993947 -0.04728509 0.08803873 -0.1336546
0.06543267 -0.10099749 0.0148351155 -0.25426355 0.106008075 -0.20657077 0.22565709 0.16591144
0.4018009 0.08303271 -0.14161786 0.013897259 0.32113075 -0.29024547 -0.26796317 0.30767548
-0.10810956 0.043851078 0.22706458 0.15377057 0.14957839 0.069827944 0.16813295 0.19684362
-0.20956941 0.1637094 -0.06916233 0.22989967 -0.34516832 0.076920904 -0.14082341 -0.27082267
-0.22779813 0.09103588 -0.091116495 -0.12587386 0.25292692 -0.22885995 -0.25132737 -0.14152762
-0.21379545 0.34848806 -0.021973662 0.05636999 -0.07432598 0.29176837 0.33674154 0.12603687

linears.1.3.weight f4 [16, 64]
00000000: 46c8 89be 6e69 9bbe ffbe 8bbe 5c00 50bd
00000010: fc78 9f3d 716e f8bd b436 8a3d 0b7b 58be
00000020: 5b7e 81bd 9749 1fbc 4cc3 a63d a888 d53c
00000030: ad44 90be f570 dd3d 65f3 5f3e 526b 0abe
00000040: a926 34bb 76d9 ebbd 3403 cd3e 3cad 1ebd
00000050: d5bd 20bd ef27 0c3e 1de3 16be be38 493d
00000060: a7c9 98bd 7e65 fb3d 2997 7abe 1060 ab3d
00000070: a26e c7bd fda8 34bd fdf8 4e3b 43d2 6cbe
00000080: 76e9 0b3e 09a6 82be 61b0 8d3d 7f53 1dbe
00000090: 2b97 02bd 2be0 b0bc 27c7 8ebd 4540 3b3e
000000a0: b0d3 75bd d5c2 03be 0b18 363d e19a 0bbd
000000b0: a691 2ebd d191 a7bd 3104 35be d474 ecbd
000000c0: 2694 dc3d 5506 6abc 54aa 6ebd bbbb 14bd
000000d0: 6117 10be 511b 2cbc 6ea9 d33c dd4e 023d
000000e0: 46a1 5abe 9736 a83d 178c 753e 2bf7 843d
000000f0: ca66 8fbd 24c3 90be f445 b53e 1c41 4ebe
00000100: 0f93 49bc 7232 09be d27e 9cbd 0e68 5bbe
00000110: c1fc 06be 319a 53be 368a b03e dcbc b5bd
00000120: 9082 003e 703c cbbd 1240 b43e b15e 70be
00000130: a4e8 cbbe 277c 10bd 4e81 1f3c 961a 0bbd
00000140: 0b5a a43e d395 bc3d fb57 df3e 4763 83be
00000150: fb1a ac3d 89a8 1c3e aeae e53d 3fa6 4e3d
00000160: d08d bdbe b621 813d 7ad0 0ebe b746 ca3c
00000170: 437f 93bd 15fc 09be 2880 44be b2c3 a2be
00000180: d20a 233e 420a 0bbe 64f7 07be 0bc6 0bbe
00000190: 602b a1be ebe9 143c 6231 4d3d d3be 6a3e
000001a0: 991b 5fbe f48e 4ebe bbd8 de3b 1aa3 62bd
000001b0: 2295 a73d db96 843e 0d8c 36be eaca be3d
000001c0: 13b7 a73d 260e 0abe 42ee 55be 90c8 4fbe
000001d0: da6e 24bc 9b1c a4be 29df 273e 06ab 6b3d
000001e0: 82b6 e5be 89c4 c43a 39da 673d b50c aa3d
000001f0: 76a6 0cbc bb3c cbbd 1d65 163e 6b57 d2bd
00000200: 68d5 19bd 99ce 923e bad7 bbbd 119d e1bb
00000210: d564 513e a781 1e3e 76fb 04be 177c a33d
00000220: cbad a5bd 31ce 3dbe c444 0cbe 7f74 943c
00000230: 256d 2a3e ba8f 6b3c 154a 06be f5b2 833d
00000240: 4f10 5ebd 9059 40be d9db 7dbe 8701 df3d
00000250: 9b25 abbe e9a1 b6bd 3431 f2bc cd46 bfbe
00000260: 2a7e 42bc 73fc 253b 837c b63d f33c 6dbd
00000270: 517f e33d e612 233e 6260 86bd ea6f 8a3e
00000280: 6ebd 063d fdbd 4e3d 2615 c0bd d6a6 de3d
00000290: 440b 0d3e cd74 053e bdd1 de3d cabb a33d
000002a0: 8ae4 26bd 31c8 6c3d 23b2 bebb 837a f7bd
000002b0: d046 a9b9 1aa6 f1bd 0875 313e ac9d 6bbe
000002c0: e8ed 23be 0404 0dbe cea2 033d c509 a83d
000002d0: 4cfa 30be b2d6 103e c709 a33d 7fcf 833d
000002e0: d488 e33d 4482 f33c a28d 6e3d ccff 8d3d
000002f0: cce5 0bbe 0fb3 6a3c a30f 7bbd 2bf9 083d
00000300: f23e 943e bfa7 b93d c86b 453e 54ae 943c
00000310: 1809 41be 0019 35bd 825b d6bd 6c99 0c3e
00000320: 4326 2e3e ff3a 36bd 5ddc 9a3d 7aff 0f3e
00000330: 394e ff3d 0fae aa3c 69c0 a6bd f601 913d
00000340: f231 cebc e715 24bd 49f8 92be 4894 953d
00000350: 3faa a43d 8443 57be ef0c a93d 0fe6 22be
00000360: fc72 5d3e ef96 ec3b 8d44 0c3e 86f9 f1bc
00000370: 01d5 e23d 7f37 c53b ca3a 183e f240 20be
00000380: 238f d4bd 345d 693d 057b 8f3c f5af e33d
00000390: 3356 453d 2aaa 2dbd d15d 9d3d a94e 3abe
000003a0: 6a40 d1bd 7584 3e3e 6608 463d 9b6a ebbc
000003b0: ef01 77bd 88a9 0a3d cc25 e63d a554 63bd
000003c0: 8636 82bd b892 163e eab5 dabd 02ca 753e
000003d0: 748b 8b3d 7edb 7ebd 9d4a 81bd 0693 c53d
000003e0: 2f65 163e f9c7 1e3b 3730 6bbe 2ee3 253e
000003f0: 119e 123e 007b 313e 87d9 76be 7133 8a3e
-0.2691061 -0.30353874 -0.27294156 -0.050781593 0.07786748 -0.1213044 0.06748715 -0.21140687
-0.063229285 -0.009722135 0.08142719 0.02606614 -0.28177395 0.108125605 0.21870191 -0.13517502
-0.0027488864 -0.11516087 0.40041506 -0.038739428 -0.039243538 0.13687108 -0.14735074 0.04912638
-0.07460337 0.122752175 -0.24471726 0.08367932 -0.097378984 -0.044106472 0.0031581514 -0.23127083
0.13663277 -0.255173 0.06918407 -0.15363882 -0.031882446 -0.021591267 -0.06971579 0.18286236
-0.060016334 -0.12867291 0.044456523 -0.03408325 -0.04261937 -0.08182109 -0.1767738 -0.11545721
0.107704446 -0.014283736 -0.058267906 -0.036311846 -0.14071418 -0.01050456 0.025837626 0.03181349
-0.21350583 0.08213537 0.23979221 0.06492456 -0.07002027 -0.2827388 0.35404932 -0.20142025
-0.012303128 -0.1339815 -0.076413766 -0.21426412 -0.13182355 -0.20664288 0.34480447 -0.08873913
0.12549806 -0.09923637 0.35205132 -0.23473622 -0.39825928 -0.03527465 0.0097354185 -0.0339609
0.32099947 0.09208264 0.4362181 -0.2566168 0.084035836 0.15298666 0.11214958 0.050451513
-0.37022257 0.06305258 -0.13946715 0.024691923 -0.072020076 -0.13475068 -0.19189513 -0.3178993
0.15922096 -0.13578132 -0.13277966 -0.13649766 -0.31478405 0.0090889735 0.050095923 0.22924356
-0.21787871 -0.2017172 0.0068007386 -0.055331327 0.08182742 0.25896344 -0.17826863 0.093160465
0.081892155 -0.1348196 -0.2089167 -0.20291352 -0.010036195 -0.32053074 0.16393723 0.057536148
-0.44865805 0.0015012185 0.056604598 0.08303205 -0.008584609 -0.09923693 0.14687009 -0.1027058
-0.037557036 0.28673247 -0.09172006 -0.006885179 0.2044862 0.15479146 -0.1298655 0.07982653
-0.08089789 -0.18535687 -0.13698107 0.018121956 0.16643198 0.014377529 -0.13114198 0.06430618
-0.05421477 -0.18784165 -0.24790896 0.10888963 -0.33427128 -0.08917601 -0.029564478 -0.37358704
-0.0118709 0.0025327473 0.089104675 -0.057919454 0.11108268 0.15925178 -0.06561352 0.2703851
0.032895498 0.050474156 -0.09379034 0.10871665 0.13773829 0.13032837 0.10879848 0.07994802
-0.040745296 0.057808105 -0.0058195754 -0.12083914 -0.0003228695 -0.117992595 0.173298 -0.23009366
-0.16008723 -0.13771063 0.032137685 0.082049884 -0.1728298 0.141444 0.07960849 0.06436061
0.11110082 0.029725201 0.05824054 0.06933555 -0.1366188 0.014324917 -0.06129421 0.03344075
0.28954273 0.09065198 0.19279397 0.018149532 -0.18851125 -0.044213295 -0.104666725 0.13730401
0.17006783 -0.044489857 0.07561562 0.140623 0.12466092 0.02083495 -0.08142168 0.07080452
-0.0251703 -0.04005995 -0.28705052 0.07303673 0.08040284 -0.21021849 0.0825442 -0.15908073
0.21625894 0.007220141 0.13698025 -0.029537927 0.110757835 0.0060185785 0.14866176 -0.15649775
-0.10378864 0.05697365 0.017514715 0.111175455 0.04817791 -0.04239861 0.0768391 -0.18194069
-0.10217364 0.18605216 0.048347853 -0.028737357 -0.06030458 0.033853084 0.11237678 -0.055500645
-0.06358056 0.14704406 -0.106792286 0.24002841 0.06813708 -0.062221043 -0.063130595 0.09647183
0.14687036 0.002422808 -0.22967611 0.16199943 0.1431811 0.17332077 -0.24106418 0.26992372

linears.1.3.bias f4 [16]
00000000: 2738 4dbd 419d a03e 98ba 2cbe 04e6 2f3e
00000010: 4f53 48bd 1324 5bbd 752b 793e 4f39 473d
00000020: dab9 433e b6fe eabd 6fa3 053e ee47 cfbc
00000030: e11f a53d 0c57 23be a564 9fbd 0c6b ee3d
-0.05010238 0.31369975 -0.16868055 0.17177588 -0.048907574 -0.0535012 0.24332984 0.048638638
0.19113865 -0.114743635 0.13050626 -0.025302853 0.08062721 -0.15951174 -0.07782868 0.11641511

linears.2.0.weight f4 [64, 10]
00000000: bb4b 7d3e 0381 883e 23e5 01bf 09f0 b4bd
00000010: 3ac1 94be 85d4 9d3e 2423 20bc 094d 9bbe
00000020: dc77 433c ab30 84be 5de3 6b3d 8e5a 933e
00000030: b42b 023f 45e7 6f3c 1e5c c7be da2e 89be
00000040: 05c9 493e ca84 203e c5be aa3e d2f7 783d
00000050: c9d9 823e c9f9 e43e 39b9 023f 2915 1dbc
00000060: 992b bdbe ee84 f93c 1dc4 42be e91e 653e
00000070: a230 a7bd de0a a13e 9fea 70bd 7cb0 043f
00000080: ad3c e7be 6b34 333d 5a8e c5be ffd0 49be
00000090: 52c9 06bb e71a 7f3e d45e 6fbe e3d6 a73e
000000a0: f496 563e 4682 7d3d 4abf 8a3e 7106 32be
000000b0: c178 353e 1da3 9abe 0da9 033f b75c 04be
000000c0: 124e b73d 5020 e53d 2a79 85be 9045 4e3b
000000d0: 8d18 37be 0179 8e3e b1d4 84be 30c2 15be
000000e0: ab47 5f3e 6f12 38be 44d3 98be ca47 6ebd
000000f0: 19e4 a53e 4a1e 59bd 70d0 b33e a3b4 63be
00000100: 8c05 b93e 44a4 963e 8e2a 7c3e 34ac 4cbe
00000110: a2a8 7ebe bc19 133e 75bb f43c 900f d43b
00000120: 0a5e d73d 614b 0a3d 7a29 a63e 4428 653e
00000130: dcda 18bf 53db 553e 7806 e73c 7ca9 173e
00000140: 4cc3 94be d013 43be 6609 aa3e d363 75bd
00000150: 1480 553e a02d c83e 0ad6 533e e3ff 983e
00000160: 1974 d43d a2f7 fabc 8518 a4bd 08af 7cbd
00000170: 7840 fa3d 9397 b4be 20d7 c03e f8e1 843e
00000180: 145f 8e3e f083 40bc 1887 9a3e 6725 96be
00000190: 242b b23d 6b78 413d 5a12 eb3d 643f 54bd
000001a0: 7a55 fbbc eae4 a53e f5fb 39be 7644 383e
000001b0: b050 2c3e 6939 00be 5f72 b8bd bea9 e13e
000001c0: 7967 a9bd 96e4 8e3c d119 e3be 2a48 15be
000001d0: cb84 863e c8eb a3be 73bb 0b3e 186a e43c
000001e0: f90c 8cbd 0925 23be e606 4f3e 09c6 cdbd
000001f0: aaa5 a33e a08e fe3d d458 623e a183 383e
00000200: 0f42 673c 020f 2dbe 0759 863d d099 913e
00000210: 6925 b73e 4064 d73d 905e d33d 612c c23e
00000220: 1452 b73e 45f8 573e 4666 c1bd 4df2 723c
00000230: 0c7a 9e3e 99ca b4be d4a6 8c3e a1d2 a7be
00000240: ff99 8b3d 6144 143e 532c 51be 5793 3dbe
00000250: 5e9f ae3c 49f0 0d3d 3255 69be 203b b93e
00000260: 4da2 073f 6256 25bd c717 923c 8f2b 813e
00000270: 95b4 eebe 55f3 1bbe 603e 223e 426d dabc
00000280: d6b1 a6be cf1d 3c3e a850 813e 6d05 183e
00000290: 13c5 1abd 593a 9bbe e1a2 883d 99f4 56bc
000002a0: c365 603d 71d7 933e 808d 123d 1656 313e
000002b0: 8c6d 303e f503 64be 041e 1e3b 4ed3 b0bc
000002c0: 5de6 7ebe b9a5 5ebe e2b5 f63d 0371 a6bd
000002d0: 7722 dcbd 8573 cd3a 6e59 9b3e 5b41 a13e
000002e0: 742f 7abe faab 2d3e d0fc 343e d16a 323c
000002f0: 0ccf 95be 0027 b4bd 9403 6bbe dd42 4dbe
00000300: 9d91 cabd 0fe2 9c3e e891 18be f860 c8bc
00000310: 2d3b 93bd dde4 813d 3ac5 c23e fffc 7bbe
00000320: 10db 86be b9a2 8fbe 8340 20be 907a 03be
00000330: 1312 e4bd 097a 43be c462 6bbb 6e14 21bd
00000340: f671 4ebe 1a82 1d3e 0c65 013e 46a8 c23e
00000350: 874d 803e b448 f938 2dae 59bb b218 97be
00000360: 5098 533e 972d c53c 67dc 683e 6625 a0be
00000370: 31f8 a53d 3369 663e 95ec 963d 28de a1be
00000380: 4c84 243e 5c2d 8b3e d617 0abe 6eed 053c
00000390: 32f5 0a3e 93ea be3c 9deb 993e e4a6 b33d
000003a0: d6a2 15be 503a f1bd 898f 803e 14dd 8bbe
000003b0: bc0e 83bd adec 963e 3bd1 c6bc 3354 803e
000003c0: 2e34 c83b d72d 773e 2482 03bf f3c2 eb3d
000003d0: 6249 91be 579f 1a3c b59e 0d3f 658d 4e3e
000003e0: 9c43 a1bd bb7b 11be 6888 eb3d 4728 523e
000003f0: 9135 0abe 209d bc3e 489d 2a3e 7adc 013d
0.2473592 0.26660928 -0.5074026 -0.088348456 -0.2905367 0.30826202 -0.009774003 -0.3033221
0.011930432 -0.2581838 0.057589877 0.28780025 0.50847936 0.014642541 -0.38937467 -0.26793557
0.19705589 0.15675655 0.3334867 0.060783215 0.25556782 0.4472182 0.5106388 -0.0095875645
-0.36947325 0.030458894 -0.19020124 0.22375073 -0.08163573 0.31453604 -0.058817502 0.51831794
-0.4516348 0.04375116 -0.38585168 -0.19708632 -0.0020566774 0.24912606 -0.23376018 0.32781133
0.20956022 0.061891817 0.27099067 -0.1738527 0.17721845 -0.3020257 0.51429826 -0.12925993
0.089504376 0.11187804 -0.26069003 0.0031474568 -0.17880459 0.27826694 -0.2594352 -0.14624858
0.21804683 -0.17975782 -0.29848683 -0.058173932 0.32400587 -0.0530074 0.35119963 -0.22236876
0.36137044 0.294222 0.24625608 -0.19987565 -0.24869016 0.14365286 0.029874543 0.0064715818
0.105159834 0.033763293 0.3245352 0.22378641 -0.5970895 0.20884447 0.028201327 0.14810747
-0.2905525 -0.19050527 0.33210295 -0.059909653 0.20849639 0.3909731 0.20687118 0.29882726
0.10373706 -0.030635659 -0.08012489 -0.06169036 0.12219328 -0.35271892 0.37664127 0.2595365
0.27806914 -0.011750206 0.30181193 -0.2932541 0.08699635 0.04723398 0.1147811 -0.051818267
-0.030680407 0.3240121 -0.1816252 0.17994866 0.16827655 -0.125219 -0.090061896 0.44074816
-0.08271689 0.017442983 -0.44355634 -0.1457831 0.26273188 -0.32015824 0.13645725 0.02788262
-0.06838412 -0.15932097 0.20217475 -0.10047538 0.3196233 0.12429547 0.22104198 0.18018962
0.014114871 -0.16900256 0.06559949 0.28437662 0.3577073 0.10517168 0.10320771 0.37924483
0.35804808 0.21090801 -0.09443335 0.014828277 0.3095249 -0.3531082 0.2747103 -0.32777885
0.06816482 0.1447921 -0.20427065 -0.18513237 0.021316227 0.034652982 -0.22786406 0.3617792
0.52982026 -0.040365584 0.017833604 0.25228545 -0.46622148 -0.15229543 0.15844107 -0.026663426
-0.32557553 0.18370746 0.25256848 0.1484582 -0.0377856 -0.30317953 0.06671692 -0.01311984
0.054784548 0.28875306 0.035779476 0.17317995 0.17229289 -0.22267134 0.0024126777 -0.021585133
-0.24892564 -0.21742906 0.1204641 -0.08127024 -0.10748761 0.0015674686 0.30341667 0.31495175
-0.24432164 0.16960135 0.17674565 0.010889725 -0.29259527 -0.08796501 -0.22950584 -0.20045038
-0.09891055 0.3064122 -0.14899409 -0.0244603 -0.07189021 0.0634248 0.38041097 -0.24608229
-0.26339006 -0.28053835 -0.1564961 -0.12839723 -0.1113626 -0.19089521 -0.0035917023 -0.039326124
-0.2016066 0.15381661 0.12636203 0.38019007 0.2505915 0.00011886787 -0.003321539 -0.2951103
0.20663571 0.02406959 0.22740327 -0.31278533 0.081039794 0.22501068 0.07369343 -0.31614804
0.16066092 0.27183044 -0.13485655 0.008174283 0.13570097 0.023305213 0.3006257 0.08772066
-0.14612898 -0.117787 0.2510951 -0.27317107 -0.06399295 0.29477444 -0.02426969 0.2506424
0.006109736 0.2413858 -0.51370454 0.11511793 -0.283763 0.009437404 0.5532029 0.20171125
-0.078742236 -0.14207356 0.11500627 0.20523177 -0.13496996 0.36838627 0.1666156 0.031704403

linears.2.0.bias f4 [64]
00000000: 7d25 6d3e fba5 d23e e12b 91be da1d a83c
00000010: 56cf 99be 09a1 88be e167 b5bd 561c da3e
00000020: 4003 2a3c 7659 09be 31af 163e b803 0e3d
00000030: 5451 11be 3949 383e ce03 e5bd 6ca3 bd3e
00000040: 87e5 3f3e df4d 983b 05e5 483e ecd3 5cbe
00000050: ca02 abbd 7d59 b1be bd33 93be 7798 a93e
00000060: 4e89 bc3d ba5d 95be 8295 65be 6a0f 6dbe
00000070: d8b4 8abd 74b1 a83d e749 8cbe 6456 763e
00000080: daf2 a3bd 37b7 aa3e ee56 4c3e 47e5 93be
00000090: 4865 93be 2fa6 e4bc 67f2 583e 6429 8c3e
000000a0: 61a7 553e 7c8d d8bc 9cf2 5a3e df37 21be
000000b0: 8a0a 3bbe 9140 5f3d cae9 51bd 9a62 cebc
000000c0: 2df8 863c 6821 143e 2dba 9abd b00a b2be
000000d0: f9d9 b7bd fc18 7fbe cdf6 5fbe 5168 333e
000000e0: a784 a63a dab0 833e 235c 3cbe a67f 4abe
000000f0: ca60 493e b646 45bd f548 3fbd 1d4c 5ebe
0.23158832 0.41142258 -0.2835379 0.020522047 -0.30040997 -0.2668536 -0.08857704 0.42599744
0.010376751 -0.13413033 0.14715268 0.034671515 -0.1419118 0.17996682 -0.11182366 0.37038743
0.18739901 0.004647955 0.19618614 -0.21565217 -0.08350141 -0.34638587 -0.2875041 0.33124134
0.09205876 -0.2917307 -0.22420314 -0.23150411 -0.067727745 0.082369715 -0.27400133 0.24056393
-0.08005305 0.33342907 0.19955036 -0.28885862 -0.2878821 -0.027911274 0.21186219 0.2737533
0.20864631 -0.026434653 0.2138161 -0.1574397 -0.18265739 0.054504935 -0.05124835 -0.025193501
0.016475761 0.14465868 -0.075550415 -0.3477378 -0.08977122 -0.24911875 -0.21871491 0.17520262
0.0012704328 0.25720865 -0.18394522 -0.19775257 0.19665828 -0.04816314 -0.046700437 -0.21708722

linears.2.3.weight f4 [16, 64]
00000000: 75eb 853e 1d45 91be a180 993e 9011 2ebd
00000010: b83f 32be d24d 043d 968f 803b 0d77 01be
00000020: a4c1 61bd 5f5c ce3d 4346 8abc b615 26be
00000030: 98c5 2e3c 487c 87bd 95a8 3abe 9f33 a8be
00000040: f43f 87be 0bee 94bd 28bd 1fbe 26cc a6bd
00000050: bdca ad3d 11cf ea3c 9b3a e0bd 908e 47bc
00000060: 2b96 a73d b296 97bd 29fb b6bd 6239 8b3c
00000070: a4a1 2ebe 9008 6dbd fa0b 11be 72e1 5ebd
00000080: 6197 173d e724 f2bd b035 17be c584 eb3c
00000090: 827c ce3d 60d6 4b3d e850 873d a1d2 1e3e
000000a0: 0257 08be 814d 0bbe aff0 b8bc 5e5e d23b
000000b0: 631e c1bd 5cf9 ad3c 3774 3d3d d08d 083e
000000c0: b7e3 893c d0ff 21be 5c25 32bc 855c d43d
000000d0: 6b7d 58bd ac15 d3bd 8f53 e63e d8e9 8cbe
000000e0: 09bc 92bd 2c2a 123d 5fd6 a6bc bbb6 38be
000000f0: 7605 04be 4e32 e8bd d214 a93c bc9c 7f3d
00000100: 6a4a 9e3d de42 10be 729a 2f3d 3135 50be
00000110: fd8c a3be a394 7d3d 3c20 cfbd 3202 48be
00000120: 33ee 0a3e e486 393e b3a1 2c3d 8c43 0b3d
00000130: 8e2d 0bbe 00ef 32be d127 19be 79f7 20be
00000140: bc22 75bc c2e4 b63d 9e50 c33b 1ee3 353c
00000150: 1d99 2d3e d854 0e3e 12cf 0bbe ab21 e8bd
00000160: ac9f e73d d568 b7bd d642 9d3d b628 1fbe
00000170: 41ec 84ba 37fa 8dbe 589f 393d 6bd1 163d
00000180: 5615 b7bb e0a5 80bd 1b79 83be 0703 90bd
00000190: c2db 8ebd 142f 6fbc 2448 4abe 6561 463c
000001a0: 07a6 093d 8e1f a5bd 851f ae3e 9be7 42ba
000001b0: b403 b9bd 1544 39bd 41a6 003d 5a09 2a3d
000001c0: e676 aebe 8ff2 f4bc 664e 47be 7a24 16be
000001d0: 1054 403e eec9 22be 1057 0d3e ec7c fbbc
000001e0: cd14 b9bd b247 1a3d 79f4 54bc 2a3b c13c
000001f0: 3b7d 2b3d 0270 67bc e6d7 3e3d 7b71 323e
00000200: 2f00 723c 44a3 6f3c d59b 2f3e 2bde 88be
00000210: 3213 93bd 50ff 873d 3733 023e bef8 273e
00000220: e85a 5a3d 9ab6 90bd 784e 52bd 5877 a7bc
00000230: 8843 bcb9 3d75 253e 611b 68bc 0037 0d3e
00000240: 0846 29bd 95bc 043e a133 093e acd7 73bd
00000250: 306f 30bd e3e1 d83d 11e0 263d 21e1 71be
00000260: 3c29 80be 68f4 593d 3bf3 f43d dce3 c43c
00000270: 28a3 393d 5317 9abd 7166 ddbd 658c 63bd
00000280: 2020 6abd 79bf dcbc 827d 1f3e 3b17 36bd
00000290: 4e63 1fbe c2d7 333e d9d2 3f3e 6324 0cbe
000002a0: cf8e 22be b557 2c3e 2991 573e b1c7 5d3d
000002b0: 5169 7c3e 1487 eb3d 9fc2 c13d 941b 883d
000002c0: 748d e53d 6b6c c03d 902a 1a3e 0dad 983d
000002d0: f9ef 8d3d ce55 1e3e caa1 e43d 37d7 23be
000002e0: 95ed cebc e1ae a63d a424 013e add7 20bd
000002f0: 2034 1f3e 07c2 033e a3e6 0bbd 11bc 193b
00000300: 1c22 fdbd d8fa f83d cbdd 68be 1fcf 643e
00000310: 3411 103e 67ce 19bd 7d58 b9bd 2b2f 863d
00000320: a6e5 d63d a1a7 ce3c ab48 35bc 9e84 a43b
00000330: a5c3 82bd 4b90 1e3d a314 343e 0361 493e
00000340: abf6 adbc e006 c43c 6831 eebc 9538 e23d
00000350: f5f0 a33d 5147 43be 2363 eb3d 9cc6 6bbd
00000360: d5cf a63d 6193 363e ed39 523b 8f6b e2bd
00000370: 5f1a 213e 1512 d9bc f94c a13d 2912 183e
00000380: 5612 60bd 09c0 e3bd 5b57 083d 78c0 093e
00000390: 2a45 fcbc 2589 a9bd c1eb b6bd f1b3 c83d
000003a0: f0f8 7d3e f0be 5a3e 9e86 983c 5ef1 a73d
000003b0: 3fb3 b83c 2f66 193e 9229 bebd 10db 47be
000003c0: f674 11be 97f5 4a3e 4701 4c3d 78df b0bb
000003d0: 861f 2fbe 8ddb 9d3a 73a3 a7be a8af 753e
000003e0: b60e 60bd 3431 603d 1595 db3c ba6a eabd
000003f0: f7ba 81bb 8f8a cdbc e5da 6bbd cdf0 a4bc
0.26156202 -0.28373042 0.2998095 -0.042497218 -0.1740712 0.032300778 0.003923367 -0.1264307
-0.05511631 0.10076212 -0.016879207 -0.1621922 0.010667227 -0.06615502 -0.18228371 -0.32851884
-0.2641598 -0.072719656 -0.15599501 -0.08144407 0.08485935 0.02866319 -0.10948678 -0.012179986
0.08182939 -0.0740179 -0.08934624 0.016995136 -0.17053849 -0.057869494 -0.14164725 -0.05441422
0.0370096 -0.11823445 -0.14766574 0.028749833 0.10082342 0.04976499 0.066072285 0.15510036
-0.13314441 -0.13603784 -0.022575704 0.006419941 -0.09429624 0.021237068 0.04625341 0.13335347
0.016832216 -0.15820241 -0.010873165 0.10369209 -0.052853983 -0.10306868 0.44985625 -0.2752216
-0.07164771 0.03568475 -0.020365892 -0.18038456 -0.12892708 -0.1133772 0.02063981 0.062405333
0.07729037 -0.14088008 0.0428719 -0.20332791 -0.31943503 0.06190933 -0.1011357 -0.19532087
0.13567428 0.18117863 0.042146396 0.033999965 -0.13591596 -0.17473984 -0.14956595 -0.15719403
-0.014961895 0.08930351 0.005960538 0.011101512 0.1695294 0.13899553 -0.1365321 -0.11334547
0.11309752 -0.08955542 0.076787636 -0.15542874 -0.001014121 -0.2772996 0.045317978 0.03682081
-0.0055872602 -0.06281638 -0.25678334 -0.070318274 -0.06975509 -0.014598627 -0.19754082 0.012108182
0.0336056 -0.08062659 0.34008422 -0.00074350246 -0.090339094 -0.045230944 0.031408552 0.041512825
-0.34075087 -0.029900817 -0.194635 -0.14662352 0.18782067 -0.15897343 0.13802743 -0.030699216
-0.090371706 0.03766603 -0.01299774 0.023587782 0.041867476 -0.014125826 0.046592616 0.17426102
0.014770552 0.014626328 0.17149289 -0.26732 -0.071813956 0.06640494 0.1271485 0.16403481
0.05330935 -0.070660785 -0.051344365 -0.02044265 -0.0003590847 0.16158004 -0.014166684 0.13790512
-0.041326553 0.12962563 0.13398601 -0.059531853 -0.043074787 0.105899595 0.04074103 -0.23621036
-0.2503146 0.0532116 0.11960455 0.024034433 0.045321614 -0.0752398 -0.10810555 -0.055553813
-0.057159543 -0.02694677 0.15575221 -0.044455748 -0.15565225 0.17562774 0.18732776 -0.13685755
-0.1587479 0.16830333 0.21051468 0.05414552 0.2464955 0.115003735 0.09460949 0.06645885
0.11208621 0.09395679 0.15055299 0.07454882 0.06930537 0.1546242 0.11163671 -0.16000067
-0.025259772 0.08138824 0.12611634 -0.039268184 0.15547228 0.12866984 -0.0341555 0.0023458044
-0.123600215 0.1215722 -0.22740857 0.22344635 0.14069062 -0.037550356 -0.09050081 0.06551965
0.10493021 0.025226416 -0.011064689 0.005020692 -0.063849725 0.038711827 0.17585997 0.19665913
-0.021235785 0.02392906 -0.029076293 0.110459484 0.08004943 -0.19070174 0.11493518 -0.057562456
0.081451096 0.17829658 0.0032077983 -0.110556714 0.15732716 -0.02649788 0.078760095 0.14850678
-0.054704987 -0.11120612 0.033286434 0.13452327 -0.030794699 -0.08278111 -0.08931685 0.09799946
0.24801993 0.213619 0.018618878 0.08200334 0.022546409 0.14980386 -0.09285273 -0.1951716
-0.14204773 0.19820248 0.049805906 -0.0053977333 -0.17101869 0.0012043581 -0.3274189 0.23992789
-0.05470153 0.054734424 0.026804486 -0.11446138 -0.0039590555 -0.025090484 -0.0575818 -0.020134354

linears.2.3.bias f4 [16]
00000000: 489f fdbd c1e4 fcbd 3847 e8bd 886b 6d3e
00000010: c1dd 803d 7ead 6a3c 4e07 f63c 6ac3 113d
00000020: 133e f2bd 8c9d 44be 8c5b 7a3c eb90 813d
00000030: f3c2 f83d e4cd 6c3e a201 733b 8fec 733e
-0.12383896 -0.12348319 -0.11341709 0.23185551 0.06292296 0.01432359 0.03003278 0.035586752
-0.11828246 -0.19200724 0.015280616 0.06326469 0.121465586 0.23125416 0.003707983 0.23820709

linears.3.0.weight f4 [64, 10]
00000000: 4a7e 913e 747c 7b3c b59d 853e 90ce 98be
00000010: e1be 51be e86f 0cbc 2650 3cbe 6b9e abbe
00000020: d91d 9ebe d6a1 1a3d 507a a33e 094a aebe
00000030: 08b4 3cbe e1c5 43be 6ab2 b3be 0af4 9e3e
00000040: 44cc d43d f0ad d8bd 4f17 abbe e6c5 12be
00000050: 4064 bc3e 4b99 99be 6fd0 e53d 5fd1 a039
00000060: 9942 8a3e 4682 b2be 29e7 aebe 4f38 013e
00000070: 750c cdbd 317b eebd 2bc6 b23e 27c2 58be
00000080: 1922 8bbe 8d26 22bd 8d64 97be 1126 b13e
00000090: dadb ab3e 9b96 2abe 8e4c ffbd c777 9dbe
000000a0: ca3f 6bbc f066 1ebe cfe3 8dbe d5de 053c
000000b0: bf6b 74be dfbe b3be a2af 4f3e a1f1 a3be
000000c0: e055 8abc 6360 07be bec1 c23e 6c0d db3d
000000d0: 34e3 fc3e 2d74 743e 56e4 113e 2761 cc3d
000000e0: 034c db3c 6a15 b1bd 7208 103d 6793 0f3e
000000f0: 9f11 1f3e 590b aa3e 68d0 acbe ddd3 5cbc
00000100: 722a dbbd b59a 0f3e 8453 1bbc 87b4 993e
00000110: cbf7 093d 83c9 75be 1704 debd db95 7dbe
00000120: 1347 c03c cbce 5e3e e2da fd3a abd1 263e
00000130: 8a9a fdbd 9e4b 14be ea77 b03e f6f5 923e
00000140: 5b63 b8bd 1bce 783e 67f3 c63d aae3 96be
00000150: d036 a33d 4458 08be 5389 243e 108b 5d3d
00000160: 6558 8fbd 3f31 b53b 394a 193e ec51 bfbe
00000170: 870c 753f 6cd9 d23c 7a15 c4bd 094d 75be
00000180: bac4 08bf 544f 703e 7c7e 97bd 7c5e 9abd
00000190: 0557 133d 6da3 a53e 306f a9be d808 acbe
000001a0: b599 90be fa8e 4dbe 0c72 c8be b071 1e3e
000001b0: 3969 613c 8515 793e e1a2 be3e 3f6e 2c3e
000001c0: 0912 c5be bbe5 bcbe ec35 91bc 812b 1239
000001d0: 7516 f53d 17b3 733e 8ee9 813e 74a2 87be
000001e0: 104b 11be e52f 56be c29c 533e c8dc 203e
000001f0: 0d4e 953c 5e6f b13d 7b0d 8cbe b8b1 523e
00000200: cdc0 0b3e aae2 08be 4f99 083e c415 853c
00000210: c15c 20bc 2b73 783e a54c 2dbe 1969 923e
00000220: 1d19 0c3f 5b5d c23d 8ce3 73bd fece 2fbe
00000230: c691 06be 3450 bfbe d57f b9be cfad c03b
00000240: d5ce 8cbd 595f d23e 4598 bf3e 3ccf 3bbe
00000250: 0e1c 1abb dc35 d9bd 2f4d b2bd 3007 96be
00000260: 743b 0a3d 01cf 4ebe 664e dcbd 458e d5bd
00000270: b901 3d3d f904 4dbe c529 7dbe 85f7 f63d
00000280: ab37 edbb e463 52bd e676 9b3e e3e2 09bc
00000290: e85a 2c3e 5842 a43c ab98 8e3e a51c 38be
000002a0: b1b1 803e f53a d53d 4146 5bbc 293a 76bd
000002b0: 6b4a 9d3c 6190 9a3c 87d2 90be 7c19 7bbd
000002c0: 95b3 9b3e f321 22bc b8a9 733e 0664 473e
000002d0: 711f 9fbe c8c8 65be a091 c63e 1946 f13d
000002e0: 407b 133c 9c38 a0bc 59c0 433d 4e4e 143e
000002f0: a32a c1bd 8f37 da3d 5f71 85bd a46a b03d
00000300: 6293 263f 05de c2be e697 85be a65a 323e
00000310: 46fb 3c3d dd63 c4bb 12f1 a13e 9ba4 87be
00000320: c8b6 803e 7a48 2d3d 3e11 55be 64e0 7d3e
00000330: 85e0 bb3e e57d 0cbd fed1 633e 57b9 40be
00000340: aa4e e9bc 8f33 873e 77de 21be d9ee 4b3e
00000350: 12a0 dabd 732d e13e 8288 383e 5028 393e
00000360: 9113 87bc 615c 6c3e 9246 753e 0f20 783e
00000370: acb8 7abd afe4 57be 72d6 9d3e a152 08ba
00000380: 3bb0 47be 1fa4 0ebe e6aa eebd 6986 03bd
00000390: f23e 3abe 678f 813e 2f27 84be 0af9 c2bd
000003a0: 21b3 1fbd 8ca6 35be c3ba 7d3e e090 ba3e
000003b0: b9c0 d53c cdcb 553e 0f7e ce3c 310b 33be
000003c0: 3194 e8bc b4a1 6c3e 5d5e f73c bed4 cebe
000003d0: 96e8 a6be f0dc 0b3f 5751 90be 5e26 063e
000003e0: c7e1 813e 6b87 b43c 5d0f 00be 2d9d d1bd
000003f0: 2661 4fbf ebed 223e b3f5 22bf 14cf 5bbd
0.28416663 0.015349496 0.26096883 -0.29845095 -0.20482971 -0.008571602 -0.18389949 -0.335193
-0.30882147 0.037751995 0.31929255 -0.3404086 -0.18428051 -0.19118454 -0.35097057 0.31045562
0.10390523 -0.10580051 -0.3341622 -0.14333305 0.36795235 -0.29999766 0.11221396 0.00030673572
0.27003935 -0.34865016 -0.34160736 0.12619136 -0.100121416 -0.11644591 0.34916815 -0.21167813
-0.27174452 -0.039587546 -0.29568902 0.34599355 0.3356617 -0.16659014 -0.124657735 -0.30755445
-0.01435847 -0.15468955 -0.27712867 0.008170803 -0.23869227 -0.3510656 0.20281842 -0.32020286
-0.016886652 -0.13220362 0.3803844 0.106959194 0.49392092 0.23872443 0.1424726 0.09979468
0.026769644 -0.086466625 0.035164304 0.14021073 0.15534066 0.33211783 -0.3375275 -0.0134782465
-0.10701455 0.1402386 -0.009480361 0.30020544 0.03368358 -0.24002652 -0.10840624 -0.24764197
0.02347139 0.21758573 0.00193676 0.1629092 -0.123829916 -0.1448197 0.34466487 0.28703278
-0.090033256 0.24297373 0.09714394 -0.2947057 0.07969439 -0.1331492 0.1606801 0.0540877
-0.06999282 0.005529552 0.1496972 -0.3736719 0.9572224 0.02573844 -0.09574409 -0.23955168
-0.5342518 0.23467761 -0.07397172 -0.07537553 0.03597166 0.32351246 -0.33092642 -0.33600497
-0.2824227 -0.20074072 -0.3914951 0.15473056 0.013757997 0.24324615 0.37233642 0.1683893
-0.38490322 -0.3689402 -0.017725907 0.00013939851 0.11967174 0.23798786 0.253735 -0.2649113
-0.1418879 -0.20916708 0.20665267 0.15709221 0.018225694 0.0866382 -0.27354035 0.20575607
0.13647766 -0.13367715 0.13339733 0.01624573 -0.009787739 0.24262683 -0.16923769 0.28595808
0.5472582 0.094904624 -0.059543177 -0.17168805 -0.13141546 -0.37365878 -0.3623034 0.0058800946
-0.068753876 0.4108837 0.3742086 -0.18340772 -0.0023515257 -0.10605976 -0.08706128 -0.2930236
0.033748105 -0.20196153 -0.10757141 -0.104275264 0.04614422 -0.20021428 -0.24722965 0.12058929
-0.007239302 -0.051364794 0.3036415 -0.00841591 0.16831553 0.020051166 0.2785085 -0.17979677
0.25135568 0.10411636 -0.013383449 -0.06011406 0.019200524 0.018867673 -0.2828562 -0.0613036
0.30410448 -0.009895789 0.23795211 0.1947175 -0.31078675 -0.22439873 0.38782978 0.11780948
0.009001553 -0.019558243 0.04779086 0.14482996 -0.094319604 0.10655128 -0.065157644 0.0861409
0.6506864 -0.38060012 -0.26092452 0.17417392 0.04613807 -0.00599335 0.31629235 -0.26492772
0.2513945 0.042305447 -0.20807359 0.2479263 0.36694732 -0.03429975 0.22248074 -0.18820702
-0.028479893 0.26406524 -0.1580752 0.19915332 -0.10675062 0.43979988 0.18020824 0.18081784
-0.016488822 0.23082115 0.23952702 0.2423098 -0.061211273 -0.2108333 0.3082767 -0.0005200301
-0.1950082 -0.13929795 -0.1165369 -0.032110605 -0.18188074 0.2530472 -0.25811145 -0.09520157
-0.03898919 -0.17739314 0.24778275 0.36438656 0.026092874 0.20878525 0.025206594 -0.17484738
-0.028390976 0.2310856 0.030196363 -0.40396684 -0.32599324 0.54634 -0.28187057 0.13100573
0.25367567 0.022037229 -0.1250586 -0.10235057 -0.8100761 0.15911071 -0.6365616 -0.053664282
